7767517
516 657
Input                    input                    0 1 input
Convolution              /backbone/conv1/conv/Conv 1 1 input /backbone/conv1/conv/Conv_output_0 0=16 1=3 3=2 4=1 5=1 6=432
Split                    splitncnn_0              1 6 /backbone/conv1/conv/Conv_output_0 /backbone/conv1/conv/Conv_output_0_splitncnn_0 /backbone/conv1/conv/Conv_output_0_splitncnn_1 /backbone/conv1/conv/Conv_output_0_splitncnn_2 /backbone/conv1/conv/Conv_output_0_splitncnn_3 /backbone/conv1/conv/Conv_output_0_splitncnn_4 /backbone/conv1/conv/Conv_output_0_splitncnn_5
BatchNorm                /backbone/blocks2/blocks2.0/dw_conv/identity/BatchNormalization 1 1 /backbone/conv1/conv/Conv_output_0_splitncnn_5 /backbone/blocks2/blocks2.0/dw_conv/identity/BatchNormalization_output_0 0=16
ConvolutionDepthWise     /backbone/blocks2/blocks2.0/dw_conv/conv_1x1/conv/Conv 1 1 /backbone/conv1/conv/Conv_output_0_splitncnn_4 /backbone/blocks2/blocks2.0/dw_conv/conv_1x1/conv/Conv_output_0 0=16 1=1 5=1 6=16 7=16
BinaryOp                 /backbone/blocks2/blocks2.0/dw_conv/Add_1 2 1 /backbone/blocks2/blocks2.0/dw_conv/identity/BatchNormalization_output_0 /backbone/blocks2/blocks2.0/dw_conv/conv_1x1/conv/Conv_output_0 /backbone/blocks2/blocks2.0/dw_conv/Add_1_output_0
ConvolutionDepthWise     /backbone/blocks2/blocks2.0/dw_conv/conv_kxk.0/conv/Conv 1 1 /backbone/conv1/conv/Conv_output_0_splitncnn_3 /backbone/blocks2/blocks2.0/dw_conv/conv_kxk.0/conv/Conv_output_0 0=16 1=3 4=1 5=1 6=144 7=16
BinaryOp                 /backbone/blocks2/blocks2.0/dw_conv/Add_2 2 1 /backbone/blocks2/blocks2.0/dw_conv/Add_1_output_0 /backbone/blocks2/blocks2.0/dw_conv/conv_kxk.0/conv/Conv_output_0 /backbone/blocks2/blocks2.0/dw_conv/Add_2_output_0
ConvolutionDepthWise     /backbone/blocks2/blocks2.0/dw_conv/conv_kxk.1/conv/Conv 1 1 /backbone/conv1/conv/Conv_output_0_splitncnn_2 /backbone/blocks2/blocks2.0/dw_conv/conv_kxk.1/conv/Conv_output_0 0=16 1=3 4=1 5=1 6=144 7=16
BinaryOp                 /backbone/blocks2/blocks2.0/dw_conv/Add_3 2 1 /backbone/blocks2/blocks2.0/dw_conv/Add_2_output_0 /backbone/blocks2/blocks2.0/dw_conv/conv_kxk.1/conv/Conv_output_0 /backbone/blocks2/blocks2.0/dw_conv/Add_3_output_0
ConvolutionDepthWise     /backbone/blocks2/blocks2.0/dw_conv/conv_kxk.2/conv/Conv 1 1 /backbone/conv1/conv/Conv_output_0_splitncnn_1 /backbone/blocks2/blocks2.0/dw_conv/conv_kxk.2/conv/Conv_output_0 0=16 1=3 4=1 5=1 6=144 7=16
BinaryOp                 /backbone/blocks2/blocks2.0/dw_conv/Add_4 2 1 /backbone/blocks2/blocks2.0/dw_conv/Add_3_output_0 /backbone/blocks2/blocks2.0/dw_conv/conv_kxk.2/conv/Conv_output_0 /backbone/blocks2/blocks2.0/dw_conv/Add_4_output_0
ConvolutionDepthWise     /backbone/blocks2/blocks2.0/dw_conv/conv_kxk.3/conv/Conv 1 1 /backbone/conv1/conv/Conv_output_0_splitncnn_0 /backbone/blocks2/blocks2.0/dw_conv/conv_kxk.3/conv/Conv_output_0 0=16 1=3 4=1 5=1 6=144 7=16
BinaryOp                 /backbone/blocks2/blocks2.0/dw_conv/Add_5 2 1 /backbone/blocks2/blocks2.0/dw_conv/Add_4_output_0 /backbone/blocks2/blocks2.0/dw_conv/conv_kxk.3/conv/Conv_output_0 /backbone/blocks2/blocks2.0/dw_conv/Add_5_output_0
BinaryOp                 /backbone/blocks2/blocks2.0/dw_conv/lab/Mul 1 1 /backbone/blocks2/blocks2.0/dw_conv/Add_5_output_0 /backbone/blocks2/blocks2.0/dw_conv/lab/Mul_output_0 0=2 1=1 2=9.431691e-01
BinaryOp                 /backbone/blocks2/blocks2.0/dw_conv/lab/Add 1 1 /backbone/blocks2/blocks2.0/dw_conv/lab/Mul_output_0 /backbone/blocks2/blocks2.0/dw_conv/lab/Add_output_0 1=1 2=5.042972e-01
HardSwish                /backbone/blocks2/blocks2.0/dw_conv/act/act/Mul 1 1 /backbone/blocks2/blocks2.0/dw_conv/lab/Add_output_0 /backbone/blocks2/blocks2.0/dw_conv/act/act/Mul_output_0 0=1.666667e-01
BinaryOp                 /backbone/blocks2/blocks2.0/dw_conv/act/lab/Mul 1 1 /backbone/blocks2/blocks2.0/dw_conv/act/act/Mul_output_0 /backbone/blocks2/blocks2.0/dw_conv/act/lab/Mul_output_0 0=2 1=1 2=4.763231e-01
BinaryOp                 /backbone/blocks2/blocks2.0/dw_conv/act/lab/Add 1 1 /backbone/blocks2/blocks2.0/dw_conv/act/lab/Mul_output_0 /backbone/blocks2/blocks2.0/dw_conv/act/lab/Add_output_0 1=1 2=-7.573244e-03
Split                    splitncnn_1              1 4 /backbone/blocks2/blocks2.0/dw_conv/act/lab/Add_output_0 /backbone/blocks2/blocks2.0/dw_conv/act/lab/Add_output_0_splitncnn_0 /backbone/blocks2/blocks2.0/dw_conv/act/lab/Add_output_0_splitncnn_1 /backbone/blocks2/blocks2.0/dw_conv/act/lab/Add_output_0_splitncnn_2 /backbone/blocks2/blocks2.0/dw_conv/act/lab/Add_output_0_splitncnn_3
Convolution              /backbone/blocks2/blocks2.0/pw_conv/conv_kxk.0/conv/Conv 1 1 /backbone/blocks2/blocks2.0/dw_conv/act/lab/Add_output_0_splitncnn_3 /backbone/blocks2/blocks2.0/pw_conv/conv_kxk.0/conv/Conv_output_0 0=32 1=1 5=1 6=512
Convolution              /backbone/blocks2/blocks2.0/pw_conv/conv_kxk.1/conv/Conv 1 1 /backbone/blocks2/blocks2.0/dw_conv/act/lab/Add_output_0_splitncnn_2 /backbone/blocks2/blocks2.0/pw_conv/conv_kxk.1/conv/Conv_output_0 0=32 1=1 5=1 6=512
BinaryOp                 /backbone/blocks2/blocks2.0/pw_conv/Add_1 2 1 /backbone/blocks2/blocks2.0/pw_conv/conv_kxk.0/conv/Conv_output_0 /backbone/blocks2/blocks2.0/pw_conv/conv_kxk.1/conv/Conv_output_0 /backbone/blocks2/blocks2.0/pw_conv/Add_1_output_0
Convolution              /backbone/blocks2/blocks2.0/pw_conv/conv_kxk.2/conv/Conv 1 1 /backbone/blocks2/blocks2.0/dw_conv/act/lab/Add_output_0_splitncnn_1 /backbone/blocks2/blocks2.0/pw_conv/conv_kxk.2/conv/Conv_output_0 0=32 1=1 5=1 6=512
BinaryOp                 /backbone/blocks2/blocks2.0/pw_conv/Add_2 2 1 /backbone/blocks2/blocks2.0/pw_conv/Add_1_output_0 /backbone/blocks2/blocks2.0/pw_conv/conv_kxk.2/conv/Conv_output_0 /backbone/blocks2/blocks2.0/pw_conv/Add_2_output_0
Convolution              /backbone/blocks2/blocks2.0/pw_conv/conv_kxk.3/conv/Conv 1 1 /backbone/blocks2/blocks2.0/dw_conv/act/lab/Add_output_0_splitncnn_0 /backbone/blocks2/blocks2.0/pw_conv/conv_kxk.3/conv/Conv_output_0 0=32 1=1 5=1 6=512
BinaryOp                 /backbone/blocks2/blocks2.0/pw_conv/Add_3 2 1 /backbone/blocks2/blocks2.0/pw_conv/Add_2_output_0 /backbone/blocks2/blocks2.0/pw_conv/conv_kxk.3/conv/Conv_output_0 /backbone/blocks2/blocks2.0/pw_conv/Add_3_output_0
BinaryOp                 /backbone/blocks2/blocks2.0/pw_conv/lab/Mul 1 1 /backbone/blocks2/blocks2.0/pw_conv/Add_3_output_0 /backbone/blocks2/blocks2.0/pw_conv/lab/Mul_output_0 0=2 1=1 2=1.900608e+00
BinaryOp                 /backbone/blocks2/blocks2.0/pw_conv/lab/Add 1 1 /backbone/blocks2/blocks2.0/pw_conv/lab/Mul_output_0 /backbone/blocks2/blocks2.0/pw_conv/lab/Add_output_0 1=1 2=8.011721e-01
HardSwish                /backbone/blocks2/blocks2.0/pw_conv/act/act/Mul 1 1 /backbone/blocks2/blocks2.0/pw_conv/lab/Add_output_0 /backbone/blocks2/blocks2.0/pw_conv/act/act/Mul_output_0 0=1.666667e-01
BinaryOp                 /backbone/blocks2/blocks2.0/pw_conv/act/lab/Mul 1 1 /backbone/blocks2/blocks2.0/pw_conv/act/act/Mul_output_0 /backbone/blocks2/blocks2.0/pw_conv/act/lab/Mul_output_0 0=2 1=1 2=6.329659e-01
BinaryOp                 /backbone/blocks2/blocks2.0/pw_conv/act/lab/Add 1 1 /backbone/blocks2/blocks2.0/pw_conv/act/lab/Mul_output_0 /backbone/blocks2/blocks2.0/pw_conv/act/lab/Add_output_0 1=1 2=-5.465887e-01
Split                    splitncnn_2              1 5 /backbone/blocks2/blocks2.0/pw_conv/act/lab/Add_output_0 /backbone/blocks2/blocks2.0/pw_conv/act/lab/Add_output_0_splitncnn_0 /backbone/blocks2/blocks2.0/pw_conv/act/lab/Add_output_0_splitncnn_1 /backbone/blocks2/blocks2.0/pw_conv/act/lab/Add_output_0_splitncnn_2 /backbone/blocks2/blocks2.0/pw_conv/act/lab/Add_output_0_splitncnn_3 /backbone/blocks2/blocks2.0/pw_conv/act/lab/Add_output_0_splitncnn_4
ConvolutionDepthWise     /backbone/blocks3/blocks3.0/dw_conv/conv_1x1/conv/Conv 1 1 /backbone/blocks2/blocks2.0/pw_conv/act/lab/Add_output_0_splitncnn_4 /backbone/blocks3/blocks3.0/dw_conv/conv_1x1/conv/Conv_output_0 0=32 1=1 3=2 5=1 6=32 7=32
ConvolutionDepthWise     /backbone/blocks3/blocks3.0/dw_conv/conv_kxk.0/conv/Conv 1 1 /backbone/blocks2/blocks2.0/pw_conv/act/lab/Add_output_0_splitncnn_3 /backbone/blocks3/blocks3.0/dw_conv/conv_kxk.0/conv/Conv_output_0 0=32 1=3 3=2 4=1 5=1 6=288 7=32
BinaryOp                 /backbone/blocks3/blocks3.0/dw_conv/Add_1 2 1 /backbone/blocks3/blocks3.0/dw_conv/conv_1x1/conv/Conv_output_0 /backbone/blocks3/blocks3.0/dw_conv/conv_kxk.0/conv/Conv_output_0 /backbone/blocks3/blocks3.0/dw_conv/Add_1_output_0
ConvolutionDepthWise     /backbone/blocks3/blocks3.0/dw_conv/conv_kxk.1/conv/Conv 1 1 /backbone/blocks2/blocks2.0/pw_conv/act/lab/Add_output_0_splitncnn_2 /backbone/blocks3/blocks3.0/dw_conv/conv_kxk.1/conv/Conv_output_0 0=32 1=3 3=2 4=1 5=1 6=288 7=32
BinaryOp                 /backbone/blocks3/blocks3.0/dw_conv/Add_2 2 1 /backbone/blocks3/blocks3.0/dw_conv/Add_1_output_0 /backbone/blocks3/blocks3.0/dw_conv/conv_kxk.1/conv/Conv_output_0 /backbone/blocks3/blocks3.0/dw_conv/Add_2_output_0
ConvolutionDepthWise     /backbone/blocks3/blocks3.0/dw_conv/conv_kxk.2/conv/Conv 1 1 /backbone/blocks2/blocks2.0/pw_conv/act/lab/Add_output_0_splitncnn_1 /backbone/blocks3/blocks3.0/dw_conv/conv_kxk.2/conv/Conv_output_0 0=32 1=3 3=2 4=1 5=1 6=288 7=32
BinaryOp                 /backbone/blocks3/blocks3.0/dw_conv/Add_3 2 1 /backbone/blocks3/blocks3.0/dw_conv/Add_2_output_0 /backbone/blocks3/blocks3.0/dw_conv/conv_kxk.2/conv/Conv_output_0 /backbone/blocks3/blocks3.0/dw_conv/Add_3_output_0
ConvolutionDepthWise     /backbone/blocks3/blocks3.0/dw_conv/conv_kxk.3/conv/Conv 1 1 /backbone/blocks2/blocks2.0/pw_conv/act/lab/Add_output_0_splitncnn_0 /backbone/blocks3/blocks3.0/dw_conv/conv_kxk.3/conv/Conv_output_0 0=32 1=3 3=2 4=1 5=1 6=288 7=32
BinaryOp                 /backbone/blocks3/blocks3.0/dw_conv/Add_4 2 1 /backbone/blocks3/blocks3.0/dw_conv/Add_3_output_0 /backbone/blocks3/blocks3.0/dw_conv/conv_kxk.3/conv/Conv_output_0 /backbone/blocks3/blocks3.0/dw_conv/Add_4_output_0
BinaryOp                 /backbone/blocks3/blocks3.0/dw_conv/lab/Mul 1 1 /backbone/blocks3/blocks3.0/dw_conv/Add_4_output_0 /backbone/blocks3/blocks3.0/dw_conv/lab/Mul_output_0 0=2 1=1 2=3.624618e-01
BinaryOp                 /backbone/blocks3/blocks3.0/dw_conv/lab/Add 1 1 /backbone/blocks3/blocks3.0/dw_conv/lab/Mul_output_0 /backbone/blocks3/blocks3.0/dw_conv/lab/Add_output_0 1=1 2=3.397841e-04
Split                    splitncnn_3              1 4 /backbone/blocks3/blocks3.0/dw_conv/lab/Add_output_0 /backbone/blocks3/blocks3.0/dw_conv/lab/Add_output_0_splitncnn_0 /backbone/blocks3/blocks3.0/dw_conv/lab/Add_output_0_splitncnn_1 /backbone/blocks3/blocks3.0/dw_conv/lab/Add_output_0_splitncnn_2 /backbone/blocks3/blocks3.0/dw_conv/lab/Add_output_0_splitncnn_3
Convolution              /backbone/blocks3/blocks3.0/pw_conv/conv_kxk.0/conv/Conv 1 1 /backbone/blocks3/blocks3.0/dw_conv/lab/Add_output_0_splitncnn_3 /backbone/blocks3/blocks3.0/pw_conv/conv_kxk.0/conv/Conv_output_0 0=48 1=1 5=1 6=1536
Convolution              /backbone/blocks3/blocks3.0/pw_conv/conv_kxk.1/conv/Conv 1 1 /backbone/blocks3/blocks3.0/dw_conv/lab/Add_output_0_splitncnn_2 /backbone/blocks3/blocks3.0/pw_conv/conv_kxk.1/conv/Conv_output_0 0=48 1=1 5=1 6=1536
BinaryOp                 /backbone/blocks3/blocks3.0/pw_conv/Add_1 2 1 /backbone/blocks3/blocks3.0/pw_conv/conv_kxk.0/conv/Conv_output_0 /backbone/blocks3/blocks3.0/pw_conv/conv_kxk.1/conv/Conv_output_0 /backbone/blocks3/blocks3.0/pw_conv/Add_1_output_0
Convolution              /backbone/blocks3/blocks3.0/pw_conv/conv_kxk.2/conv/Conv 1 1 /backbone/blocks3/blocks3.0/dw_conv/lab/Add_output_0_splitncnn_1 /backbone/blocks3/blocks3.0/pw_conv/conv_kxk.2/conv/Conv_output_0 0=48 1=1 5=1 6=1536
BinaryOp                 /backbone/blocks3/blocks3.0/pw_conv/Add_2 2 1 /backbone/blocks3/blocks3.0/pw_conv/Add_1_output_0 /backbone/blocks3/blocks3.0/pw_conv/conv_kxk.2/conv/Conv_output_0 /backbone/blocks3/blocks3.0/pw_conv/Add_2_output_0
Convolution              /backbone/blocks3/blocks3.0/pw_conv/conv_kxk.3/conv/Conv 1 1 /backbone/blocks3/blocks3.0/dw_conv/lab/Add_output_0_splitncnn_0 /backbone/blocks3/blocks3.0/pw_conv/conv_kxk.3/conv/Conv_output_0 0=48 1=1 5=1 6=1536
BinaryOp                 /backbone/blocks3/blocks3.0/pw_conv/Add_3 2 1 /backbone/blocks3/blocks3.0/pw_conv/Add_2_output_0 /backbone/blocks3/blocks3.0/pw_conv/conv_kxk.3/conv/Conv_output_0 /backbone/blocks3/blocks3.0/pw_conv/Add_3_output_0
BinaryOp                 /backbone/blocks3/blocks3.0/pw_conv/lab/Mul 1 1 /backbone/blocks3/blocks3.0/pw_conv/Add_3_output_0 /backbone/blocks3/blocks3.0/pw_conv/lab/Mul_output_0 0=2 1=1 2=9.224852e-01
BinaryOp                 /backbone/blocks3/blocks3.0/pw_conv/lab/Add 1 1 /backbone/blocks3/blocks3.0/pw_conv/lab/Mul_output_0 /backbone/blocks3/blocks3.0/pw_conv/lab/Add_output_0 1=1 2=1.812718e+00
HardSwish                /backbone/blocks3/blocks3.0/pw_conv/act/act/Mul 1 1 /backbone/blocks3/blocks3.0/pw_conv/lab/Add_output_0 /backbone/blocks3/blocks3.0/pw_conv/act/act/Mul_output_0 0=1.666667e-01
BinaryOp                 /backbone/blocks3/blocks3.0/pw_conv/act/lab/Mul 1 1 /backbone/blocks3/blocks3.0/pw_conv/act/act/Mul_output_0 /backbone/blocks3/blocks3.0/pw_conv/act/lab/Mul_output_0 0=2 1=1 2=4.094807e-01
BinaryOp                 /backbone/blocks3/blocks3.0/pw_conv/act/lab/Add 1 1 /backbone/blocks3/blocks3.0/pw_conv/act/lab/Mul_output_0 /backbone/blocks3/blocks3.0/pw_conv/act/lab/Add_output_0 1=1 2=-8.735485e-01
Split                    splitncnn_4              1 6 /backbone/blocks3/blocks3.0/pw_conv/act/lab/Add_output_0 /backbone/blocks3/blocks3.0/pw_conv/act/lab/Add_output_0_splitncnn_0 /backbone/blocks3/blocks3.0/pw_conv/act/lab/Add_output_0_splitncnn_1 /backbone/blocks3/blocks3.0/pw_conv/act/lab/Add_output_0_splitncnn_2 /backbone/blocks3/blocks3.0/pw_conv/act/lab/Add_output_0_splitncnn_3 /backbone/blocks3/blocks3.0/pw_conv/act/lab/Add_output_0_splitncnn_4 /backbone/blocks3/blocks3.0/pw_conv/act/lab/Add_output_0_splitncnn_5
BatchNorm                /backbone/blocks3/blocks3.1/dw_conv/identity/BatchNormalization 1 1 /backbone/blocks3/blocks3.0/pw_conv/act/lab/Add_output_0_splitncnn_5 /backbone/blocks3/blocks3.1/dw_conv/identity/BatchNormalization_output_0 0=48
ConvolutionDepthWise     /backbone/blocks3/blocks3.1/dw_conv/conv_1x1/conv/Conv 1 1 /backbone/blocks3/blocks3.0/pw_conv/act/lab/Add_output_0_splitncnn_4 /backbone/blocks3/blocks3.1/dw_conv/conv_1x1/conv/Conv_output_0 0=48 1=1 5=1 6=48 7=48
BinaryOp                 /backbone/blocks3/blocks3.1/dw_conv/Add_1 2 1 /backbone/blocks3/blocks3.1/dw_conv/identity/BatchNormalization_output_0 /backbone/blocks3/blocks3.1/dw_conv/conv_1x1/conv/Conv_output_0 /backbone/blocks3/blocks3.1/dw_conv/Add_1_output_0
ConvolutionDepthWise     /backbone/blocks3/blocks3.1/dw_conv/conv_kxk.0/conv/Conv 1 1 /backbone/blocks3/blocks3.0/pw_conv/act/lab/Add_output_0_splitncnn_3 /backbone/blocks3/blocks3.1/dw_conv/conv_kxk.0/conv/Conv_output_0 0=48 1=3 4=1 5=1 6=432 7=48
BinaryOp                 /backbone/blocks3/blocks3.1/dw_conv/Add_2 2 1 /backbone/blocks3/blocks3.1/dw_conv/Add_1_output_0 /backbone/blocks3/blocks3.1/dw_conv/conv_kxk.0/conv/Conv_output_0 /backbone/blocks3/blocks3.1/dw_conv/Add_2_output_0
ConvolutionDepthWise     /backbone/blocks3/blocks3.1/dw_conv/conv_kxk.1/conv/Conv 1 1 /backbone/blocks3/blocks3.0/pw_conv/act/lab/Add_output_0_splitncnn_2 /backbone/blocks3/blocks3.1/dw_conv/conv_kxk.1/conv/Conv_output_0 0=48 1=3 4=1 5=1 6=432 7=48
BinaryOp                 /backbone/blocks3/blocks3.1/dw_conv/Add_3 2 1 /backbone/blocks3/blocks3.1/dw_conv/Add_2_output_0 /backbone/blocks3/blocks3.1/dw_conv/conv_kxk.1/conv/Conv_output_0 /backbone/blocks3/blocks3.1/dw_conv/Add_3_output_0
ConvolutionDepthWise     /backbone/blocks3/blocks3.1/dw_conv/conv_kxk.2/conv/Conv 1 1 /backbone/blocks3/blocks3.0/pw_conv/act/lab/Add_output_0_splitncnn_1 /backbone/blocks3/blocks3.1/dw_conv/conv_kxk.2/conv/Conv_output_0 0=48 1=3 4=1 5=1 6=432 7=48
BinaryOp                 /backbone/blocks3/blocks3.1/dw_conv/Add_4 2 1 /backbone/blocks3/blocks3.1/dw_conv/Add_3_output_0 /backbone/blocks3/blocks3.1/dw_conv/conv_kxk.2/conv/Conv_output_0 /backbone/blocks3/blocks3.1/dw_conv/Add_4_output_0
ConvolutionDepthWise     /backbone/blocks3/blocks3.1/dw_conv/conv_kxk.3/conv/Conv 1 1 /backbone/blocks3/blocks3.0/pw_conv/act/lab/Add_output_0_splitncnn_0 /backbone/blocks3/blocks3.1/dw_conv/conv_kxk.3/conv/Conv_output_0 0=48 1=3 4=1 5=1 6=432 7=48
BinaryOp                 /backbone/blocks3/blocks3.1/dw_conv/Add_5 2 1 /backbone/blocks3/blocks3.1/dw_conv/Add_4_output_0 /backbone/blocks3/blocks3.1/dw_conv/conv_kxk.3/conv/Conv_output_0 /backbone/blocks3/blocks3.1/dw_conv/Add_5_output_0
BinaryOp                 /backbone/blocks3/blocks3.1/dw_conv/lab/Mul 1 1 /backbone/blocks3/blocks3.1/dw_conv/Add_5_output_0 /backbone/blocks3/blocks3.1/dw_conv/lab/Mul_output_0 0=2 1=1 2=2.728160e+00
BinaryOp                 /backbone/blocks3/blocks3.1/dw_conv/lab/Add 1 1 /backbone/blocks3/blocks3.1/dw_conv/lab/Mul_output_0 /backbone/blocks3/blocks3.1/dw_conv/lab/Add_output_0 1=1 2=4.215211e-01
HardSwish                /backbone/blocks3/blocks3.1/dw_conv/act/act/Mul 1 1 /backbone/blocks3/blocks3.1/dw_conv/lab/Add_output_0 /backbone/blocks3/blocks3.1/dw_conv/act/act/Mul_output_0 0=1.666667e-01
BinaryOp                 /backbone/blocks3/blocks3.1/dw_conv/act/lab/Mul 1 1 /backbone/blocks3/blocks3.1/dw_conv/act/act/Mul_output_0 /backbone/blocks3/blocks3.1/dw_conv/act/lab/Mul_output_0 0=2 1=1 2=4.946209e-01
BinaryOp                 /backbone/blocks3/blocks3.1/dw_conv/act/lab/Add 1 1 /backbone/blocks3/blocks3.1/dw_conv/act/lab/Mul_output_0 /backbone/blocks3/blocks3.1/dw_conv/act/lab/Add_output_0 1=1 2=-8.809267e-05
Split                    splitncnn_5              1 5 /backbone/blocks3/blocks3.1/dw_conv/act/lab/Add_output_0 /backbone/blocks3/blocks3.1/dw_conv/act/lab/Add_output_0_splitncnn_0 /backbone/blocks3/blocks3.1/dw_conv/act/lab/Add_output_0_splitncnn_1 /backbone/blocks3/blocks3.1/dw_conv/act/lab/Add_output_0_splitncnn_2 /backbone/blocks3/blocks3.1/dw_conv/act/lab/Add_output_0_splitncnn_3 /backbone/blocks3/blocks3.1/dw_conv/act/lab/Add_output_0_splitncnn_4
BatchNorm                /backbone/blocks3/blocks3.1/pw_conv/identity/BatchNormalization 1 1 /backbone/blocks3/blocks3.1/dw_conv/act/lab/Add_output_0_splitncnn_4 /backbone/blocks3/blocks3.1/pw_conv/identity/BatchNormalization_output_0 0=48
Convolution              /backbone/blocks3/blocks3.1/pw_conv/conv_kxk.0/conv/Conv 1 1 /backbone/blocks3/blocks3.1/dw_conv/act/lab/Add_output_0_splitncnn_3 /backbone/blocks3/blocks3.1/pw_conv/conv_kxk.0/conv/Conv_output_0 0=48 1=1 5=1 6=2304
BinaryOp                 /backbone/blocks3/blocks3.1/pw_conv/Add_1 2 1 /backbone/blocks3/blocks3.1/pw_conv/identity/BatchNormalization_output_0 /backbone/blocks3/blocks3.1/pw_conv/conv_kxk.0/conv/Conv_output_0 /backbone/blocks3/blocks3.1/pw_conv/Add_1_output_0
Convolution              /backbone/blocks3/blocks3.1/pw_conv/conv_kxk.1/conv/Conv 1 1 /backbone/blocks3/blocks3.1/dw_conv/act/lab/Add_output_0_splitncnn_2 /backbone/blocks3/blocks3.1/pw_conv/conv_kxk.1/conv/Conv_output_0 0=48 1=1 5=1 6=2304
BinaryOp                 /backbone/blocks3/blocks3.1/pw_conv/Add_2 2 1 /backbone/blocks3/blocks3.1/pw_conv/Add_1_output_0 /backbone/blocks3/blocks3.1/pw_conv/conv_kxk.1/conv/Conv_output_0 /backbone/blocks3/blocks3.1/pw_conv/Add_2_output_0
Convolution              /backbone/blocks3/blocks3.1/pw_conv/conv_kxk.2/conv/Conv 1 1 /backbone/blocks3/blocks3.1/dw_conv/act/lab/Add_output_0_splitncnn_1 /backbone/blocks3/blocks3.1/pw_conv/conv_kxk.2/conv/Conv_output_0 0=48 1=1 5=1 6=2304
BinaryOp                 /backbone/blocks3/blocks3.1/pw_conv/Add_3 2 1 /backbone/blocks3/blocks3.1/pw_conv/Add_2_output_0 /backbone/blocks3/blocks3.1/pw_conv/conv_kxk.2/conv/Conv_output_0 /backbone/blocks3/blocks3.1/pw_conv/Add_3_output_0
Convolution              /backbone/blocks3/blocks3.1/pw_conv/conv_kxk.3/conv/Conv 1 1 /backbone/blocks3/blocks3.1/dw_conv/act/lab/Add_output_0_splitncnn_0 /backbone/blocks3/blocks3.1/pw_conv/conv_kxk.3/conv/Conv_output_0 0=48 1=1 5=1 6=2304
BinaryOp                 /backbone/blocks3/blocks3.1/pw_conv/Add_4 2 1 /backbone/blocks3/blocks3.1/pw_conv/Add_3_output_0 /backbone/blocks3/blocks3.1/pw_conv/conv_kxk.3/conv/Conv_output_0 /backbone/blocks3/blocks3.1/pw_conv/Add_4_output_0
BinaryOp                 /backbone/blocks3/blocks3.1/pw_conv/lab/Mul 1 1 /backbone/blocks3/blocks3.1/pw_conv/Add_4_output_0 /backbone/blocks3/blocks3.1/pw_conv/lab/Mul_output_0 0=2 1=1 2=1.258955e+00
BinaryOp                 /backbone/blocks3/blocks3.1/pw_conv/lab/Add 1 1 /backbone/blocks3/blocks3.1/pw_conv/lab/Mul_output_0 /backbone/blocks3/blocks3.1/pw_conv/lab/Add_output_0 1=1 2=9.322258e-01
HardSwish                /backbone/blocks3/blocks3.1/pw_conv/act/act/Mul 1 1 /backbone/blocks3/blocks3.1/pw_conv/lab/Add_output_0 /backbone/blocks3/blocks3.1/pw_conv/act/act/Mul_output_0 0=1.666667e-01
BinaryOp                 /backbone/blocks3/blocks3.1/pw_conv/act/lab/Mul 1 1 /backbone/blocks3/blocks3.1/pw_conv/act/act/Mul_output_0 /backbone/blocks3/blocks3.1/pw_conv/act/lab/Mul_output_0 0=2 1=1 2=9.662902e-01
BinaryOp                 /backbone/blocks3/blocks3.1/pw_conv/act/lab/Add 1 1 /backbone/blocks3/blocks3.1/pw_conv/act/lab/Mul_output_0 /backbone/blocks3/blocks3.1/pw_conv/act/lab/Add_output_0 1=1 2=-4.447888e-01
Split                    splitncnn_6              1 6 /backbone/blocks3/blocks3.1/pw_conv/act/lab/Add_output_0 /backbone/blocks3/blocks3.1/pw_conv/act/lab/Add_output_0_splitncnn_0 /backbone/blocks3/blocks3.1/pw_conv/act/lab/Add_output_0_splitncnn_1 /backbone/blocks3/blocks3.1/pw_conv/act/lab/Add_output_0_splitncnn_2 /backbone/blocks3/blocks3.1/pw_conv/act/lab/Add_output_0_splitncnn_3 /backbone/blocks3/blocks3.1/pw_conv/act/lab/Add_output_0_splitncnn_4 /backbone/blocks3/blocks3.1/pw_conv/act/lab/Add_output_0_splitncnn_5
ConvolutionDepthWise     /backbone/blocks4/blocks4.0/dw_conv/conv_1x1/conv/Conv 1 1 /backbone/blocks3/blocks3.1/pw_conv/act/lab/Add_output_0_splitncnn_5 /backbone/blocks4/blocks4.0/dw_conv/conv_1x1/conv/Conv_output_0 0=48 1=1 3=2 5=1 6=48 7=48
ConvolutionDepthWise     /backbone/blocks4/blocks4.0/dw_conv/conv_kxk.0/conv/Conv 1 1 /backbone/blocks3/blocks3.1/pw_conv/act/lab/Add_output_0_splitncnn_4 /backbone/blocks4/blocks4.0/dw_conv/conv_kxk.0/conv/Conv_output_0 0=48 1=3 3=2 4=1 5=1 6=432 7=48
BinaryOp                 /backbone/blocks4/blocks4.0/dw_conv/Add_1 2 1 /backbone/blocks4/blocks4.0/dw_conv/conv_1x1/conv/Conv_output_0 /backbone/blocks4/blocks4.0/dw_conv/conv_kxk.0/conv/Conv_output_0 /backbone/blocks4/blocks4.0/dw_conv/Add_1_output_0
ConvolutionDepthWise     /backbone/blocks4/blocks4.0/dw_conv/conv_kxk.1/conv/Conv 1 1 /backbone/blocks3/blocks3.1/pw_conv/act/lab/Add_output_0_splitncnn_3 /backbone/blocks4/blocks4.0/dw_conv/conv_kxk.1/conv/Conv_output_0 0=48 1=3 3=2 4=1 5=1 6=432 7=48
BinaryOp                 /backbone/blocks4/blocks4.0/dw_conv/Add_2 2 1 /backbone/blocks4/blocks4.0/dw_conv/Add_1_output_0 /backbone/blocks4/blocks4.0/dw_conv/conv_kxk.1/conv/Conv_output_0 /backbone/blocks4/blocks4.0/dw_conv/Add_2_output_0
ConvolutionDepthWise     /backbone/blocks4/blocks4.0/dw_conv/conv_kxk.2/conv/Conv 1 1 /backbone/blocks3/blocks3.1/pw_conv/act/lab/Add_output_0_splitncnn_2 /backbone/blocks4/blocks4.0/dw_conv/conv_kxk.2/conv/Conv_output_0 0=48 1=3 3=2 4=1 5=1 6=432 7=48
BinaryOp                 /backbone/blocks4/blocks4.0/dw_conv/Add_3 2 1 /backbone/blocks4/blocks4.0/dw_conv/Add_2_output_0 /backbone/blocks4/blocks4.0/dw_conv/conv_kxk.2/conv/Conv_output_0 /backbone/blocks4/blocks4.0/dw_conv/Add_3_output_0
ConvolutionDepthWise     /backbone/blocks4/blocks4.0/dw_conv/conv_kxk.3/conv/Conv 1 1 /backbone/blocks3/blocks3.1/pw_conv/act/lab/Add_output_0_splitncnn_1 /backbone/blocks4/blocks4.0/dw_conv/conv_kxk.3/conv/Conv_output_0 0=48 1=3 3=2 4=1 5=1 6=432 7=48
BinaryOp                 /backbone/blocks4/blocks4.0/dw_conv/Add_4 2 1 /backbone/blocks4/blocks4.0/dw_conv/Add_3_output_0 /backbone/blocks4/blocks4.0/dw_conv/conv_kxk.3/conv/Conv_output_0 /backbone/blocks4/blocks4.0/dw_conv/Add_4_output_0
BinaryOp                 /backbone/blocks4/blocks4.0/dw_conv/lab/Mul 1 1 /backbone/blocks4/blocks4.0/dw_conv/Add_4_output_0 /backbone/blocks4/blocks4.0/dw_conv/lab/Mul_output_0 0=2 1=1 2=3.150752e-01
BinaryOp                 /backbone/blocks4/blocks4.0/dw_conv/lab/Add 1 1 /backbone/blocks4/blocks4.0/dw_conv/lab/Mul_output_0 /backbone/blocks4/blocks4.0/dw_conv/lab/Add_output_0 1=1 2=-2.377586e-03
Split                    splitncnn_7              1 4 /backbone/blocks4/blocks4.0/dw_conv/lab/Add_output_0 /backbone/blocks4/blocks4.0/dw_conv/lab/Add_output_0_splitncnn_0 /backbone/blocks4/blocks4.0/dw_conv/lab/Add_output_0_splitncnn_1 /backbone/blocks4/blocks4.0/dw_conv/lab/Add_output_0_splitncnn_2 /backbone/blocks4/blocks4.0/dw_conv/lab/Add_output_0_splitncnn_3
Convolution              /backbone/blocks4/blocks4.0/pw_conv/conv_kxk.0/conv/Conv 1 1 /backbone/blocks4/blocks4.0/dw_conv/lab/Add_output_0_splitncnn_3 /backbone/blocks4/blocks4.0/pw_conv/conv_kxk.0/conv/Conv_output_0 0=96 1=1 5=1 6=4608
Convolution              /backbone/blocks4/blocks4.0/pw_conv/conv_kxk.1/conv/Conv 1 1 /backbone/blocks4/blocks4.0/dw_conv/lab/Add_output_0_splitncnn_2 /backbone/blocks4/blocks4.0/pw_conv/conv_kxk.1/conv/Conv_output_0 0=96 1=1 5=1 6=4608
BinaryOp                 /backbone/blocks4/blocks4.0/pw_conv/Add_1 2 1 /backbone/blocks4/blocks4.0/pw_conv/conv_kxk.0/conv/Conv_output_0 /backbone/blocks4/blocks4.0/pw_conv/conv_kxk.1/conv/Conv_output_0 /backbone/blocks4/blocks4.0/pw_conv/Add_1_output_0
Convolution              /backbone/blocks4/blocks4.0/pw_conv/conv_kxk.2/conv/Conv 1 1 /backbone/blocks4/blocks4.0/dw_conv/lab/Add_output_0_splitncnn_1 /backbone/blocks4/blocks4.0/pw_conv/conv_kxk.2/conv/Conv_output_0 0=96 1=1 5=1 6=4608
BinaryOp                 /backbone/blocks4/blocks4.0/pw_conv/Add_2 2 1 /backbone/blocks4/blocks4.0/pw_conv/Add_1_output_0 /backbone/blocks4/blocks4.0/pw_conv/conv_kxk.2/conv/Conv_output_0 /backbone/blocks4/blocks4.0/pw_conv/Add_2_output_0
Convolution              /backbone/blocks4/blocks4.0/pw_conv/conv_kxk.3/conv/Conv 1 1 /backbone/blocks4/blocks4.0/dw_conv/lab/Add_output_0_splitncnn_0 /backbone/blocks4/blocks4.0/pw_conv/conv_kxk.3/conv/Conv_output_0 0=96 1=1 5=1 6=4608
BinaryOp                 /backbone/blocks4/blocks4.0/pw_conv/Add_3 2 1 /backbone/blocks4/blocks4.0/pw_conv/Add_2_output_0 /backbone/blocks4/blocks4.0/pw_conv/conv_kxk.3/conv/Conv_output_0 /backbone/blocks4/blocks4.0/pw_conv/Add_3_output_0
BinaryOp                 /backbone/blocks4/blocks4.0/pw_conv/lab/Mul 1 1 /backbone/blocks4/blocks4.0/pw_conv/Add_3_output_0 /backbone/blocks4/blocks4.0/pw_conv/lab/Mul_output_0 0=2 1=1 2=5.936148e-01
BinaryOp                 /backbone/blocks4/blocks4.0/pw_conv/lab/Add 1 1 /backbone/blocks4/blocks4.0/pw_conv/lab/Mul_output_0 /backbone/blocks4/blocks4.0/pw_conv/lab/Add_output_0 1=1 2=1.978216e+00
HardSwish                /backbone/blocks4/blocks4.0/pw_conv/act/act/Mul 1 1 /backbone/blocks4/blocks4.0/pw_conv/lab/Add_output_0 /backbone/blocks4/blocks4.0/pw_conv/act/act/Mul_output_0 0=1.666667e-01
BinaryOp                 /backbone/blocks4/blocks4.0/pw_conv/act/lab/Mul 1 1 /backbone/blocks4/blocks4.0/pw_conv/act/act/Mul_output_0 /backbone/blocks4/blocks4.0/pw_conv/act/lab/Mul_output_0 0=2 1=1 2=5.625493e-01
BinaryOp                 /backbone/blocks4/blocks4.0/pw_conv/act/lab/Add 1 1 /backbone/blocks4/blocks4.0/pw_conv/act/lab/Mul_output_0 /backbone/blocks4/blocks4.0/pw_conv/act/lab/Add_output_0 1=1 2=-9.816111e-01
Split                    splitncnn_8              1 6 /backbone/blocks4/blocks4.0/pw_conv/act/lab/Add_output_0 /backbone/blocks4/blocks4.0/pw_conv/act/lab/Add_output_0_splitncnn_0 /backbone/blocks4/blocks4.0/pw_conv/act/lab/Add_output_0_splitncnn_1 /backbone/blocks4/blocks4.0/pw_conv/act/lab/Add_output_0_splitncnn_2 /backbone/blocks4/blocks4.0/pw_conv/act/lab/Add_output_0_splitncnn_3 /backbone/blocks4/blocks4.0/pw_conv/act/lab/Add_output_0_splitncnn_4 /backbone/blocks4/blocks4.0/pw_conv/act/lab/Add_output_0_splitncnn_5
BatchNorm                /backbone/blocks4/blocks4.1/dw_conv/identity/BatchNormalization 1 1 /backbone/blocks4/blocks4.0/pw_conv/act/lab/Add_output_0_splitncnn_5 /backbone/blocks4/blocks4.1/dw_conv/identity/BatchNormalization_output_0 0=96
ConvolutionDepthWise     /backbone/blocks4/blocks4.1/dw_conv/conv_1x1/conv/Conv 1 1 /backbone/blocks4/blocks4.0/pw_conv/act/lab/Add_output_0_splitncnn_4 /backbone/blocks4/blocks4.1/dw_conv/conv_1x1/conv/Conv_output_0 0=96 1=1 5=1 6=96 7=96
BinaryOp                 /backbone/blocks4/blocks4.1/dw_conv/Add_1 2 1 /backbone/blocks4/blocks4.1/dw_conv/identity/BatchNormalization_output_0 /backbone/blocks4/blocks4.1/dw_conv/conv_1x1/conv/Conv_output_0 /backbone/blocks4/blocks4.1/dw_conv/Add_1_output_0
ConvolutionDepthWise     /backbone/blocks4/blocks4.1/dw_conv/conv_kxk.0/conv/Conv 1 1 /backbone/blocks4/blocks4.0/pw_conv/act/lab/Add_output_0_splitncnn_3 /backbone/blocks4/blocks4.1/dw_conv/conv_kxk.0/conv/Conv_output_0 0=96 1=3 4=1 5=1 6=864 7=96
BinaryOp                 /backbone/blocks4/blocks4.1/dw_conv/Add_2 2 1 /backbone/blocks4/blocks4.1/dw_conv/Add_1_output_0 /backbone/blocks4/blocks4.1/dw_conv/conv_kxk.0/conv/Conv_output_0 /backbone/blocks4/blocks4.1/dw_conv/Add_2_output_0
ConvolutionDepthWise     /backbone/blocks4/blocks4.1/dw_conv/conv_kxk.1/conv/Conv 1 1 /backbone/blocks4/blocks4.0/pw_conv/act/lab/Add_output_0_splitncnn_2 /backbone/blocks4/blocks4.1/dw_conv/conv_kxk.1/conv/Conv_output_0 0=96 1=3 4=1 5=1 6=864 7=96
BinaryOp                 /backbone/blocks4/blocks4.1/dw_conv/Add_3 2 1 /backbone/blocks4/blocks4.1/dw_conv/Add_2_output_0 /backbone/blocks4/blocks4.1/dw_conv/conv_kxk.1/conv/Conv_output_0 /backbone/blocks4/blocks4.1/dw_conv/Add_3_output_0
ConvolutionDepthWise     /backbone/blocks4/blocks4.1/dw_conv/conv_kxk.2/conv/Conv 1 1 /backbone/blocks4/blocks4.0/pw_conv/act/lab/Add_output_0_splitncnn_1 /backbone/blocks4/blocks4.1/dw_conv/conv_kxk.2/conv/Conv_output_0 0=96 1=3 4=1 5=1 6=864 7=96
BinaryOp                 /backbone/blocks4/blocks4.1/dw_conv/Add_4 2 1 /backbone/blocks4/blocks4.1/dw_conv/Add_3_output_0 /backbone/blocks4/blocks4.1/dw_conv/conv_kxk.2/conv/Conv_output_0 /backbone/blocks4/blocks4.1/dw_conv/Add_4_output_0
ConvolutionDepthWise     /backbone/blocks4/blocks4.1/dw_conv/conv_kxk.3/conv/Conv 1 1 /backbone/blocks4/blocks4.0/pw_conv/act/lab/Add_output_0_splitncnn_0 /backbone/blocks4/blocks4.1/dw_conv/conv_kxk.3/conv/Conv_output_0 0=96 1=3 4=1 5=1 6=864 7=96
BinaryOp                 /backbone/blocks4/blocks4.1/dw_conv/Add_5 2 1 /backbone/blocks4/blocks4.1/dw_conv/Add_4_output_0 /backbone/blocks4/blocks4.1/dw_conv/conv_kxk.3/conv/Conv_output_0 /backbone/blocks4/blocks4.1/dw_conv/Add_5_output_0
BinaryOp                 /backbone/blocks4/blocks4.1/dw_conv/lab/Mul 1 1 /backbone/blocks4/blocks4.1/dw_conv/Add_5_output_0 /backbone/blocks4/blocks4.1/dw_conv/lab/Mul_output_0 0=2 1=1 2=1.428276e+00
BinaryOp                 /backbone/blocks4/blocks4.1/dw_conv/lab/Add 1 1 /backbone/blocks4/blocks4.1/dw_conv/lab/Mul_output_0 /backbone/blocks4/blocks4.1/dw_conv/lab/Add_output_0 1=1 2=5.880577e-01
HardSwish                /backbone/blocks4/blocks4.1/dw_conv/act/act/Mul 1 1 /backbone/blocks4/blocks4.1/dw_conv/lab/Add_output_0 /backbone/blocks4/blocks4.1/dw_conv/act/act/Mul_output_0 0=1.666667e-01
BinaryOp                 /backbone/blocks4/blocks4.1/dw_conv/act/lab/Mul 1 1 /backbone/blocks4/blocks4.1/dw_conv/act/act/Mul_output_0 /backbone/blocks4/blocks4.1/dw_conv/act/lab/Mul_output_0 0=2 1=1 2=4.289274e-01
BinaryOp                 /backbone/blocks4/blocks4.1/dw_conv/act/lab/Add 1 1 /backbone/blocks4/blocks4.1/dw_conv/act/lab/Mul_output_0 /backbone/blocks4/blocks4.1/dw_conv/act/lab/Add_output_0 1=1 2=1.177787e-02
Split                    splitncnn_9              1 5 /backbone/blocks4/blocks4.1/dw_conv/act/lab/Add_output_0 /backbone/blocks4/blocks4.1/dw_conv/act/lab/Add_output_0_splitncnn_0 /backbone/blocks4/blocks4.1/dw_conv/act/lab/Add_output_0_splitncnn_1 /backbone/blocks4/blocks4.1/dw_conv/act/lab/Add_output_0_splitncnn_2 /backbone/blocks4/blocks4.1/dw_conv/act/lab/Add_output_0_splitncnn_3 /backbone/blocks4/blocks4.1/dw_conv/act/lab/Add_output_0_splitncnn_4
BatchNorm                /backbone/blocks4/blocks4.1/pw_conv/identity/BatchNormalization 1 1 /backbone/blocks4/blocks4.1/dw_conv/act/lab/Add_output_0_splitncnn_4 /backbone/blocks4/blocks4.1/pw_conv/identity/BatchNormalization_output_0 0=96
Convolution              /backbone/blocks4/blocks4.1/pw_conv/conv_kxk.0/conv/Conv 1 1 /backbone/blocks4/blocks4.1/dw_conv/act/lab/Add_output_0_splitncnn_3 /backbone/blocks4/blocks4.1/pw_conv/conv_kxk.0/conv/Conv_output_0 0=96 1=1 5=1 6=9216
BinaryOp                 /backbone/blocks4/blocks4.1/pw_conv/Add_1 2 1 /backbone/blocks4/blocks4.1/pw_conv/identity/BatchNormalization_output_0 /backbone/blocks4/blocks4.1/pw_conv/conv_kxk.0/conv/Conv_output_0 /backbone/blocks4/blocks4.1/pw_conv/Add_1_output_0
Convolution              /backbone/blocks4/blocks4.1/pw_conv/conv_kxk.1/conv/Conv 1 1 /backbone/blocks4/blocks4.1/dw_conv/act/lab/Add_output_0_splitncnn_2 /backbone/blocks4/blocks4.1/pw_conv/conv_kxk.1/conv/Conv_output_0 0=96 1=1 5=1 6=9216
BinaryOp                 /backbone/blocks4/blocks4.1/pw_conv/Add_2 2 1 /backbone/blocks4/blocks4.1/pw_conv/Add_1_output_0 /backbone/blocks4/blocks4.1/pw_conv/conv_kxk.1/conv/Conv_output_0 /backbone/blocks4/blocks4.1/pw_conv/Add_2_output_0
Convolution              /backbone/blocks4/blocks4.1/pw_conv/conv_kxk.2/conv/Conv 1 1 /backbone/blocks4/blocks4.1/dw_conv/act/lab/Add_output_0_splitncnn_1 /backbone/blocks4/blocks4.1/pw_conv/conv_kxk.2/conv/Conv_output_0 0=96 1=1 5=1 6=9216
BinaryOp                 /backbone/blocks4/blocks4.1/pw_conv/Add_3 2 1 /backbone/blocks4/blocks4.1/pw_conv/Add_2_output_0 /backbone/blocks4/blocks4.1/pw_conv/conv_kxk.2/conv/Conv_output_0 /backbone/blocks4/blocks4.1/pw_conv/Add_3_output_0
Convolution              /backbone/blocks4/blocks4.1/pw_conv/conv_kxk.3/conv/Conv 1 1 /backbone/blocks4/blocks4.1/dw_conv/act/lab/Add_output_0_splitncnn_0 /backbone/blocks4/blocks4.1/pw_conv/conv_kxk.3/conv/Conv_output_0 0=96 1=1 5=1 6=9216
BinaryOp                 /backbone/blocks4/blocks4.1/pw_conv/Add_4 2 1 /backbone/blocks4/blocks4.1/pw_conv/Add_3_output_0 /backbone/blocks4/blocks4.1/pw_conv/conv_kxk.3/conv/Conv_output_0 /backbone/blocks4/blocks4.1/pw_conv/Add_4_output_0
BinaryOp                 /backbone/blocks4/blocks4.1/pw_conv/lab/Mul 1 1 /backbone/blocks4/blocks4.1/pw_conv/Add_4_output_0 /backbone/blocks4/blocks4.1/pw_conv/lab/Mul_output_0 0=2 1=1 2=8.138334e-01
BinaryOp                 /backbone/blocks4/blocks4.1/pw_conv/lab/Add 1 1 /backbone/blocks4/blocks4.1/pw_conv/lab/Mul_output_0 /backbone/blocks4/blocks4.1/pw_conv/lab/Add_output_0 1=1 2=-6.932138e-02
HardSwish                /backbone/blocks4/blocks4.1/pw_conv/act/act/Mul 1 1 /backbone/blocks4/blocks4.1/pw_conv/lab/Add_output_0 /backbone/blocks4/blocks4.1/pw_conv/act/act/Mul_output_0 0=1.666667e-01
BinaryOp                 /backbone/blocks4/blocks4.1/pw_conv/act/lab/Mul 1 1 /backbone/blocks4/blocks4.1/pw_conv/act/act/Mul_output_0 /backbone/blocks4/blocks4.1/pw_conv/act/lab/Mul_output_0 0=2 1=1 2=1.067942e+00
BinaryOp                 /backbone/blocks4/blocks4.1/pw_conv/act/lab/Add 1 1 /backbone/blocks4/blocks4.1/pw_conv/act/lab/Mul_output_0 /backbone/blocks4/blocks4.1/pw_conv/act/lab/Add_output_0 1=1 2=-9.793359e-03
Split                    splitncnn_10             1 6 /backbone/blocks4/blocks4.1/pw_conv/act/lab/Add_output_0 /backbone/blocks4/blocks4.1/pw_conv/act/lab/Add_output_0_splitncnn_0 /backbone/blocks4/blocks4.1/pw_conv/act/lab/Add_output_0_splitncnn_1 /backbone/blocks4/blocks4.1/pw_conv/act/lab/Add_output_0_splitncnn_2 /backbone/blocks4/blocks4.1/pw_conv/act/lab/Add_output_0_splitncnn_3 /backbone/blocks4/blocks4.1/pw_conv/act/lab/Add_output_0_splitncnn_4 /backbone/blocks4/blocks4.1/pw_conv/act/lab/Add_output_0_splitncnn_5
ConvolutionDepthWise     /backbone/blocks5/blocks5.0/dw_conv/conv_1x1/conv/Conv 1 1 /backbone/blocks4/blocks4.1/pw_conv/act/lab/Add_output_0_splitncnn_5 /backbone/blocks5/blocks5.0/dw_conv/conv_1x1/conv/Conv_output_0 0=96 1=1 3=2 5=1 6=96 7=96
ConvolutionDepthWise     /backbone/blocks5/blocks5.0/dw_conv/conv_kxk.0/conv/Conv 1 1 /backbone/blocks4/blocks4.1/pw_conv/act/lab/Add_output_0_splitncnn_4 /backbone/blocks5/blocks5.0/dw_conv/conv_kxk.0/conv/Conv_output_0 0=96 1=3 3=2 4=1 5=1 6=864 7=96
BinaryOp                 /backbone/blocks5/blocks5.0/dw_conv/Add_1 2 1 /backbone/blocks5/blocks5.0/dw_conv/conv_1x1/conv/Conv_output_0 /backbone/blocks5/blocks5.0/dw_conv/conv_kxk.0/conv/Conv_output_0 /backbone/blocks5/blocks5.0/dw_conv/Add_1_output_0
ConvolutionDepthWise     /backbone/blocks5/blocks5.0/dw_conv/conv_kxk.1/conv/Conv 1 1 /backbone/blocks4/blocks4.1/pw_conv/act/lab/Add_output_0_splitncnn_3 /backbone/blocks5/blocks5.0/dw_conv/conv_kxk.1/conv/Conv_output_0 0=96 1=3 3=2 4=1 5=1 6=864 7=96
BinaryOp                 /backbone/blocks5/blocks5.0/dw_conv/Add_2 2 1 /backbone/blocks5/blocks5.0/dw_conv/Add_1_output_0 /backbone/blocks5/blocks5.0/dw_conv/conv_kxk.1/conv/Conv_output_0 /backbone/blocks5/blocks5.0/dw_conv/Add_2_output_0
ConvolutionDepthWise     /backbone/blocks5/blocks5.0/dw_conv/conv_kxk.2/conv/Conv 1 1 /backbone/blocks4/blocks4.1/pw_conv/act/lab/Add_output_0_splitncnn_2 /backbone/blocks5/blocks5.0/dw_conv/conv_kxk.2/conv/Conv_output_0 0=96 1=3 3=2 4=1 5=1 6=864 7=96
BinaryOp                 /backbone/blocks5/blocks5.0/dw_conv/Add_3 2 1 /backbone/blocks5/blocks5.0/dw_conv/Add_2_output_0 /backbone/blocks5/blocks5.0/dw_conv/conv_kxk.2/conv/Conv_output_0 /backbone/blocks5/blocks5.0/dw_conv/Add_3_output_0
ConvolutionDepthWise     /backbone/blocks5/blocks5.0/dw_conv/conv_kxk.3/conv/Conv 1 1 /backbone/blocks4/blocks4.1/pw_conv/act/lab/Add_output_0_splitncnn_1 /backbone/blocks5/blocks5.0/dw_conv/conv_kxk.3/conv/Conv_output_0 0=96 1=3 3=2 4=1 5=1 6=864 7=96
BinaryOp                 /backbone/blocks5/blocks5.0/dw_conv/Add_4 2 1 /backbone/blocks5/blocks5.0/dw_conv/Add_3_output_0 /backbone/blocks5/blocks5.0/dw_conv/conv_kxk.3/conv/Conv_output_0 /backbone/blocks5/blocks5.0/dw_conv/Add_4_output_0
BinaryOp                 /backbone/blocks5/blocks5.0/dw_conv/lab/Mul 1 1 /backbone/blocks5/blocks5.0/dw_conv/Add_4_output_0 /backbone/blocks5/blocks5.0/dw_conv/lab/Mul_output_0 0=2 1=1 2=3.435714e-01
BinaryOp                 /backbone/blocks5/blocks5.0/dw_conv/lab/Add 1 1 /backbone/blocks5/blocks5.0/dw_conv/lab/Mul_output_0 /backbone/blocks5/blocks5.0/dw_conv/lab/Add_output_0 1=1 2=7.538860e-03
Split                    splitncnn_11             1 4 /backbone/blocks5/blocks5.0/dw_conv/lab/Add_output_0 /backbone/blocks5/blocks5.0/dw_conv/lab/Add_output_0_splitncnn_0 /backbone/blocks5/blocks5.0/dw_conv/lab/Add_output_0_splitncnn_1 /backbone/blocks5/blocks5.0/dw_conv/lab/Add_output_0_splitncnn_2 /backbone/blocks5/blocks5.0/dw_conv/lab/Add_output_0_splitncnn_3
Convolution              /backbone/blocks5/blocks5.0/pw_conv/conv_kxk.0/conv/Conv 1 1 /backbone/blocks5/blocks5.0/dw_conv/lab/Add_output_0_splitncnn_3 /backbone/blocks5/blocks5.0/pw_conv/conv_kxk.0/conv/Conv_output_0 0=192 1=1 5=1 6=18432
Convolution              /backbone/blocks5/blocks5.0/pw_conv/conv_kxk.1/conv/Conv 1 1 /backbone/blocks5/blocks5.0/dw_conv/lab/Add_output_0_splitncnn_2 /backbone/blocks5/blocks5.0/pw_conv/conv_kxk.1/conv/Conv_output_0 0=192 1=1 5=1 6=18432
BinaryOp                 /backbone/blocks5/blocks5.0/pw_conv/Add_1 2 1 /backbone/blocks5/blocks5.0/pw_conv/conv_kxk.0/conv/Conv_output_0 /backbone/blocks5/blocks5.0/pw_conv/conv_kxk.1/conv/Conv_output_0 /backbone/blocks5/blocks5.0/pw_conv/Add_1_output_0
Convolution              /backbone/blocks5/blocks5.0/pw_conv/conv_kxk.2/conv/Conv 1 1 /backbone/blocks5/blocks5.0/dw_conv/lab/Add_output_0_splitncnn_1 /backbone/blocks5/blocks5.0/pw_conv/conv_kxk.2/conv/Conv_output_0 0=192 1=1 5=1 6=18432
BinaryOp                 /backbone/blocks5/blocks5.0/pw_conv/Add_2 2 1 /backbone/blocks5/blocks5.0/pw_conv/Add_1_output_0 /backbone/blocks5/blocks5.0/pw_conv/conv_kxk.2/conv/Conv_output_0 /backbone/blocks5/blocks5.0/pw_conv/Add_2_output_0
Convolution              /backbone/blocks5/blocks5.0/pw_conv/conv_kxk.3/conv/Conv 1 1 /backbone/blocks5/blocks5.0/dw_conv/lab/Add_output_0_splitncnn_0 /backbone/blocks5/blocks5.0/pw_conv/conv_kxk.3/conv/Conv_output_0 0=192 1=1 5=1 6=18432
BinaryOp                 /backbone/blocks5/blocks5.0/pw_conv/Add_3 2 1 /backbone/blocks5/blocks5.0/pw_conv/Add_2_output_0 /backbone/blocks5/blocks5.0/pw_conv/conv_kxk.3/conv/Conv_output_0 /backbone/blocks5/blocks5.0/pw_conv/Add_3_output_0
BinaryOp                 /backbone/blocks5/blocks5.0/pw_conv/lab/Mul 1 1 /backbone/blocks5/blocks5.0/pw_conv/Add_3_output_0 /backbone/blocks5/blocks5.0/pw_conv/lab/Mul_output_0 0=2 1=1 2=7.155088e-01
BinaryOp                 /backbone/blocks5/blocks5.0/pw_conv/lab/Add 1 1 /backbone/blocks5/blocks5.0/pw_conv/lab/Mul_output_0 /backbone/blocks5/blocks5.0/pw_conv/lab/Add_output_0 1=1 2=1.391484e+00
HardSwish                /backbone/blocks5/blocks5.0/pw_conv/act/act/Mul 1 1 /backbone/blocks5/blocks5.0/pw_conv/lab/Add_output_0 /backbone/blocks5/blocks5.0/pw_conv/act/act/Mul_output_0 0=1.666667e-01
BinaryOp                 /backbone/blocks5/blocks5.0/pw_conv/act/lab/Mul 1 1 /backbone/blocks5/blocks5.0/pw_conv/act/act/Mul_output_0 /backbone/blocks5/blocks5.0/pw_conv/act/lab/Mul_output_0 0=2 1=1 2=7.628043e-01
BinaryOp                 /backbone/blocks5/blocks5.0/pw_conv/act/lab/Add 1 1 /backbone/blocks5/blocks5.0/pw_conv/act/lab/Mul_output_0 /backbone/blocks5/blocks5.0/pw_conv/act/lab/Add_output_0 1=1 2=-7.359779e-01
Split                    splitncnn_12             1 6 /backbone/blocks5/blocks5.0/pw_conv/act/lab/Add_output_0 /backbone/blocks5/blocks5.0/pw_conv/act/lab/Add_output_0_splitncnn_0 /backbone/blocks5/blocks5.0/pw_conv/act/lab/Add_output_0_splitncnn_1 /backbone/blocks5/blocks5.0/pw_conv/act/lab/Add_output_0_splitncnn_2 /backbone/blocks5/blocks5.0/pw_conv/act/lab/Add_output_0_splitncnn_3 /backbone/blocks5/blocks5.0/pw_conv/act/lab/Add_output_0_splitncnn_4 /backbone/blocks5/blocks5.0/pw_conv/act/lab/Add_output_0_splitncnn_5
BatchNorm                /backbone/blocks5/blocks5.1/dw_conv/identity/BatchNormalization 1 1 /backbone/blocks5/blocks5.0/pw_conv/act/lab/Add_output_0_splitncnn_5 /backbone/blocks5/blocks5.1/dw_conv/identity/BatchNormalization_output_0 0=192
ConvolutionDepthWise     /backbone/blocks5/blocks5.1/dw_conv/conv_1x1/conv/Conv 1 1 /backbone/blocks5/blocks5.0/pw_conv/act/lab/Add_output_0_splitncnn_4 /backbone/blocks5/blocks5.1/dw_conv/conv_1x1/conv/Conv_output_0 0=192 1=1 5=1 6=192 7=192
BinaryOp                 /backbone/blocks5/blocks5.1/dw_conv/Add_1 2 1 /backbone/blocks5/blocks5.1/dw_conv/identity/BatchNormalization_output_0 /backbone/blocks5/blocks5.1/dw_conv/conv_1x1/conv/Conv_output_0 /backbone/blocks5/blocks5.1/dw_conv/Add_1_output_0
ConvolutionDepthWise     /backbone/blocks5/blocks5.1/dw_conv/conv_kxk.0/conv/Conv 1 1 /backbone/blocks5/blocks5.0/pw_conv/act/lab/Add_output_0_splitncnn_3 /backbone/blocks5/blocks5.1/dw_conv/conv_kxk.0/conv/Conv_output_0 0=192 1=5 4=2 5=1 6=4800 7=192
BinaryOp                 /backbone/blocks5/blocks5.1/dw_conv/Add_2 2 1 /backbone/blocks5/blocks5.1/dw_conv/Add_1_output_0 /backbone/blocks5/blocks5.1/dw_conv/conv_kxk.0/conv/Conv_output_0 /backbone/blocks5/blocks5.1/dw_conv/Add_2_output_0
ConvolutionDepthWise     /backbone/blocks5/blocks5.1/dw_conv/conv_kxk.1/conv/Conv 1 1 /backbone/blocks5/blocks5.0/pw_conv/act/lab/Add_output_0_splitncnn_2 /backbone/blocks5/blocks5.1/dw_conv/conv_kxk.1/conv/Conv_output_0 0=192 1=5 4=2 5=1 6=4800 7=192
BinaryOp                 /backbone/blocks5/blocks5.1/dw_conv/Add_3 2 1 /backbone/blocks5/blocks5.1/dw_conv/Add_2_output_0 /backbone/blocks5/blocks5.1/dw_conv/conv_kxk.1/conv/Conv_output_0 /backbone/blocks5/blocks5.1/dw_conv/Add_3_output_0
ConvolutionDepthWise     /backbone/blocks5/blocks5.1/dw_conv/conv_kxk.2/conv/Conv 1 1 /backbone/blocks5/blocks5.0/pw_conv/act/lab/Add_output_0_splitncnn_1 /backbone/blocks5/blocks5.1/dw_conv/conv_kxk.2/conv/Conv_output_0 0=192 1=5 4=2 5=1 6=4800 7=192
BinaryOp                 /backbone/blocks5/blocks5.1/dw_conv/Add_4 2 1 /backbone/blocks5/blocks5.1/dw_conv/Add_3_output_0 /backbone/blocks5/blocks5.1/dw_conv/conv_kxk.2/conv/Conv_output_0 /backbone/blocks5/blocks5.1/dw_conv/Add_4_output_0
ConvolutionDepthWise     /backbone/blocks5/blocks5.1/dw_conv/conv_kxk.3/conv/Conv 1 1 /backbone/blocks5/blocks5.0/pw_conv/act/lab/Add_output_0_splitncnn_0 /backbone/blocks5/blocks5.1/dw_conv/conv_kxk.3/conv/Conv_output_0 0=192 1=5 4=2 5=1 6=4800 7=192
BinaryOp                 /backbone/blocks5/blocks5.1/dw_conv/Add_5 2 1 /backbone/blocks5/blocks5.1/dw_conv/Add_4_output_0 /backbone/blocks5/blocks5.1/dw_conv/conv_kxk.3/conv/Conv_output_0 /backbone/blocks5/blocks5.1/dw_conv/Add_5_output_0
BinaryOp                 /backbone/blocks5/blocks5.1/dw_conv/lab/Mul 1 1 /backbone/blocks5/blocks5.1/dw_conv/Add_5_output_0 /backbone/blocks5/blocks5.1/dw_conv/lab/Mul_output_0 0=2 1=1 2=1.209563e+00
BinaryOp                 /backbone/blocks5/blocks5.1/dw_conv/lab/Add 1 1 /backbone/blocks5/blocks5.1/dw_conv/lab/Mul_output_0 /backbone/blocks5/blocks5.1/dw_conv/lab/Add_output_0 1=1 2=4.448848e-01
HardSwish                /backbone/blocks5/blocks5.1/dw_conv/act/act/Mul 1 1 /backbone/blocks5/blocks5.1/dw_conv/lab/Add_output_0 /backbone/blocks5/blocks5.1/dw_conv/act/act/Mul_output_0 0=1.666667e-01
BinaryOp                 /backbone/blocks5/blocks5.1/dw_conv/act/lab/Mul 1 1 /backbone/blocks5/blocks5.1/dw_conv/act/act/Mul_output_0 /backbone/blocks5/blocks5.1/dw_conv/act/lab/Mul_output_0 0=2 1=1 2=3.188677e-01
BinaryOp                 /backbone/blocks5/blocks5.1/dw_conv/act/lab/Add 1 1 /backbone/blocks5/blocks5.1/dw_conv/act/lab/Mul_output_0 /backbone/blocks5/blocks5.1/dw_conv/act/lab/Add_output_0 1=1 2=-5.266530e-03
Split                    splitncnn_13             1 5 /backbone/blocks5/blocks5.1/dw_conv/act/lab/Add_output_0 /backbone/blocks5/blocks5.1/dw_conv/act/lab/Add_output_0_splitncnn_0 /backbone/blocks5/blocks5.1/dw_conv/act/lab/Add_output_0_splitncnn_1 /backbone/blocks5/blocks5.1/dw_conv/act/lab/Add_output_0_splitncnn_2 /backbone/blocks5/blocks5.1/dw_conv/act/lab/Add_output_0_splitncnn_3 /backbone/blocks5/blocks5.1/dw_conv/act/lab/Add_output_0_splitncnn_4
BatchNorm                /backbone/blocks5/blocks5.1/pw_conv/identity/BatchNormalization 1 1 /backbone/blocks5/blocks5.1/dw_conv/act/lab/Add_output_0_splitncnn_4 /backbone/blocks5/blocks5.1/pw_conv/identity/BatchNormalization_output_0 0=192
Convolution              /backbone/blocks5/blocks5.1/pw_conv/conv_kxk.0/conv/Conv 1 1 /backbone/blocks5/blocks5.1/dw_conv/act/lab/Add_output_0_splitncnn_3 /backbone/blocks5/blocks5.1/pw_conv/conv_kxk.0/conv/Conv_output_0 0=192 1=1 5=1 6=36864
BinaryOp                 /backbone/blocks5/blocks5.1/pw_conv/Add_1 2 1 /backbone/blocks5/blocks5.1/pw_conv/identity/BatchNormalization_output_0 /backbone/blocks5/blocks5.1/pw_conv/conv_kxk.0/conv/Conv_output_0 /backbone/blocks5/blocks5.1/pw_conv/Add_1_output_0
Convolution              /backbone/blocks5/blocks5.1/pw_conv/conv_kxk.1/conv/Conv 1 1 /backbone/blocks5/blocks5.1/dw_conv/act/lab/Add_output_0_splitncnn_2 /backbone/blocks5/blocks5.1/pw_conv/conv_kxk.1/conv/Conv_output_0 0=192 1=1 5=1 6=36864
BinaryOp                 /backbone/blocks5/blocks5.1/pw_conv/Add_2 2 1 /backbone/blocks5/blocks5.1/pw_conv/Add_1_output_0 /backbone/blocks5/blocks5.1/pw_conv/conv_kxk.1/conv/Conv_output_0 /backbone/blocks5/blocks5.1/pw_conv/Add_2_output_0
Convolution              /backbone/blocks5/blocks5.1/pw_conv/conv_kxk.2/conv/Conv 1 1 /backbone/blocks5/blocks5.1/dw_conv/act/lab/Add_output_0_splitncnn_1 /backbone/blocks5/blocks5.1/pw_conv/conv_kxk.2/conv/Conv_output_0 0=192 1=1 5=1 6=36864
BinaryOp                 /backbone/blocks5/blocks5.1/pw_conv/Add_3 2 1 /backbone/blocks5/blocks5.1/pw_conv/Add_2_output_0 /backbone/blocks5/blocks5.1/pw_conv/conv_kxk.2/conv/Conv_output_0 /backbone/blocks5/blocks5.1/pw_conv/Add_3_output_0
Convolution              /backbone/blocks5/blocks5.1/pw_conv/conv_kxk.3/conv/Conv 1 1 /backbone/blocks5/blocks5.1/dw_conv/act/lab/Add_output_0_splitncnn_0 /backbone/blocks5/blocks5.1/pw_conv/conv_kxk.3/conv/Conv_output_0 0=192 1=1 5=1 6=36864
BinaryOp                 /backbone/blocks5/blocks5.1/pw_conv/Add_4 2 1 /backbone/blocks5/blocks5.1/pw_conv/Add_3_output_0 /backbone/blocks5/blocks5.1/pw_conv/conv_kxk.3/conv/Conv_output_0 /backbone/blocks5/blocks5.1/pw_conv/Add_4_output_0
BinaryOp                 /backbone/blocks5/blocks5.1/pw_conv/lab/Mul 1 1 /backbone/blocks5/blocks5.1/pw_conv/Add_4_output_0 /backbone/blocks5/blocks5.1/pw_conv/lab/Mul_output_0 0=2 1=1 2=1.038763e+00
BinaryOp                 /backbone/blocks5/blocks5.1/pw_conv/lab/Add 1 1 /backbone/blocks5/blocks5.1/pw_conv/lab/Mul_output_0 /backbone/blocks5/blocks5.1/pw_conv/lab/Add_output_0 1=1 2=5.116695e-01
HardSwish                /backbone/blocks5/blocks5.1/pw_conv/act/act/Mul 1 1 /backbone/blocks5/blocks5.1/pw_conv/lab/Add_output_0 /backbone/blocks5/blocks5.1/pw_conv/act/act/Mul_output_0 0=1.666667e-01
BinaryOp                 /backbone/blocks5/blocks5.1/pw_conv/act/lab/Mul 1 1 /backbone/blocks5/blocks5.1/pw_conv/act/act/Mul_output_0 /backbone/blocks5/blocks5.1/pw_conv/act/lab/Mul_output_0 0=2 1=1 2=8.849388e-01
BinaryOp                 /backbone/blocks5/blocks5.1/pw_conv/act/lab/Add 1 1 /backbone/blocks5/blocks5.1/pw_conv/act/lab/Mul_output_0 /backbone/blocks5/blocks5.1/pw_conv/act/lab/Add_output_0 1=1 2=-1.594395e-01
Split                    splitncnn_14             1 6 /backbone/blocks5/blocks5.1/pw_conv/act/lab/Add_output_0 /backbone/blocks5/blocks5.1/pw_conv/act/lab/Add_output_0_splitncnn_0 /backbone/blocks5/blocks5.1/pw_conv/act/lab/Add_output_0_splitncnn_1 /backbone/blocks5/blocks5.1/pw_conv/act/lab/Add_output_0_splitncnn_2 /backbone/blocks5/blocks5.1/pw_conv/act/lab/Add_output_0_splitncnn_3 /backbone/blocks5/blocks5.1/pw_conv/act/lab/Add_output_0_splitncnn_4 /backbone/blocks5/blocks5.1/pw_conv/act/lab/Add_output_0_splitncnn_5
BatchNorm                /backbone/blocks5/blocks5.2/dw_conv/identity/BatchNormalization 1 1 /backbone/blocks5/blocks5.1/pw_conv/act/lab/Add_output_0_splitncnn_5 /backbone/blocks5/blocks5.2/dw_conv/identity/BatchNormalization_output_0 0=192
ConvolutionDepthWise     /backbone/blocks5/blocks5.2/dw_conv/conv_1x1/conv/Conv 1 1 /backbone/blocks5/blocks5.1/pw_conv/act/lab/Add_output_0_splitncnn_4 /backbone/blocks5/blocks5.2/dw_conv/conv_1x1/conv/Conv_output_0 0=192 1=1 5=1 6=192 7=192
BinaryOp                 /backbone/blocks5/blocks5.2/dw_conv/Add_1 2 1 /backbone/blocks5/blocks5.2/dw_conv/identity/BatchNormalization_output_0 /backbone/blocks5/blocks5.2/dw_conv/conv_1x1/conv/Conv_output_0 /backbone/blocks5/blocks5.2/dw_conv/Add_1_output_0
ConvolutionDepthWise     /backbone/blocks5/blocks5.2/dw_conv/conv_kxk.0/conv/Conv 1 1 /backbone/blocks5/blocks5.1/pw_conv/act/lab/Add_output_0_splitncnn_3 /backbone/blocks5/blocks5.2/dw_conv/conv_kxk.0/conv/Conv_output_0 0=192 1=5 4=2 5=1 6=4800 7=192
BinaryOp                 /backbone/blocks5/blocks5.2/dw_conv/Add_2 2 1 /backbone/blocks5/blocks5.2/dw_conv/Add_1_output_0 /backbone/blocks5/blocks5.2/dw_conv/conv_kxk.0/conv/Conv_output_0 /backbone/blocks5/blocks5.2/dw_conv/Add_2_output_0
ConvolutionDepthWise     /backbone/blocks5/blocks5.2/dw_conv/conv_kxk.1/conv/Conv 1 1 /backbone/blocks5/blocks5.1/pw_conv/act/lab/Add_output_0_splitncnn_2 /backbone/blocks5/blocks5.2/dw_conv/conv_kxk.1/conv/Conv_output_0 0=192 1=5 4=2 5=1 6=4800 7=192
BinaryOp                 /backbone/blocks5/blocks5.2/dw_conv/Add_3 2 1 /backbone/blocks5/blocks5.2/dw_conv/Add_2_output_0 /backbone/blocks5/blocks5.2/dw_conv/conv_kxk.1/conv/Conv_output_0 /backbone/blocks5/blocks5.2/dw_conv/Add_3_output_0
ConvolutionDepthWise     /backbone/blocks5/blocks5.2/dw_conv/conv_kxk.2/conv/Conv 1 1 /backbone/blocks5/blocks5.1/pw_conv/act/lab/Add_output_0_splitncnn_1 /backbone/blocks5/blocks5.2/dw_conv/conv_kxk.2/conv/Conv_output_0 0=192 1=5 4=2 5=1 6=4800 7=192
BinaryOp                 /backbone/blocks5/blocks5.2/dw_conv/Add_4 2 1 /backbone/blocks5/blocks5.2/dw_conv/Add_3_output_0 /backbone/blocks5/blocks5.2/dw_conv/conv_kxk.2/conv/Conv_output_0 /backbone/blocks5/blocks5.2/dw_conv/Add_4_output_0
ConvolutionDepthWise     /backbone/blocks5/blocks5.2/dw_conv/conv_kxk.3/conv/Conv 1 1 /backbone/blocks5/blocks5.1/pw_conv/act/lab/Add_output_0_splitncnn_0 /backbone/blocks5/blocks5.2/dw_conv/conv_kxk.3/conv/Conv_output_0 0=192 1=5 4=2 5=1 6=4800 7=192
BinaryOp                 /backbone/blocks5/blocks5.2/dw_conv/Add_5 2 1 /backbone/blocks5/blocks5.2/dw_conv/Add_4_output_0 /backbone/blocks5/blocks5.2/dw_conv/conv_kxk.3/conv/Conv_output_0 /backbone/blocks5/blocks5.2/dw_conv/Add_5_output_0
BinaryOp                 /backbone/blocks5/blocks5.2/dw_conv/lab/Mul 1 1 /backbone/blocks5/blocks5.2/dw_conv/Add_5_output_0 /backbone/blocks5/blocks5.2/dw_conv/lab/Mul_output_0 0=2 1=1 2=1.183558e+00
BinaryOp                 /backbone/blocks5/blocks5.2/dw_conv/lab/Add 1 1 /backbone/blocks5/blocks5.2/dw_conv/lab/Mul_output_0 /backbone/blocks5/blocks5.2/dw_conv/lab/Add_output_0 1=1 2=1.008284e+00
HardSwish                /backbone/blocks5/blocks5.2/dw_conv/act/act/Mul 1 1 /backbone/blocks5/blocks5.2/dw_conv/lab/Add_output_0 /backbone/blocks5/blocks5.2/dw_conv/act/act/Mul_output_0 0=1.666667e-01
BinaryOp                 /backbone/blocks5/blocks5.2/dw_conv/act/lab/Mul 1 1 /backbone/blocks5/blocks5.2/dw_conv/act/act/Mul_output_0 /backbone/blocks5/blocks5.2/dw_conv/act/lab/Mul_output_0 0=2 1=1 2=3.013126e-01
BinaryOp                 /backbone/blocks5/blocks5.2/dw_conv/act/lab/Add 1 1 /backbone/blocks5/blocks5.2/dw_conv/act/lab/Mul_output_0 /backbone/blocks5/blocks5.2/dw_conv/act/lab/Add_output_0 1=1 2=-1.981886e-02
Split                    splitncnn_15             1 5 /backbone/blocks5/blocks5.2/dw_conv/act/lab/Add_output_0 /backbone/blocks5/blocks5.2/dw_conv/act/lab/Add_output_0_splitncnn_0 /backbone/blocks5/blocks5.2/dw_conv/act/lab/Add_output_0_splitncnn_1 /backbone/blocks5/blocks5.2/dw_conv/act/lab/Add_output_0_splitncnn_2 /backbone/blocks5/blocks5.2/dw_conv/act/lab/Add_output_0_splitncnn_3 /backbone/blocks5/blocks5.2/dw_conv/act/lab/Add_output_0_splitncnn_4
BatchNorm                /backbone/blocks5/blocks5.2/pw_conv/identity/BatchNormalization 1 1 /backbone/blocks5/blocks5.2/dw_conv/act/lab/Add_output_0_splitncnn_4 /backbone/blocks5/blocks5.2/pw_conv/identity/BatchNormalization_output_0 0=192
Convolution              /backbone/blocks5/blocks5.2/pw_conv/conv_kxk.0/conv/Conv 1 1 /backbone/blocks5/blocks5.2/dw_conv/act/lab/Add_output_0_splitncnn_3 /backbone/blocks5/blocks5.2/pw_conv/conv_kxk.0/conv/Conv_output_0 0=192 1=1 5=1 6=36864
BinaryOp                 /backbone/blocks5/blocks5.2/pw_conv/Add_1 2 1 /backbone/blocks5/blocks5.2/pw_conv/identity/BatchNormalization_output_0 /backbone/blocks5/blocks5.2/pw_conv/conv_kxk.0/conv/Conv_output_0 /backbone/blocks5/blocks5.2/pw_conv/Add_1_output_0
Convolution              /backbone/blocks5/blocks5.2/pw_conv/conv_kxk.1/conv/Conv 1 1 /backbone/blocks5/blocks5.2/dw_conv/act/lab/Add_output_0_splitncnn_2 /backbone/blocks5/blocks5.2/pw_conv/conv_kxk.1/conv/Conv_output_0 0=192 1=1 5=1 6=36864
BinaryOp                 /backbone/blocks5/blocks5.2/pw_conv/Add_2 2 1 /backbone/blocks5/blocks5.2/pw_conv/Add_1_output_0 /backbone/blocks5/blocks5.2/pw_conv/conv_kxk.1/conv/Conv_output_0 /backbone/blocks5/blocks5.2/pw_conv/Add_2_output_0
Convolution              /backbone/blocks5/blocks5.2/pw_conv/conv_kxk.2/conv/Conv 1 1 /backbone/blocks5/blocks5.2/dw_conv/act/lab/Add_output_0_splitncnn_1 /backbone/blocks5/blocks5.2/pw_conv/conv_kxk.2/conv/Conv_output_0 0=192 1=1 5=1 6=36864
BinaryOp                 /backbone/blocks5/blocks5.2/pw_conv/Add_3 2 1 /backbone/blocks5/blocks5.2/pw_conv/Add_2_output_0 /backbone/blocks5/blocks5.2/pw_conv/conv_kxk.2/conv/Conv_output_0 /backbone/blocks5/blocks5.2/pw_conv/Add_3_output_0
Convolution              /backbone/blocks5/blocks5.2/pw_conv/conv_kxk.3/conv/Conv 1 1 /backbone/blocks5/blocks5.2/dw_conv/act/lab/Add_output_0_splitncnn_0 /backbone/blocks5/blocks5.2/pw_conv/conv_kxk.3/conv/Conv_output_0 0=192 1=1 5=1 6=36864
BinaryOp                 /backbone/blocks5/blocks5.2/pw_conv/Add_4 2 1 /backbone/blocks5/blocks5.2/pw_conv/Add_3_output_0 /backbone/blocks5/blocks5.2/pw_conv/conv_kxk.3/conv/Conv_output_0 /backbone/blocks5/blocks5.2/pw_conv/Add_4_output_0
BinaryOp                 /backbone/blocks5/blocks5.2/pw_conv/lab/Mul 1 1 /backbone/blocks5/blocks5.2/pw_conv/Add_4_output_0 /backbone/blocks5/blocks5.2/pw_conv/lab/Mul_output_0 0=2 1=1 2=9.530457e-01
BinaryOp                 /backbone/blocks5/blocks5.2/pw_conv/lab/Add 1 1 /backbone/blocks5/blocks5.2/pw_conv/lab/Mul_output_0 /backbone/blocks5/blocks5.2/pw_conv/lab/Add_output_0 1=1 2=1.085765e-01
HardSwish                /backbone/blocks5/blocks5.2/pw_conv/act/act/Mul 1 1 /backbone/blocks5/blocks5.2/pw_conv/lab/Add_output_0 /backbone/blocks5/blocks5.2/pw_conv/act/act/Mul_output_0 0=1.666667e-01
BinaryOp                 /backbone/blocks5/blocks5.2/pw_conv/act/lab/Mul 1 1 /backbone/blocks5/blocks5.2/pw_conv/act/act/Mul_output_0 /backbone/blocks5/blocks5.2/pw_conv/act/lab/Mul_output_0 0=2 1=1 2=9.304854e-01
BinaryOp                 /backbone/blocks5/blocks5.2/pw_conv/act/lab/Add 1 1 /backbone/blocks5/blocks5.2/pw_conv/act/lab/Mul_output_0 /backbone/blocks5/blocks5.2/pw_conv/act/lab/Add_output_0 1=1 2=5.722457e-02
Split                    splitncnn_16             1 6 /backbone/blocks5/blocks5.2/pw_conv/act/lab/Add_output_0 /backbone/blocks5/blocks5.2/pw_conv/act/lab/Add_output_0_splitncnn_0 /backbone/blocks5/blocks5.2/pw_conv/act/lab/Add_output_0_splitncnn_1 /backbone/blocks5/blocks5.2/pw_conv/act/lab/Add_output_0_splitncnn_2 /backbone/blocks5/blocks5.2/pw_conv/act/lab/Add_output_0_splitncnn_3 /backbone/blocks5/blocks5.2/pw_conv/act/lab/Add_output_0_splitncnn_4 /backbone/blocks5/blocks5.2/pw_conv/act/lab/Add_output_0_splitncnn_5
BatchNorm                /backbone/blocks5/blocks5.3/dw_conv/identity/BatchNormalization 1 1 /backbone/blocks5/blocks5.2/pw_conv/act/lab/Add_output_0_splitncnn_5 /backbone/blocks5/blocks5.3/dw_conv/identity/BatchNormalization_output_0 0=192
ConvolutionDepthWise     /backbone/blocks5/blocks5.3/dw_conv/conv_1x1/conv/Conv 1 1 /backbone/blocks5/blocks5.2/pw_conv/act/lab/Add_output_0_splitncnn_4 /backbone/blocks5/blocks5.3/dw_conv/conv_1x1/conv/Conv_output_0 0=192 1=1 5=1 6=192 7=192
BinaryOp                 /backbone/blocks5/blocks5.3/dw_conv/Add_1 2 1 /backbone/blocks5/blocks5.3/dw_conv/identity/BatchNormalization_output_0 /backbone/blocks5/blocks5.3/dw_conv/conv_1x1/conv/Conv_output_0 /backbone/blocks5/blocks5.3/dw_conv/Add_1_output_0
ConvolutionDepthWise     /backbone/blocks5/blocks5.3/dw_conv/conv_kxk.0/conv/Conv 1 1 /backbone/blocks5/blocks5.2/pw_conv/act/lab/Add_output_0_splitncnn_3 /backbone/blocks5/blocks5.3/dw_conv/conv_kxk.0/conv/Conv_output_0 0=192 1=5 4=2 5=1 6=4800 7=192
BinaryOp                 /backbone/blocks5/blocks5.3/dw_conv/Add_2 2 1 /backbone/blocks5/blocks5.3/dw_conv/Add_1_output_0 /backbone/blocks5/blocks5.3/dw_conv/conv_kxk.0/conv/Conv_output_0 /backbone/blocks5/blocks5.3/dw_conv/Add_2_output_0
ConvolutionDepthWise     /backbone/blocks5/blocks5.3/dw_conv/conv_kxk.1/conv/Conv 1 1 /backbone/blocks5/blocks5.2/pw_conv/act/lab/Add_output_0_splitncnn_2 /backbone/blocks5/blocks5.3/dw_conv/conv_kxk.1/conv/Conv_output_0 0=192 1=5 4=2 5=1 6=4800 7=192
BinaryOp                 /backbone/blocks5/blocks5.3/dw_conv/Add_3 2 1 /backbone/blocks5/blocks5.3/dw_conv/Add_2_output_0 /backbone/blocks5/blocks5.3/dw_conv/conv_kxk.1/conv/Conv_output_0 /backbone/blocks5/blocks5.3/dw_conv/Add_3_output_0
ConvolutionDepthWise     /backbone/blocks5/blocks5.3/dw_conv/conv_kxk.2/conv/Conv 1 1 /backbone/blocks5/blocks5.2/pw_conv/act/lab/Add_output_0_splitncnn_1 /backbone/blocks5/blocks5.3/dw_conv/conv_kxk.2/conv/Conv_output_0 0=192 1=5 4=2 5=1 6=4800 7=192
BinaryOp                 /backbone/blocks5/blocks5.3/dw_conv/Add_4 2 1 /backbone/blocks5/blocks5.3/dw_conv/Add_3_output_0 /backbone/blocks5/blocks5.3/dw_conv/conv_kxk.2/conv/Conv_output_0 /backbone/blocks5/blocks5.3/dw_conv/Add_4_output_0
ConvolutionDepthWise     /backbone/blocks5/blocks5.3/dw_conv/conv_kxk.3/conv/Conv 1 1 /backbone/blocks5/blocks5.2/pw_conv/act/lab/Add_output_0_splitncnn_0 /backbone/blocks5/blocks5.3/dw_conv/conv_kxk.3/conv/Conv_output_0 0=192 1=5 4=2 5=1 6=4800 7=192
BinaryOp                 /backbone/blocks5/blocks5.3/dw_conv/Add_5 2 1 /backbone/blocks5/blocks5.3/dw_conv/Add_4_output_0 /backbone/blocks5/blocks5.3/dw_conv/conv_kxk.3/conv/Conv_output_0 /backbone/blocks5/blocks5.3/dw_conv/Add_5_output_0
BinaryOp                 /backbone/blocks5/blocks5.3/dw_conv/lab/Mul 1 1 /backbone/blocks5/blocks5.3/dw_conv/Add_5_output_0 /backbone/blocks5/blocks5.3/dw_conv/lab/Mul_output_0 0=2 1=1 2=1.086516e+00
BinaryOp                 /backbone/blocks5/blocks5.3/dw_conv/lab/Add 1 1 /backbone/blocks5/blocks5.3/dw_conv/lab/Mul_output_0 /backbone/blocks5/blocks5.3/dw_conv/lab/Add_output_0 1=1 2=1.011413e+00
HardSwish                /backbone/blocks5/blocks5.3/dw_conv/act/act/Mul 1 1 /backbone/blocks5/blocks5.3/dw_conv/lab/Add_output_0 /backbone/blocks5/blocks5.3/dw_conv/act/act/Mul_output_0 0=1.666667e-01
BinaryOp                 /backbone/blocks5/blocks5.3/dw_conv/act/lab/Mul 1 1 /backbone/blocks5/blocks5.3/dw_conv/act/act/Mul_output_0 /backbone/blocks5/blocks5.3/dw_conv/act/lab/Mul_output_0 0=2 1=1 2=2.967073e-01
BinaryOp                 /backbone/blocks5/blocks5.3/dw_conv/act/lab/Add 1 1 /backbone/blocks5/blocks5.3/dw_conv/act/lab/Mul_output_0 /backbone/blocks5/blocks5.3/dw_conv/act/lab/Add_output_0 1=1 2=7.998793e-03
Split                    splitncnn_17             1 5 /backbone/blocks5/blocks5.3/dw_conv/act/lab/Add_output_0 /backbone/blocks5/blocks5.3/dw_conv/act/lab/Add_output_0_splitncnn_0 /backbone/blocks5/blocks5.3/dw_conv/act/lab/Add_output_0_splitncnn_1 /backbone/blocks5/blocks5.3/dw_conv/act/lab/Add_output_0_splitncnn_2 /backbone/blocks5/blocks5.3/dw_conv/act/lab/Add_output_0_splitncnn_3 /backbone/blocks5/blocks5.3/dw_conv/act/lab/Add_output_0_splitncnn_4
BatchNorm                /backbone/blocks5/blocks5.3/pw_conv/identity/BatchNormalization 1 1 /backbone/blocks5/blocks5.3/dw_conv/act/lab/Add_output_0_splitncnn_4 /backbone/blocks5/blocks5.3/pw_conv/identity/BatchNormalization_output_0 0=192
Convolution              /backbone/blocks5/blocks5.3/pw_conv/conv_kxk.0/conv/Conv 1 1 /backbone/blocks5/blocks5.3/dw_conv/act/lab/Add_output_0_splitncnn_3 /backbone/blocks5/blocks5.3/pw_conv/conv_kxk.0/conv/Conv_output_0 0=192 1=1 5=1 6=36864
BinaryOp                 /backbone/blocks5/blocks5.3/pw_conv/Add_1 2 1 /backbone/blocks5/blocks5.3/pw_conv/identity/BatchNormalization_output_0 /backbone/blocks5/blocks5.3/pw_conv/conv_kxk.0/conv/Conv_output_0 /backbone/blocks5/blocks5.3/pw_conv/Add_1_output_0
Convolution              /backbone/blocks5/blocks5.3/pw_conv/conv_kxk.1/conv/Conv 1 1 /backbone/blocks5/blocks5.3/dw_conv/act/lab/Add_output_0_splitncnn_2 /backbone/blocks5/blocks5.3/pw_conv/conv_kxk.1/conv/Conv_output_0 0=192 1=1 5=1 6=36864
BinaryOp                 /backbone/blocks5/blocks5.3/pw_conv/Add_2 2 1 /backbone/blocks5/blocks5.3/pw_conv/Add_1_output_0 /backbone/blocks5/blocks5.3/pw_conv/conv_kxk.1/conv/Conv_output_0 /backbone/blocks5/blocks5.3/pw_conv/Add_2_output_0
Convolution              /backbone/blocks5/blocks5.3/pw_conv/conv_kxk.2/conv/Conv 1 1 /backbone/blocks5/blocks5.3/dw_conv/act/lab/Add_output_0_splitncnn_1 /backbone/blocks5/blocks5.3/pw_conv/conv_kxk.2/conv/Conv_output_0 0=192 1=1 5=1 6=36864
BinaryOp                 /backbone/blocks5/blocks5.3/pw_conv/Add_3 2 1 /backbone/blocks5/blocks5.3/pw_conv/Add_2_output_0 /backbone/blocks5/blocks5.3/pw_conv/conv_kxk.2/conv/Conv_output_0 /backbone/blocks5/blocks5.3/pw_conv/Add_3_output_0
Convolution              /backbone/blocks5/blocks5.3/pw_conv/conv_kxk.3/conv/Conv 1 1 /backbone/blocks5/blocks5.3/dw_conv/act/lab/Add_output_0_splitncnn_0 /backbone/blocks5/blocks5.3/pw_conv/conv_kxk.3/conv/Conv_output_0 0=192 1=1 5=1 6=36864
BinaryOp                 /backbone/blocks5/blocks5.3/pw_conv/Add_4 2 1 /backbone/blocks5/blocks5.3/pw_conv/Add_3_output_0 /backbone/blocks5/blocks5.3/pw_conv/conv_kxk.3/conv/Conv_output_0 /backbone/blocks5/blocks5.3/pw_conv/Add_4_output_0
BinaryOp                 /backbone/blocks5/blocks5.3/pw_conv/lab/Mul 1 1 /backbone/blocks5/blocks5.3/pw_conv/Add_4_output_0 /backbone/blocks5/blocks5.3/pw_conv/lab/Mul_output_0 0=2 1=1 2=1.022290e+00
BinaryOp                 /backbone/blocks5/blocks5.3/pw_conv/lab/Add 1 1 /backbone/blocks5/blocks5.3/pw_conv/lab/Mul_output_0 /backbone/blocks5/blocks5.3/pw_conv/lab/Add_output_0 1=1 2=-6.891787e-02
HardSwish                /backbone/blocks5/blocks5.3/pw_conv/act/act/Mul 1 1 /backbone/blocks5/blocks5.3/pw_conv/lab/Add_output_0 /backbone/blocks5/blocks5.3/pw_conv/act/act/Mul_output_0 0=1.666667e-01
BinaryOp                 /backbone/blocks5/blocks5.3/pw_conv/act/lab/Mul 1 1 /backbone/blocks5/blocks5.3/pw_conv/act/act/Mul_output_0 /backbone/blocks5/blocks5.3/pw_conv/act/lab/Mul_output_0 0=2 1=1 2=9.277040e-01
BinaryOp                 /backbone/blocks5/blocks5.3/pw_conv/act/lab/Add 1 1 /backbone/blocks5/blocks5.3/pw_conv/act/lab/Mul_output_0 /backbone/blocks5/blocks5.3/pw_conv/act/lab/Add_output_0 1=1 2=1.496993e-01
Split                    splitncnn_18             1 6 /backbone/blocks5/blocks5.3/pw_conv/act/lab/Add_output_0 /backbone/blocks5/blocks5.3/pw_conv/act/lab/Add_output_0_splitncnn_0 /backbone/blocks5/blocks5.3/pw_conv/act/lab/Add_output_0_splitncnn_1 /backbone/blocks5/blocks5.3/pw_conv/act/lab/Add_output_0_splitncnn_2 /backbone/blocks5/blocks5.3/pw_conv/act/lab/Add_output_0_splitncnn_3 /backbone/blocks5/blocks5.3/pw_conv/act/lab/Add_output_0_splitncnn_4 /backbone/blocks5/blocks5.3/pw_conv/act/lab/Add_output_0_splitncnn_5
BatchNorm                /backbone/blocks5/blocks5.4/dw_conv/identity/BatchNormalization 1 1 /backbone/blocks5/blocks5.3/pw_conv/act/lab/Add_output_0_splitncnn_5 /backbone/blocks5/blocks5.4/dw_conv/identity/BatchNormalization_output_0 0=192
ConvolutionDepthWise     /backbone/blocks5/blocks5.4/dw_conv/conv_1x1/conv/Conv 1 1 /backbone/blocks5/blocks5.3/pw_conv/act/lab/Add_output_0_splitncnn_4 /backbone/blocks5/blocks5.4/dw_conv/conv_1x1/conv/Conv_output_0 0=192 1=1 5=1 6=192 7=192
BinaryOp                 /backbone/blocks5/blocks5.4/dw_conv/Add_1 2 1 /backbone/blocks5/blocks5.4/dw_conv/identity/BatchNormalization_output_0 /backbone/blocks5/blocks5.4/dw_conv/conv_1x1/conv/Conv_output_0 /backbone/blocks5/blocks5.4/dw_conv/Add_1_output_0
ConvolutionDepthWise     /backbone/blocks5/blocks5.4/dw_conv/conv_kxk.0/conv/Conv 1 1 /backbone/blocks5/blocks5.3/pw_conv/act/lab/Add_output_0_splitncnn_3 /backbone/blocks5/blocks5.4/dw_conv/conv_kxk.0/conv/Conv_output_0 0=192 1=5 4=2 5=1 6=4800 7=192
BinaryOp                 /backbone/blocks5/blocks5.4/dw_conv/Add_2 2 1 /backbone/blocks5/blocks5.4/dw_conv/Add_1_output_0 /backbone/blocks5/blocks5.4/dw_conv/conv_kxk.0/conv/Conv_output_0 /backbone/blocks5/blocks5.4/dw_conv/Add_2_output_0
ConvolutionDepthWise     /backbone/blocks5/blocks5.4/dw_conv/conv_kxk.1/conv/Conv 1 1 /backbone/blocks5/blocks5.3/pw_conv/act/lab/Add_output_0_splitncnn_2 /backbone/blocks5/blocks5.4/dw_conv/conv_kxk.1/conv/Conv_output_0 0=192 1=5 4=2 5=1 6=4800 7=192
BinaryOp                 /backbone/blocks5/blocks5.4/dw_conv/Add_3 2 1 /backbone/blocks5/blocks5.4/dw_conv/Add_2_output_0 /backbone/blocks5/blocks5.4/dw_conv/conv_kxk.1/conv/Conv_output_0 /backbone/blocks5/blocks5.4/dw_conv/Add_3_output_0
ConvolutionDepthWise     /backbone/blocks5/blocks5.4/dw_conv/conv_kxk.2/conv/Conv 1 1 /backbone/blocks5/blocks5.3/pw_conv/act/lab/Add_output_0_splitncnn_1 /backbone/blocks5/blocks5.4/dw_conv/conv_kxk.2/conv/Conv_output_0 0=192 1=5 4=2 5=1 6=4800 7=192
BinaryOp                 /backbone/blocks5/blocks5.4/dw_conv/Add_4 2 1 /backbone/blocks5/blocks5.4/dw_conv/Add_3_output_0 /backbone/blocks5/blocks5.4/dw_conv/conv_kxk.2/conv/Conv_output_0 /backbone/blocks5/blocks5.4/dw_conv/Add_4_output_0
ConvolutionDepthWise     /backbone/blocks5/blocks5.4/dw_conv/conv_kxk.3/conv/Conv 1 1 /backbone/blocks5/blocks5.3/pw_conv/act/lab/Add_output_0_splitncnn_0 /backbone/blocks5/blocks5.4/dw_conv/conv_kxk.3/conv/Conv_output_0 0=192 1=5 4=2 5=1 6=4800 7=192
BinaryOp                 /backbone/blocks5/blocks5.4/dw_conv/Add_5 2 1 /backbone/blocks5/blocks5.4/dw_conv/Add_4_output_0 /backbone/blocks5/blocks5.4/dw_conv/conv_kxk.3/conv/Conv_output_0 /backbone/blocks5/blocks5.4/dw_conv/Add_5_output_0
BinaryOp                 /backbone/blocks5/blocks5.4/dw_conv/lab/Mul 1 1 /backbone/blocks5/blocks5.4/dw_conv/Add_5_output_0 /backbone/blocks5/blocks5.4/dw_conv/lab/Mul_output_0 0=2 1=1 2=9.893465e-01
BinaryOp                 /backbone/blocks5/blocks5.4/dw_conv/lab/Add 1 1 /backbone/blocks5/blocks5.4/dw_conv/lab/Mul_output_0 /backbone/blocks5/blocks5.4/dw_conv/lab/Add_output_0 1=1 2=1.280785e+00
HardSwish                /backbone/blocks5/blocks5.4/dw_conv/act/act/Mul 1 1 /backbone/blocks5/blocks5.4/dw_conv/lab/Add_output_0 /backbone/blocks5/blocks5.4/dw_conv/act/act/Mul_output_0 0=1.666667e-01
BinaryOp                 /backbone/blocks5/blocks5.4/dw_conv/act/lab/Mul 1 1 /backbone/blocks5/blocks5.4/dw_conv/act/act/Mul_output_0 /backbone/blocks5/blocks5.4/dw_conv/act/lab/Mul_output_0 0=2 1=1 2=2.505561e-01
BinaryOp                 /backbone/blocks5/blocks5.4/dw_conv/act/lab/Add 1 1 /backbone/blocks5/blocks5.4/dw_conv/act/lab/Mul_output_0 /backbone/blocks5/blocks5.4/dw_conv/act/lab/Add_output_0 1=1 2=-7.482842e-03
Split                    splitncnn_19             1 5 /backbone/blocks5/blocks5.4/dw_conv/act/lab/Add_output_0 /backbone/blocks5/blocks5.4/dw_conv/act/lab/Add_output_0_splitncnn_0 /backbone/blocks5/blocks5.4/dw_conv/act/lab/Add_output_0_splitncnn_1 /backbone/blocks5/blocks5.4/dw_conv/act/lab/Add_output_0_splitncnn_2 /backbone/blocks5/blocks5.4/dw_conv/act/lab/Add_output_0_splitncnn_3 /backbone/blocks5/blocks5.4/dw_conv/act/lab/Add_output_0_splitncnn_4
BatchNorm                /backbone/blocks5/blocks5.4/pw_conv/identity/BatchNormalization 1 1 /backbone/blocks5/blocks5.4/dw_conv/act/lab/Add_output_0_splitncnn_4 /backbone/blocks5/blocks5.4/pw_conv/identity/BatchNormalization_output_0 0=192
Convolution              /backbone/blocks5/blocks5.4/pw_conv/conv_kxk.0/conv/Conv 1 1 /backbone/blocks5/blocks5.4/dw_conv/act/lab/Add_output_0_splitncnn_3 /backbone/blocks5/blocks5.4/pw_conv/conv_kxk.0/conv/Conv_output_0 0=192 1=1 5=1 6=36864
BinaryOp                 /backbone/blocks5/blocks5.4/pw_conv/Add_1 2 1 /backbone/blocks5/blocks5.4/pw_conv/identity/BatchNormalization_output_0 /backbone/blocks5/blocks5.4/pw_conv/conv_kxk.0/conv/Conv_output_0 /backbone/blocks5/blocks5.4/pw_conv/Add_1_output_0
Convolution              /backbone/blocks5/blocks5.4/pw_conv/conv_kxk.1/conv/Conv 1 1 /backbone/blocks5/blocks5.4/dw_conv/act/lab/Add_output_0_splitncnn_2 /backbone/blocks5/blocks5.4/pw_conv/conv_kxk.1/conv/Conv_output_0 0=192 1=1 5=1 6=36864
BinaryOp                 /backbone/blocks5/blocks5.4/pw_conv/Add_2 2 1 /backbone/blocks5/blocks5.4/pw_conv/Add_1_output_0 /backbone/blocks5/blocks5.4/pw_conv/conv_kxk.1/conv/Conv_output_0 /backbone/blocks5/blocks5.4/pw_conv/Add_2_output_0
Convolution              /backbone/blocks5/blocks5.4/pw_conv/conv_kxk.2/conv/Conv 1 1 /backbone/blocks5/blocks5.4/dw_conv/act/lab/Add_output_0_splitncnn_1 /backbone/blocks5/blocks5.4/pw_conv/conv_kxk.2/conv/Conv_output_0 0=192 1=1 5=1 6=36864
BinaryOp                 /backbone/blocks5/blocks5.4/pw_conv/Add_3 2 1 /backbone/blocks5/blocks5.4/pw_conv/Add_2_output_0 /backbone/blocks5/blocks5.4/pw_conv/conv_kxk.2/conv/Conv_output_0 /backbone/blocks5/blocks5.4/pw_conv/Add_3_output_0
Convolution              /backbone/blocks5/blocks5.4/pw_conv/conv_kxk.3/conv/Conv 1 1 /backbone/blocks5/blocks5.4/dw_conv/act/lab/Add_output_0_splitncnn_0 /backbone/blocks5/blocks5.4/pw_conv/conv_kxk.3/conv/Conv_output_0 0=192 1=1 5=1 6=36864
BinaryOp                 /backbone/blocks5/blocks5.4/pw_conv/Add_4 2 1 /backbone/blocks5/blocks5.4/pw_conv/Add_3_output_0 /backbone/blocks5/blocks5.4/pw_conv/conv_kxk.3/conv/Conv_output_0 /backbone/blocks5/blocks5.4/pw_conv/Add_4_output_0
BinaryOp                 /backbone/blocks5/blocks5.4/pw_conv/lab/Mul 1 1 /backbone/blocks5/blocks5.4/pw_conv/Add_4_output_0 /backbone/blocks5/blocks5.4/pw_conv/lab/Mul_output_0 0=2 1=1 2=6.934624e-01
BinaryOp                 /backbone/blocks5/blocks5.4/pw_conv/lab/Add 1 1 /backbone/blocks5/blocks5.4/pw_conv/lab/Mul_output_0 /backbone/blocks5/blocks5.4/pw_conv/lab/Add_output_0 1=1 2=-9.055936e-01
HardSwish                /backbone/blocks5/blocks5.4/pw_conv/act/act/Mul 1 1 /backbone/blocks5/blocks5.4/pw_conv/lab/Add_output_0 /backbone/blocks5/blocks5.4/pw_conv/act/act/Mul_output_0 0=1.666667e-01
BinaryOp                 /backbone/blocks5/blocks5.4/pw_conv/act/lab/Mul 1 1 /backbone/blocks5/blocks5.4/pw_conv/act/act/Mul_output_0 /backbone/blocks5/blocks5.4/pw_conv/act/lab/Mul_output_0 0=2 1=1 2=1.072185e+00
BinaryOp                 /backbone/blocks5/blocks5.4/pw_conv/act/lab/Add 1 1 /backbone/blocks5/blocks5.4/pw_conv/act/lab/Mul_output_0 /backbone/blocks5/blocks5.4/pw_conv/act/lab/Add_output_0 1=1 2=1.859348e-01
Split                    splitncnn_20             1 6 /backbone/blocks5/blocks5.4/pw_conv/act/lab/Add_output_0 /backbone/blocks5/blocks5.4/pw_conv/act/lab/Add_output_0_splitncnn_0 /backbone/blocks5/blocks5.4/pw_conv/act/lab/Add_output_0_splitncnn_1 /backbone/blocks5/blocks5.4/pw_conv/act/lab/Add_output_0_splitncnn_2 /backbone/blocks5/blocks5.4/pw_conv/act/lab/Add_output_0_splitncnn_3 /backbone/blocks5/blocks5.4/pw_conv/act/lab/Add_output_0_splitncnn_4 /backbone/blocks5/blocks5.4/pw_conv/act/lab/Add_output_0_splitncnn_5
ConvolutionDepthWise     /backbone/blocks6/blocks6.0/dw_conv/conv_1x1/conv/Conv 1 1 /backbone/blocks5/blocks5.4/pw_conv/act/lab/Add_output_0_splitncnn_5 /backbone/blocks6/blocks6.0/dw_conv/conv_1x1/conv/Conv_output_0 0=192 1=1 3=2 5=1 6=192 7=192
ConvolutionDepthWise     /backbone/blocks6/blocks6.0/dw_conv/conv_kxk.0/conv/Conv 1 1 /backbone/blocks5/blocks5.4/pw_conv/act/lab/Add_output_0_splitncnn_4 /backbone/blocks6/blocks6.0/dw_conv/conv_kxk.0/conv/Conv_output_0 0=192 1=5 3=2 4=2 5=1 6=4800 7=192
BinaryOp                 /backbone/blocks6/blocks6.0/dw_conv/Add_1 2 1 /backbone/blocks6/blocks6.0/dw_conv/conv_1x1/conv/Conv_output_0 /backbone/blocks6/blocks6.0/dw_conv/conv_kxk.0/conv/Conv_output_0 /backbone/blocks6/blocks6.0/dw_conv/Add_1_output_0
ConvolutionDepthWise     /backbone/blocks6/blocks6.0/dw_conv/conv_kxk.1/conv/Conv 1 1 /backbone/blocks5/blocks5.4/pw_conv/act/lab/Add_output_0_splitncnn_3 /backbone/blocks6/blocks6.0/dw_conv/conv_kxk.1/conv/Conv_output_0 0=192 1=5 3=2 4=2 5=1 6=4800 7=192
BinaryOp                 /backbone/blocks6/blocks6.0/dw_conv/Add_2 2 1 /backbone/blocks6/blocks6.0/dw_conv/Add_1_output_0 /backbone/blocks6/blocks6.0/dw_conv/conv_kxk.1/conv/Conv_output_0 /backbone/blocks6/blocks6.0/dw_conv/Add_2_output_0
ConvolutionDepthWise     /backbone/blocks6/blocks6.0/dw_conv/conv_kxk.2/conv/Conv 1 1 /backbone/blocks5/blocks5.4/pw_conv/act/lab/Add_output_0_splitncnn_2 /backbone/blocks6/blocks6.0/dw_conv/conv_kxk.2/conv/Conv_output_0 0=192 1=5 3=2 4=2 5=1 6=4800 7=192
BinaryOp                 /backbone/blocks6/blocks6.0/dw_conv/Add_3 2 1 /backbone/blocks6/blocks6.0/dw_conv/Add_2_output_0 /backbone/blocks6/blocks6.0/dw_conv/conv_kxk.2/conv/Conv_output_0 /backbone/blocks6/blocks6.0/dw_conv/Add_3_output_0
ConvolutionDepthWise     /backbone/blocks6/blocks6.0/dw_conv/conv_kxk.3/conv/Conv 1 1 /backbone/blocks5/blocks5.4/pw_conv/act/lab/Add_output_0_splitncnn_1 /backbone/blocks6/blocks6.0/dw_conv/conv_kxk.3/conv/Conv_output_0 0=192 1=5 3=2 4=2 5=1 6=4800 7=192
BinaryOp                 /backbone/blocks6/blocks6.0/dw_conv/Add_4 2 1 /backbone/blocks6/blocks6.0/dw_conv/Add_3_output_0 /backbone/blocks6/blocks6.0/dw_conv/conv_kxk.3/conv/Conv_output_0 /backbone/blocks6/blocks6.0/dw_conv/Add_4_output_0
BinaryOp                 /backbone/blocks6/blocks6.0/dw_conv/lab/Mul 1 1 /backbone/blocks6/blocks6.0/dw_conv/Add_4_output_0 /backbone/blocks6/blocks6.0/dw_conv/lab/Mul_output_0 0=2 1=1 2=4.527439e-01
BinaryOp                 /backbone/blocks6/blocks6.0/dw_conv/lab/Add 1 1 /backbone/blocks6/blocks6.0/dw_conv/lab/Mul_output_0 /backbone/blocks6/blocks6.0/dw_conv/lab/Add_output_0 1=1 2=-7.157735e-02
Split                    splitncnn_21             1 2 /backbone/blocks6/blocks6.0/dw_conv/lab/Add_output_0 /backbone/blocks6/blocks6.0/dw_conv/lab/Add_output_0_splitncnn_0 /backbone/blocks6/blocks6.0/dw_conv/lab/Add_output_0_splitncnn_1
Pooling                  /backbone/blocks6/blocks6.0/se/avg_pool/GlobalAveragePool 1 1 /backbone/blocks6/blocks6.0/dw_conv/lab/Add_output_0_splitncnn_1 /backbone/blocks6/blocks6.0/se/avg_pool/GlobalAveragePool_output_0 0=1 4=1
InnerProduct             /backbone/blocks6/blocks6.0/se/conv1/Conv 1 1 /backbone/blocks6/blocks6.0/se/avg_pool/GlobalAveragePool_output_0 /backbone/blocks6/blocks6.0/se/relu/Relu_output_0 0=48 1=1 2=9216 9=1
InnerProduct             /backbone/blocks6/blocks6.0/se/conv2/Conv 1 1 /backbone/blocks6/blocks6.0/se/relu/Relu_output_0 /backbone/blocks6/blocks6.0/se/conv2/Conv_output_0 0=192 1=1 2=9216
HardSigmoid              /backbone/blocks6/blocks6.0/se/hardsigmoid/HardSigmoid 1 1 /backbone/blocks6/blocks6.0/se/conv2/Conv_output_0 /backbone/blocks6/blocks6.0/se/hardsigmoid/HardSigmoid_output_0 0=1.666667e-01
BinaryOp                 /backbone/blocks6/blocks6.0/se/Mul 2 1 /backbone/blocks6/blocks6.0/dw_conv/lab/Add_output_0_splitncnn_0 /backbone/blocks6/blocks6.0/se/hardsigmoid/HardSigmoid_output_0 /backbone/blocks6/blocks6.0/se/Mul_output_0 0=2
Split                    splitncnn_22             1 4 /backbone/blocks6/blocks6.0/se/Mul_output_0 /backbone/blocks6/blocks6.0/se/Mul_output_0_splitncnn_0 /backbone/blocks6/blocks6.0/se/Mul_output_0_splitncnn_1 /backbone/blocks6/blocks6.0/se/Mul_output_0_splitncnn_2 /backbone/blocks6/blocks6.0/se/Mul_output_0_splitncnn_3
Convolution              /backbone/blocks6/blocks6.0/pw_conv/conv_kxk.0/conv/Conv 1 1 /backbone/blocks6/blocks6.0/se/Mul_output_0_splitncnn_3 /backbone/blocks6/blocks6.0/pw_conv/conv_kxk.0/conv/Conv_output_0 0=384 1=1 5=1 6=73728
Convolution              /backbone/blocks6/blocks6.0/pw_conv/conv_kxk.1/conv/Conv 1 1 /backbone/blocks6/blocks6.0/se/Mul_output_0_splitncnn_2 /backbone/blocks6/blocks6.0/pw_conv/conv_kxk.1/conv/Conv_output_0 0=384 1=1 5=1 6=73728
BinaryOp                 /backbone/blocks6/blocks6.0/pw_conv/Add_1 2 1 /backbone/blocks6/blocks6.0/pw_conv/conv_kxk.0/conv/Conv_output_0 /backbone/blocks6/blocks6.0/pw_conv/conv_kxk.1/conv/Conv_output_0 /backbone/blocks6/blocks6.0/pw_conv/Add_1_output_0
Convolution              /backbone/blocks6/blocks6.0/pw_conv/conv_kxk.2/conv/Conv 1 1 /backbone/blocks6/blocks6.0/se/Mul_output_0_splitncnn_1 /backbone/blocks6/blocks6.0/pw_conv/conv_kxk.2/conv/Conv_output_0 0=384 1=1 5=1 6=73728
BinaryOp                 /backbone/blocks6/blocks6.0/pw_conv/Add_2 2 1 /backbone/blocks6/blocks6.0/pw_conv/Add_1_output_0 /backbone/blocks6/blocks6.0/pw_conv/conv_kxk.2/conv/Conv_output_0 /backbone/blocks6/blocks6.0/pw_conv/Add_2_output_0
Convolution              /backbone/blocks6/blocks6.0/pw_conv/conv_kxk.3/conv/Conv 1 1 /backbone/blocks6/blocks6.0/se/Mul_output_0_splitncnn_0 /backbone/blocks6/blocks6.0/pw_conv/conv_kxk.3/conv/Conv_output_0 0=384 1=1 5=1 6=73728
BinaryOp                 /backbone/blocks6/blocks6.0/pw_conv/Add_3 2 1 /backbone/blocks6/blocks6.0/pw_conv/Add_2_output_0 /backbone/blocks6/blocks6.0/pw_conv/conv_kxk.3/conv/Conv_output_0 /backbone/blocks6/blocks6.0/pw_conv/Add_3_output_0
BinaryOp                 /backbone/blocks6/blocks6.0/pw_conv/lab/Mul 1 1 /backbone/blocks6/blocks6.0/pw_conv/Add_3_output_0 /backbone/blocks6/blocks6.0/pw_conv/lab/Mul_output_0 0=2 1=1 2=1.216792e+00
BinaryOp                 /backbone/blocks6/blocks6.0/pw_conv/lab/Add 1 1 /backbone/blocks6/blocks6.0/pw_conv/lab/Mul_output_0 /backbone/blocks6/blocks6.0/pw_conv/lab/Add_output_0 1=1 2=-5.200474e-03
HardSwish                /backbone/blocks6/blocks6.0/pw_conv/act/act/Mul 1 1 /backbone/blocks6/blocks6.0/pw_conv/lab/Add_output_0 /backbone/blocks6/blocks6.0/pw_conv/act/act/Mul_output_0 0=1.666667e-01
BinaryOp                 /backbone/blocks6/blocks6.0/pw_conv/act/lab/Mul 1 1 /backbone/blocks6/blocks6.0/pw_conv/act/act/Mul_output_0 /backbone/blocks6/blocks6.0/pw_conv/act/lab/Mul_output_0 0=2 1=1 2=1.082833e+00
BinaryOp                 /backbone/blocks6/blocks6.0/pw_conv/act/lab/Add 1 1 /backbone/blocks6/blocks6.0/pw_conv/act/lab/Mul_output_0 /backbone/blocks6/blocks6.0/pw_conv/act/lab/Add_output_0 1=1 2=1.517908e-01
Split                    splitncnn_23             1 6 /backbone/blocks6/blocks6.0/pw_conv/act/lab/Add_output_0 /backbone/blocks6/blocks6.0/pw_conv/act/lab/Add_output_0_splitncnn_0 /backbone/blocks6/blocks6.0/pw_conv/act/lab/Add_output_0_splitncnn_1 /backbone/blocks6/blocks6.0/pw_conv/act/lab/Add_output_0_splitncnn_2 /backbone/blocks6/blocks6.0/pw_conv/act/lab/Add_output_0_splitncnn_3 /backbone/blocks6/blocks6.0/pw_conv/act/lab/Add_output_0_splitncnn_4 /backbone/blocks6/blocks6.0/pw_conv/act/lab/Add_output_0_splitncnn_5
BatchNorm                /backbone/blocks6/blocks6.1/dw_conv/identity/BatchNormalization 1 1 /backbone/blocks6/blocks6.0/pw_conv/act/lab/Add_output_0_splitncnn_5 /backbone/blocks6/blocks6.1/dw_conv/identity/BatchNormalization_output_0 0=384
ConvolutionDepthWise     /backbone/blocks6/blocks6.1/dw_conv/conv_1x1/conv/Conv 1 1 /backbone/blocks6/blocks6.0/pw_conv/act/lab/Add_output_0_splitncnn_4 /backbone/blocks6/blocks6.1/dw_conv/conv_1x1/conv/Conv_output_0 0=384 1=1 5=1 6=384 7=384
BinaryOp                 /backbone/blocks6/blocks6.1/dw_conv/Add_1 2 1 /backbone/blocks6/blocks6.1/dw_conv/identity/BatchNormalization_output_0 /backbone/blocks6/blocks6.1/dw_conv/conv_1x1/conv/Conv_output_0 /backbone/blocks6/blocks6.1/dw_conv/Add_1_output_0
ConvolutionDepthWise     /backbone/blocks6/blocks6.1/dw_conv/conv_kxk.0/conv/Conv 1 1 /backbone/blocks6/blocks6.0/pw_conv/act/lab/Add_output_0_splitncnn_3 /backbone/blocks6/blocks6.1/dw_conv/conv_kxk.0/conv/Conv_output_0 0=384 1=5 4=2 5=1 6=9600 7=384
BinaryOp                 /backbone/blocks6/blocks6.1/dw_conv/Add_2 2 1 /backbone/blocks6/blocks6.1/dw_conv/Add_1_output_0 /backbone/blocks6/blocks6.1/dw_conv/conv_kxk.0/conv/Conv_output_0 /backbone/blocks6/blocks6.1/dw_conv/Add_2_output_0
ConvolutionDepthWise     /backbone/blocks6/blocks6.1/dw_conv/conv_kxk.1/conv/Conv 1 1 /backbone/blocks6/blocks6.0/pw_conv/act/lab/Add_output_0_splitncnn_2 /backbone/blocks6/blocks6.1/dw_conv/conv_kxk.1/conv/Conv_output_0 0=384 1=5 4=2 5=1 6=9600 7=384
BinaryOp                 /backbone/blocks6/blocks6.1/dw_conv/Add_3 2 1 /backbone/blocks6/blocks6.1/dw_conv/Add_2_output_0 /backbone/blocks6/blocks6.1/dw_conv/conv_kxk.1/conv/Conv_output_0 /backbone/blocks6/blocks6.1/dw_conv/Add_3_output_0
ConvolutionDepthWise     /backbone/blocks6/blocks6.1/dw_conv/conv_kxk.2/conv/Conv 1 1 /backbone/blocks6/blocks6.0/pw_conv/act/lab/Add_output_0_splitncnn_1 /backbone/blocks6/blocks6.1/dw_conv/conv_kxk.2/conv/Conv_output_0 0=384 1=5 4=2 5=1 6=9600 7=384
BinaryOp                 /backbone/blocks6/blocks6.1/dw_conv/Add_4 2 1 /backbone/blocks6/blocks6.1/dw_conv/Add_3_output_0 /backbone/blocks6/blocks6.1/dw_conv/conv_kxk.2/conv/Conv_output_0 /backbone/blocks6/blocks6.1/dw_conv/Add_4_output_0
ConvolutionDepthWise     /backbone/blocks6/blocks6.1/dw_conv/conv_kxk.3/conv/Conv 1 1 /backbone/blocks6/blocks6.0/pw_conv/act/lab/Add_output_0_splitncnn_0 /backbone/blocks6/blocks6.1/dw_conv/conv_kxk.3/conv/Conv_output_0 0=384 1=5 4=2 5=1 6=9600 7=384
BinaryOp                 /backbone/blocks6/blocks6.1/dw_conv/Add_5 2 1 /backbone/blocks6/blocks6.1/dw_conv/Add_4_output_0 /backbone/blocks6/blocks6.1/dw_conv/conv_kxk.3/conv/Conv_output_0 /backbone/blocks6/blocks6.1/dw_conv/Add_5_output_0
BinaryOp                 /backbone/blocks6/blocks6.1/dw_conv/lab/Mul 1 1 /backbone/blocks6/blocks6.1/dw_conv/Add_5_output_0 /backbone/blocks6/blocks6.1/dw_conv/lab/Mul_output_0 0=2 1=1 2=1.295099e+00
BinaryOp                 /backbone/blocks6/blocks6.1/dw_conv/lab/Add 1 1 /backbone/blocks6/blocks6.1/dw_conv/lab/Mul_output_0 /backbone/blocks6/blocks6.1/dw_conv/lab/Add_output_0 1=1 2=9.093410e-01
HardSwish                /backbone/blocks6/blocks6.1/dw_conv/act/act/Mul 1 1 /backbone/blocks6/blocks6.1/dw_conv/lab/Add_output_0 /backbone/blocks6/blocks6.1/dw_conv/act/act/Mul_output_0 0=1.666667e-01
BinaryOp                 /backbone/blocks6/blocks6.1/dw_conv/act/lab/Mul 1 1 /backbone/blocks6/blocks6.1/dw_conv/act/act/Mul_output_0 /backbone/blocks6/blocks6.1/dw_conv/act/lab/Mul_output_0 0=2 1=1 2=9.435776e-01
BinaryOp                 /backbone/blocks6/blocks6.1/dw_conv/act/lab/Add 1 1 /backbone/blocks6/blocks6.1/dw_conv/act/lab/Mul_output_0 /backbone/blocks6/blocks6.1/dw_conv/act/lab/Add_output_0 1=1 2=-8.515369e-01
Split                    splitncnn_24             1 2 /backbone/blocks6/blocks6.1/dw_conv/act/lab/Add_output_0 /backbone/blocks6/blocks6.1/dw_conv/act/lab/Add_output_0_splitncnn_0 /backbone/blocks6/blocks6.1/dw_conv/act/lab/Add_output_0_splitncnn_1
Pooling                  /backbone/blocks6/blocks6.1/se/avg_pool/GlobalAveragePool 1 1 /backbone/blocks6/blocks6.1/dw_conv/act/lab/Add_output_0_splitncnn_1 /backbone/blocks6/blocks6.1/se/avg_pool/GlobalAveragePool_output_0 0=1 4=1
InnerProduct             /backbone/blocks6/blocks6.1/se/conv1/Conv 1 1 /backbone/blocks6/blocks6.1/se/avg_pool/GlobalAveragePool_output_0 /backbone/blocks6/blocks6.1/se/relu/Relu_output_0 0=96 1=1 2=36864 9=1
InnerProduct             /backbone/blocks6/blocks6.1/se/conv2/Conv 1 1 /backbone/blocks6/blocks6.1/se/relu/Relu_output_0 /backbone/blocks6/blocks6.1/se/conv2/Conv_output_0 0=384 1=1 2=36864
HardSigmoid              /backbone/blocks6/blocks6.1/se/hardsigmoid/HardSigmoid 1 1 /backbone/blocks6/blocks6.1/se/conv2/Conv_output_0 /backbone/blocks6/blocks6.1/se/hardsigmoid/HardSigmoid_output_0 0=1.666667e-01
BinaryOp                 /backbone/blocks6/blocks6.1/se/Mul 2 1 /backbone/blocks6/blocks6.1/dw_conv/act/lab/Add_output_0_splitncnn_0 /backbone/blocks6/blocks6.1/se/hardsigmoid/HardSigmoid_output_0 /backbone/blocks6/blocks6.1/se/Mul_output_0 0=2
Split                    splitncnn_25             1 5 /backbone/blocks6/blocks6.1/se/Mul_output_0 /backbone/blocks6/blocks6.1/se/Mul_output_0_splitncnn_0 /backbone/blocks6/blocks6.1/se/Mul_output_0_splitncnn_1 /backbone/blocks6/blocks6.1/se/Mul_output_0_splitncnn_2 /backbone/blocks6/blocks6.1/se/Mul_output_0_splitncnn_3 /backbone/blocks6/blocks6.1/se/Mul_output_0_splitncnn_4
BatchNorm                /backbone/blocks6/blocks6.1/pw_conv/identity/BatchNormalization 1 1 /backbone/blocks6/blocks6.1/se/Mul_output_0_splitncnn_4 /backbone/blocks6/blocks6.1/pw_conv/identity/BatchNormalization_output_0 0=384
Convolution              /backbone/blocks6/blocks6.1/pw_conv/conv_kxk.0/conv/Conv 1 1 /backbone/blocks6/blocks6.1/se/Mul_output_0_splitncnn_3 /backbone/blocks6/blocks6.1/pw_conv/conv_kxk.0/conv/Conv_output_0 0=384 1=1 5=1 6=147456
BinaryOp                 /backbone/blocks6/blocks6.1/pw_conv/Add_1 2 1 /backbone/blocks6/blocks6.1/pw_conv/identity/BatchNormalization_output_0 /backbone/blocks6/blocks6.1/pw_conv/conv_kxk.0/conv/Conv_output_0 /backbone/blocks6/blocks6.1/pw_conv/Add_1_output_0
Convolution              /backbone/blocks6/blocks6.1/pw_conv/conv_kxk.1/conv/Conv 1 1 /backbone/blocks6/blocks6.1/se/Mul_output_0_splitncnn_2 /backbone/blocks6/blocks6.1/pw_conv/conv_kxk.1/conv/Conv_output_0 0=384 1=1 5=1 6=147456
BinaryOp                 /backbone/blocks6/blocks6.1/pw_conv/Add_2 2 1 /backbone/blocks6/blocks6.1/pw_conv/Add_1_output_0 /backbone/blocks6/blocks6.1/pw_conv/conv_kxk.1/conv/Conv_output_0 /backbone/blocks6/blocks6.1/pw_conv/Add_2_output_0
Convolution              /backbone/blocks6/blocks6.1/pw_conv/conv_kxk.2/conv/Conv 1 1 /backbone/blocks6/blocks6.1/se/Mul_output_0_splitncnn_1 /backbone/blocks6/blocks6.1/pw_conv/conv_kxk.2/conv/Conv_output_0 0=384 1=1 5=1 6=147456
BinaryOp                 /backbone/blocks6/blocks6.1/pw_conv/Add_3 2 1 /backbone/blocks6/blocks6.1/pw_conv/Add_2_output_0 /backbone/blocks6/blocks6.1/pw_conv/conv_kxk.2/conv/Conv_output_0 /backbone/blocks6/blocks6.1/pw_conv/Add_3_output_0
Convolution              /backbone/blocks6/blocks6.1/pw_conv/conv_kxk.3/conv/Conv 1 1 /backbone/blocks6/blocks6.1/se/Mul_output_0_splitncnn_0 /backbone/blocks6/blocks6.1/pw_conv/conv_kxk.3/conv/Conv_output_0 0=384 1=1 5=1 6=147456
BinaryOp                 /backbone/blocks6/blocks6.1/pw_conv/Add_4 2 1 /backbone/blocks6/blocks6.1/pw_conv/Add_3_output_0 /backbone/blocks6/blocks6.1/pw_conv/conv_kxk.3/conv/Conv_output_0 /backbone/blocks6/blocks6.1/pw_conv/Add_4_output_0
BinaryOp                 /backbone/blocks6/blocks6.1/pw_conv/lab/Mul 1 1 /backbone/blocks6/blocks6.1/pw_conv/Add_4_output_0 /backbone/blocks6/blocks6.1/pw_conv/lab/Mul_output_0 0=2 1=1 2=9.378595e-01
BinaryOp                 /backbone/blocks6/blocks6.1/pw_conv/lab/Add 1 1 /backbone/blocks6/blocks6.1/pw_conv/lab/Mul_output_0 /backbone/blocks6/blocks6.1/pw_conv/lab/Add_output_0 1=1 2=-5.619064e-01
HardSwish                /backbone/blocks6/blocks6.1/pw_conv/act/act/Mul 1 1 /backbone/blocks6/blocks6.1/pw_conv/lab/Add_output_0 /backbone/blocks6/blocks6.1/pw_conv/act/act/Mul_output_0 0=1.666667e-01
BinaryOp                 /backbone/blocks6/blocks6.1/pw_conv/act/lab/Mul 1 1 /backbone/blocks6/blocks6.1/pw_conv/act/act/Mul_output_0 /backbone/blocks6/blocks6.1/pw_conv/act/lab/Mul_output_0 0=2 1=1 2=1.039800e+00
BinaryOp                 /backbone/blocks6/blocks6.1/pw_conv/act/lab/Add 1 1 /backbone/blocks6/blocks6.1/pw_conv/act/lab/Mul_output_0 /backbone/blocks6/blocks6.1/pw_conv/act/lab/Add_output_0 1=1 2=2.626413e-01
Split                    splitncnn_26             1 6 /backbone/blocks6/blocks6.1/pw_conv/act/lab/Add_output_0 /backbone/blocks6/blocks6.1/pw_conv/act/lab/Add_output_0_splitncnn_0 /backbone/blocks6/blocks6.1/pw_conv/act/lab/Add_output_0_splitncnn_1 /backbone/blocks6/blocks6.1/pw_conv/act/lab/Add_output_0_splitncnn_2 /backbone/blocks6/blocks6.1/pw_conv/act/lab/Add_output_0_splitncnn_3 /backbone/blocks6/blocks6.1/pw_conv/act/lab/Add_output_0_splitncnn_4 /backbone/blocks6/blocks6.1/pw_conv/act/lab/Add_output_0_splitncnn_5
BatchNorm                /backbone/blocks6/blocks6.2/dw_conv/identity/BatchNormalization 1 1 /backbone/blocks6/blocks6.1/pw_conv/act/lab/Add_output_0_splitncnn_5 /backbone/blocks6/blocks6.2/dw_conv/identity/BatchNormalization_output_0 0=384
ConvolutionDepthWise     /backbone/blocks6/blocks6.2/dw_conv/conv_1x1/conv/Conv 1 1 /backbone/blocks6/blocks6.1/pw_conv/act/lab/Add_output_0_splitncnn_4 /backbone/blocks6/blocks6.2/dw_conv/conv_1x1/conv/Conv_output_0 0=384 1=1 5=1 6=384 7=384
BinaryOp                 /backbone/blocks6/blocks6.2/dw_conv/Add_1 2 1 /backbone/blocks6/blocks6.2/dw_conv/identity/BatchNormalization_output_0 /backbone/blocks6/blocks6.2/dw_conv/conv_1x1/conv/Conv_output_0 /backbone/blocks6/blocks6.2/dw_conv/Add_1_output_0
ConvolutionDepthWise     /backbone/blocks6/blocks6.2/dw_conv/conv_kxk.0/conv/Conv 1 1 /backbone/blocks6/blocks6.1/pw_conv/act/lab/Add_output_0_splitncnn_3 /backbone/blocks6/blocks6.2/dw_conv/conv_kxk.0/conv/Conv_output_0 0=384 1=5 4=2 5=1 6=9600 7=384
BinaryOp                 /backbone/blocks6/blocks6.2/dw_conv/Add_2 2 1 /backbone/blocks6/blocks6.2/dw_conv/Add_1_output_0 /backbone/blocks6/blocks6.2/dw_conv/conv_kxk.0/conv/Conv_output_0 /backbone/blocks6/blocks6.2/dw_conv/Add_2_output_0
ConvolutionDepthWise     /backbone/blocks6/blocks6.2/dw_conv/conv_kxk.1/conv/Conv 1 1 /backbone/blocks6/blocks6.1/pw_conv/act/lab/Add_output_0_splitncnn_2 /backbone/blocks6/blocks6.2/dw_conv/conv_kxk.1/conv/Conv_output_0 0=384 1=5 4=2 5=1 6=9600 7=384
BinaryOp                 /backbone/blocks6/blocks6.2/dw_conv/Add_3 2 1 /backbone/blocks6/blocks6.2/dw_conv/Add_2_output_0 /backbone/blocks6/blocks6.2/dw_conv/conv_kxk.1/conv/Conv_output_0 /backbone/blocks6/blocks6.2/dw_conv/Add_3_output_0
ConvolutionDepthWise     /backbone/blocks6/blocks6.2/dw_conv/conv_kxk.2/conv/Conv 1 1 /backbone/blocks6/blocks6.1/pw_conv/act/lab/Add_output_0_splitncnn_1 /backbone/blocks6/blocks6.2/dw_conv/conv_kxk.2/conv/Conv_output_0 0=384 1=5 4=2 5=1 6=9600 7=384
BinaryOp                 /backbone/blocks6/blocks6.2/dw_conv/Add_4 2 1 /backbone/blocks6/blocks6.2/dw_conv/Add_3_output_0 /backbone/blocks6/blocks6.2/dw_conv/conv_kxk.2/conv/Conv_output_0 /backbone/blocks6/blocks6.2/dw_conv/Add_4_output_0
ConvolutionDepthWise     /backbone/blocks6/blocks6.2/dw_conv/conv_kxk.3/conv/Conv 1 1 /backbone/blocks6/blocks6.1/pw_conv/act/lab/Add_output_0_splitncnn_0 /backbone/blocks6/blocks6.2/dw_conv/conv_kxk.3/conv/Conv_output_0 0=384 1=5 4=2 5=1 6=9600 7=384
BinaryOp                 /backbone/blocks6/blocks6.2/dw_conv/Add_5 2 1 /backbone/blocks6/blocks6.2/dw_conv/Add_4_output_0 /backbone/blocks6/blocks6.2/dw_conv/conv_kxk.3/conv/Conv_output_0 /backbone/blocks6/blocks6.2/dw_conv/Add_5_output_0
BinaryOp                 /backbone/blocks6/blocks6.2/dw_conv/lab/Mul 1 1 /backbone/blocks6/blocks6.2/dw_conv/Add_5_output_0 /backbone/blocks6/blocks6.2/dw_conv/lab/Mul_output_0 0=2 1=1 2=1.192730e+00
BinaryOp                 /backbone/blocks6/blocks6.2/dw_conv/lab/Add 1 1 /backbone/blocks6/blocks6.2/dw_conv/lab/Mul_output_0 /backbone/blocks6/blocks6.2/dw_conv/lab/Add_output_0 1=1 2=8.388953e-01
HardSwish                /backbone/blocks6/blocks6.2/dw_conv/act/act/Mul 1 1 /backbone/blocks6/blocks6.2/dw_conv/lab/Add_output_0 /backbone/blocks6/blocks6.2/dw_conv/act/act/Mul_output_0 0=1.666667e-01
BinaryOp                 /backbone/blocks6/blocks6.2/dw_conv/act/lab/Mul 1 1 /backbone/blocks6/blocks6.2/dw_conv/act/act/Mul_output_0 /backbone/blocks6/blocks6.2/dw_conv/act/lab/Mul_output_0 0=2 1=1 2=1.319107e-01
BinaryOp                 /backbone/blocks6/blocks6.2/dw_conv/act/lab/Add 1 1 /backbone/blocks6/blocks6.2/dw_conv/act/lab/Mul_output_0 /backbone/blocks6/blocks6.2/dw_conv/act/lab/Add_output_0 1=1 2=-1.325853e-02
Split                    splitncnn_27             1 5 /backbone/blocks6/blocks6.2/dw_conv/act/lab/Add_output_0 /backbone/blocks6/blocks6.2/dw_conv/act/lab/Add_output_0_splitncnn_0 /backbone/blocks6/blocks6.2/dw_conv/act/lab/Add_output_0_splitncnn_1 /backbone/blocks6/blocks6.2/dw_conv/act/lab/Add_output_0_splitncnn_2 /backbone/blocks6/blocks6.2/dw_conv/act/lab/Add_output_0_splitncnn_3 /backbone/blocks6/blocks6.2/dw_conv/act/lab/Add_output_0_splitncnn_4
BatchNorm                /backbone/blocks6/blocks6.2/pw_conv/identity/BatchNormalization 1 1 /backbone/blocks6/blocks6.2/dw_conv/act/lab/Add_output_0_splitncnn_4 /backbone/blocks6/blocks6.2/pw_conv/identity/BatchNormalization_output_0 0=384
Convolution              /backbone/blocks6/blocks6.2/pw_conv/conv_kxk.0/conv/Conv 1 1 /backbone/blocks6/blocks6.2/dw_conv/act/lab/Add_output_0_splitncnn_3 /backbone/blocks6/blocks6.2/pw_conv/conv_kxk.0/conv/Conv_output_0 0=384 1=1 5=1 6=147456
BinaryOp                 /backbone/blocks6/blocks6.2/pw_conv/Add_1 2 1 /backbone/blocks6/blocks6.2/pw_conv/identity/BatchNormalization_output_0 /backbone/blocks6/blocks6.2/pw_conv/conv_kxk.0/conv/Conv_output_0 /backbone/blocks6/blocks6.2/pw_conv/Add_1_output_0
Convolution              /backbone/blocks6/blocks6.2/pw_conv/conv_kxk.1/conv/Conv 1 1 /backbone/blocks6/blocks6.2/dw_conv/act/lab/Add_output_0_splitncnn_2 /backbone/blocks6/blocks6.2/pw_conv/conv_kxk.1/conv/Conv_output_0 0=384 1=1 5=1 6=147456
BinaryOp                 /backbone/blocks6/blocks6.2/pw_conv/Add_2 2 1 /backbone/blocks6/blocks6.2/pw_conv/Add_1_output_0 /backbone/blocks6/blocks6.2/pw_conv/conv_kxk.1/conv/Conv_output_0 /backbone/blocks6/blocks6.2/pw_conv/Add_2_output_0
Convolution              /backbone/blocks6/blocks6.2/pw_conv/conv_kxk.2/conv/Conv 1 1 /backbone/blocks6/blocks6.2/dw_conv/act/lab/Add_output_0_splitncnn_1 /backbone/blocks6/blocks6.2/pw_conv/conv_kxk.2/conv/Conv_output_0 0=384 1=1 5=1 6=147456
BinaryOp                 /backbone/blocks6/blocks6.2/pw_conv/Add_3 2 1 /backbone/blocks6/blocks6.2/pw_conv/Add_2_output_0 /backbone/blocks6/blocks6.2/pw_conv/conv_kxk.2/conv/Conv_output_0 /backbone/blocks6/blocks6.2/pw_conv/Add_3_output_0
Convolution              /backbone/blocks6/blocks6.2/pw_conv/conv_kxk.3/conv/Conv 1 1 /backbone/blocks6/blocks6.2/dw_conv/act/lab/Add_output_0_splitncnn_0 /backbone/blocks6/blocks6.2/pw_conv/conv_kxk.3/conv/Conv_output_0 0=384 1=1 5=1 6=147456
BinaryOp                 /backbone/blocks6/blocks6.2/pw_conv/Add_4 2 1 /backbone/blocks6/blocks6.2/pw_conv/Add_3_output_0 /backbone/blocks6/blocks6.2/pw_conv/conv_kxk.3/conv/Conv_output_0 /backbone/blocks6/blocks6.2/pw_conv/Add_4_output_0
BinaryOp                 /backbone/blocks6/blocks6.2/pw_conv/lab/Mul 1 1 /backbone/blocks6/blocks6.2/pw_conv/Add_4_output_0 /backbone/blocks6/blocks6.2/pw_conv/lab/Mul_output_0 0=2 1=1 2=9.242346e-01
BinaryOp                 /backbone/blocks6/blocks6.2/pw_conv/lab/Add 1 1 /backbone/blocks6/blocks6.2/pw_conv/lab/Mul_output_0 /backbone/blocks6/blocks6.2/pw_conv/lab/Add_output_0 1=1 2=-3.188774e-01
HardSwish                /backbone/blocks6/blocks6.2/pw_conv/act/act/Mul 1 1 /backbone/blocks6/blocks6.2/pw_conv/lab/Add_output_0 /backbone/blocks6/blocks6.2/pw_conv/act/act/Mul_output_0 0=1.666667e-01
BinaryOp                 /backbone/blocks6/blocks6.2/pw_conv/act/lab/Mul 1 1 /backbone/blocks6/blocks6.2/pw_conv/act/act/Mul_output_0 /backbone/blocks6/blocks6.2/pw_conv/act/lab/Mul_output_0 0=2 1=1 2=1.136340e+00
BinaryOp                 /backbone/blocks6/blocks6.2/pw_conv/act/lab/Add 1 1 /backbone/blocks6/blocks6.2/pw_conv/act/lab/Mul_output_0 /backbone/blocks6/blocks6.2/pw_conv/act/lab/Add_output_0 1=1 2=1.785895e-01
Split                    splitncnn_28             1 6 /backbone/blocks6/blocks6.2/pw_conv/act/lab/Add_output_0 /backbone/blocks6/blocks6.2/pw_conv/act/lab/Add_output_0_splitncnn_0 /backbone/blocks6/blocks6.2/pw_conv/act/lab/Add_output_0_splitncnn_1 /backbone/blocks6/blocks6.2/pw_conv/act/lab/Add_output_0_splitncnn_2 /backbone/blocks6/blocks6.2/pw_conv/act/lab/Add_output_0_splitncnn_3 /backbone/blocks6/blocks6.2/pw_conv/act/lab/Add_output_0_splitncnn_4 /backbone/blocks6/blocks6.2/pw_conv/act/lab/Add_output_0_splitncnn_5
BatchNorm                /backbone/blocks6/blocks6.3/dw_conv/identity/BatchNormalization 1 1 /backbone/blocks6/blocks6.2/pw_conv/act/lab/Add_output_0_splitncnn_5 /backbone/blocks6/blocks6.3/dw_conv/identity/BatchNormalization_output_0 0=384
ConvolutionDepthWise     /backbone/blocks6/blocks6.3/dw_conv/conv_1x1/conv/Conv 1 1 /backbone/blocks6/blocks6.2/pw_conv/act/lab/Add_output_0_splitncnn_4 /backbone/blocks6/blocks6.3/dw_conv/conv_1x1/conv/Conv_output_0 0=384 1=1 5=1 6=384 7=384
BinaryOp                 /backbone/blocks6/blocks6.3/dw_conv/Add_1 2 1 /backbone/blocks6/blocks6.3/dw_conv/identity/BatchNormalization_output_0 /backbone/blocks6/blocks6.3/dw_conv/conv_1x1/conv/Conv_output_0 /backbone/blocks6/blocks6.3/dw_conv/Add_1_output_0
ConvolutionDepthWise     /backbone/blocks6/blocks6.3/dw_conv/conv_kxk.0/conv/Conv 1 1 /backbone/blocks6/blocks6.2/pw_conv/act/lab/Add_output_0_splitncnn_3 /backbone/blocks6/blocks6.3/dw_conv/conv_kxk.0/conv/Conv_output_0 0=384 1=5 4=2 5=1 6=9600 7=384
BinaryOp                 /backbone/blocks6/blocks6.3/dw_conv/Add_2 2 1 /backbone/blocks6/blocks6.3/dw_conv/Add_1_output_0 /backbone/blocks6/blocks6.3/dw_conv/conv_kxk.0/conv/Conv_output_0 /backbone/blocks6/blocks6.3/dw_conv/Add_2_output_0
ConvolutionDepthWise     /backbone/blocks6/blocks6.3/dw_conv/conv_kxk.1/conv/Conv 1 1 /backbone/blocks6/blocks6.2/pw_conv/act/lab/Add_output_0_splitncnn_2 /backbone/blocks6/blocks6.3/dw_conv/conv_kxk.1/conv/Conv_output_0 0=384 1=5 4=2 5=1 6=9600 7=384
BinaryOp                 /backbone/blocks6/blocks6.3/dw_conv/Add_3 2 1 /backbone/blocks6/blocks6.3/dw_conv/Add_2_output_0 /backbone/blocks6/blocks6.3/dw_conv/conv_kxk.1/conv/Conv_output_0 /backbone/blocks6/blocks6.3/dw_conv/Add_3_output_0
ConvolutionDepthWise     /backbone/blocks6/blocks6.3/dw_conv/conv_kxk.2/conv/Conv 1 1 /backbone/blocks6/blocks6.2/pw_conv/act/lab/Add_output_0_splitncnn_1 /backbone/blocks6/blocks6.3/dw_conv/conv_kxk.2/conv/Conv_output_0 0=384 1=5 4=2 5=1 6=9600 7=384
BinaryOp                 /backbone/blocks6/blocks6.3/dw_conv/Add_4 2 1 /backbone/blocks6/blocks6.3/dw_conv/Add_3_output_0 /backbone/blocks6/blocks6.3/dw_conv/conv_kxk.2/conv/Conv_output_0 /backbone/blocks6/blocks6.3/dw_conv/Add_4_output_0
ConvolutionDepthWise     /backbone/blocks6/blocks6.3/dw_conv/conv_kxk.3/conv/Conv 1 1 /backbone/blocks6/blocks6.2/pw_conv/act/lab/Add_output_0_splitncnn_0 /backbone/blocks6/blocks6.3/dw_conv/conv_kxk.3/conv/Conv_output_0 0=384 1=5 4=2 5=1 6=9600 7=384
BinaryOp                 /backbone/blocks6/blocks6.3/dw_conv/Add_5 2 1 /backbone/blocks6/blocks6.3/dw_conv/Add_4_output_0 /backbone/blocks6/blocks6.3/dw_conv/conv_kxk.3/conv/Conv_output_0 /backbone/blocks6/blocks6.3/dw_conv/Add_5_output_0
BinaryOp                 /backbone/blocks6/blocks6.3/dw_conv/lab/Mul 1 1 /backbone/blocks6/blocks6.3/dw_conv/Add_5_output_0 /backbone/blocks6/blocks6.3/dw_conv/lab/Mul_output_0 0=2 1=1 2=1.104114e+00
BinaryOp                 /backbone/blocks6/blocks6.3/dw_conv/lab/Add 1 1 /backbone/blocks6/blocks6.3/dw_conv/lab/Mul_output_0 /backbone/blocks6/blocks6.3/dw_conv/lab/Add_output_0 1=1 2=5.633047e-01
HardSwish                /backbone/blocks6/blocks6.3/dw_conv/act/act/Mul 1 1 /backbone/blocks6/blocks6.3/dw_conv/lab/Add_output_0 /backbone/blocks6/blocks6.3/dw_conv/act/act/Mul_output_0 0=1.666667e-01
BinaryOp                 /backbone/blocks6/blocks6.3/dw_conv/act/lab/Mul 1 1 /backbone/blocks6/blocks6.3/dw_conv/act/act/Mul_output_0 /backbone/blocks6/blocks6.3/dw_conv/act/lab/Mul_output_0 0=2 1=1 2=2.758006e-01
BinaryOp                 /backbone/blocks6/blocks6.3/dw_conv/act/lab/Add 1 1 /backbone/blocks6/blocks6.3/dw_conv/act/lab/Mul_output_0 /backbone/blocks6/blocks6.3/dw_conv/act/lab/Add_output_0 1=1 2=-1.273372e-03
Split                    splitncnn_29             1 5 /backbone/blocks6/blocks6.3/dw_conv/act/lab/Add_output_0 /backbone/blocks6/blocks6.3/dw_conv/act/lab/Add_output_0_splitncnn_0 /backbone/blocks6/blocks6.3/dw_conv/act/lab/Add_output_0_splitncnn_1 /backbone/blocks6/blocks6.3/dw_conv/act/lab/Add_output_0_splitncnn_2 /backbone/blocks6/blocks6.3/dw_conv/act/lab/Add_output_0_splitncnn_3 /backbone/blocks6/blocks6.3/dw_conv/act/lab/Add_output_0_splitncnn_4
BatchNorm                /backbone/blocks6/blocks6.3/pw_conv/identity/BatchNormalization 1 1 /backbone/blocks6/blocks6.3/dw_conv/act/lab/Add_output_0_splitncnn_4 /backbone/blocks6/blocks6.3/pw_conv/identity/BatchNormalization_output_0 0=384
Convolution              /backbone/blocks6/blocks6.3/pw_conv/conv_kxk.0/conv/Conv 1 1 /backbone/blocks6/blocks6.3/dw_conv/act/lab/Add_output_0_splitncnn_3 /backbone/blocks6/blocks6.3/pw_conv/conv_kxk.0/conv/Conv_output_0 0=384 1=1 5=1 6=147456
BinaryOp                 /backbone/blocks6/blocks6.3/pw_conv/Add_1 2 1 /backbone/blocks6/blocks6.3/pw_conv/identity/BatchNormalization_output_0 /backbone/blocks6/blocks6.3/pw_conv/conv_kxk.0/conv/Conv_output_0 /backbone/blocks6/blocks6.3/pw_conv/Add_1_output_0
Convolution              /backbone/blocks6/blocks6.3/pw_conv/conv_kxk.1/conv/Conv 1 1 /backbone/blocks6/blocks6.3/dw_conv/act/lab/Add_output_0_splitncnn_2 /backbone/blocks6/blocks6.3/pw_conv/conv_kxk.1/conv/Conv_output_0 0=384 1=1 5=1 6=147456
BinaryOp                 /backbone/blocks6/blocks6.3/pw_conv/Add_2 2 1 /backbone/blocks6/blocks6.3/pw_conv/Add_1_output_0 /backbone/blocks6/blocks6.3/pw_conv/conv_kxk.1/conv/Conv_output_0 /backbone/blocks6/blocks6.3/pw_conv/Add_2_output_0
Convolution              /backbone/blocks6/blocks6.3/pw_conv/conv_kxk.2/conv/Conv 1 1 /backbone/blocks6/blocks6.3/dw_conv/act/lab/Add_output_0_splitncnn_1 /backbone/blocks6/blocks6.3/pw_conv/conv_kxk.2/conv/Conv_output_0 0=384 1=1 5=1 6=147456
BinaryOp                 /backbone/blocks6/blocks6.3/pw_conv/Add_3 2 1 /backbone/blocks6/blocks6.3/pw_conv/Add_2_output_0 /backbone/blocks6/blocks6.3/pw_conv/conv_kxk.2/conv/Conv_output_0 /backbone/blocks6/blocks6.3/pw_conv/Add_3_output_0
Convolution              /backbone/blocks6/blocks6.3/pw_conv/conv_kxk.3/conv/Conv 1 1 /backbone/blocks6/blocks6.3/dw_conv/act/lab/Add_output_0_splitncnn_0 /backbone/blocks6/blocks6.3/pw_conv/conv_kxk.3/conv/Conv_output_0 0=384 1=1 5=1 6=147456
BinaryOp                 /backbone/blocks6/blocks6.3/pw_conv/Add_4 2 1 /backbone/blocks6/blocks6.3/pw_conv/Add_3_output_0 /backbone/blocks6/blocks6.3/pw_conv/conv_kxk.3/conv/Conv_output_0 /backbone/blocks6/blocks6.3/pw_conv/Add_4_output_0
BinaryOp                 /backbone/blocks6/blocks6.3/pw_conv/lab/Mul 1 1 /backbone/blocks6/blocks6.3/pw_conv/Add_4_output_0 /backbone/blocks6/blocks6.3/pw_conv/lab/Mul_output_0 0=2 1=1 2=5.073351e-01
BinaryOp                 /backbone/blocks6/blocks6.3/pw_conv/lab/Add 1 1 /backbone/blocks6/blocks6.3/pw_conv/lab/Mul_output_0 /backbone/blocks6/blocks6.3/pw_conv/lab/Add_output_0 1=1 2=-1.182260e+00
HardSwish                /backbone/blocks6/blocks6.3/pw_conv/act/act/Mul 1 1 /backbone/blocks6/blocks6.3/pw_conv/lab/Add_output_0 /backbone/blocks6/blocks6.3/pw_conv/act/act/Mul_output_0 0=1.666667e-01
BinaryOp                 /backbone/blocks6/blocks6.3/pw_conv/act/lab/Mul 1 1 /backbone/blocks6/blocks6.3/pw_conv/act/act/Mul_output_0 /backbone/blocks6/blocks6.3/pw_conv/act/lab/Mul_output_0 0=2 1=1 2=4.766799e+00
BinaryOp                 /backbone/blocks6/blocks6.3/pw_conv/act/lab/Add 1 1 /backbone/blocks6/blocks6.3/pw_conv/act/lab/Mul_output_0 /backbone/blocks6/blocks6.3/pw_conv/act/lab/Add_output_0 1=1 2=1.356205e+00
Convolution              /backbone/layer_list.0/Conv 1 1 /backbone/blocks3/blocks3.1/pw_conv/act/lab/Add_output_0_splitncnn_0 /backbone/layer_list.0/Conv_output_0 0=12 1=1 5=1 6=576
Convolution              /backbone/layer_list.1/Conv 1 1 /backbone/blocks4/blocks4.1/pw_conv/act/lab/Add_output_0_splitncnn_0 /backbone/layer_list.1/Conv_output_0 0=18 1=1 5=1 6=1728
Convolution              /backbone/layer_list.2/Conv 1 1 /backbone/blocks5/blocks5.4/pw_conv/act/lab/Add_output_0_splitncnn_0 /backbone/layer_list.2/Conv_output_0 0=42 1=1 5=1 6=8064
Convolution              /backbone/layer_list.3/Conv 1 1 /backbone/blocks6/blocks6.3/pw_conv/act/lab/Add_output_0 /backbone/layer_list.3/Conv_output_0 0=360 1=1 5=1 6=138240
Convolution              /neck/ins_conv.3/in_conv/Conv 1 1 /backbone/layer_list.3/Conv_output_0 /neck/ins_conv.3/in_conv/Conv_output_0 0=96 1=1 6=34560
Split                    splitncnn_30             1 3 /neck/ins_conv.3/in_conv/Conv_output_0 /neck/ins_conv.3/in_conv/Conv_output_0_splitncnn_0 /neck/ins_conv.3/in_conv/Conv_output_0_splitncnn_1 /neck/ins_conv.3/in_conv/Conv_output_0_splitncnn_2
Pooling                  /neck/ins_conv.3/se_block/avg_pool/GlobalAveragePool 1 1 /neck/ins_conv.3/in_conv/Conv_output_0_splitncnn_2 /neck/ins_conv.3/se_block/avg_pool/GlobalAveragePool_output_0 0=1 4=1
InnerProduct             /neck/ins_conv.3/se_block/conv1/Conv 1 1 /neck/ins_conv.3/se_block/avg_pool/GlobalAveragePool_output_0 /neck/ins_conv.3/se_block/relu1/act/Relu_output_0 0=24 1=1 2=2304 9=1
InnerProduct             /neck/ins_conv.3/se_block/conv2/Conv 1 1 /neck/ins_conv.3/se_block/relu1/act/Relu_output_0 /neck/ins_conv.3/se_block/conv2/Conv_output_0 0=96 1=1 2=2304
HardSigmoid              /neck/ins_conv.3/se_block/hard_sigmoid/act/HardSigmoid 1 1 /neck/ins_conv.3/se_block/conv2/Conv_output_0 /neck/ins_conv.3/se_block/hard_sigmoid/act/HardSigmoid_output_0 0=1.666667e-01
BinaryOp                 /neck/ins_conv.3/se_block/Mul 2 1 /neck/ins_conv.3/in_conv/Conv_output_0_splitncnn_1 /neck/ins_conv.3/se_block/hard_sigmoid/act/HardSigmoid_output_0 /neck/ins_conv.3/se_block/Mul_output_0 0=2
BinaryOp                 /neck/ins_conv.3/Add     2 1 /neck/ins_conv.3/in_conv/Conv_output_0_splitncnn_0 /neck/ins_conv.3/se_block/Mul_output_0 /neck/ins_conv.3/Add_output_0
Split                    splitncnn_31             1 2 /neck/ins_conv.3/Add_output_0 /neck/ins_conv.3/Add_output_0_splitncnn_0 /neck/ins_conv.3/Add_output_0_splitncnn_1
Convolution              /neck/ins_conv.2/in_conv/Conv 1 1 /backbone/layer_list.2/Conv_output_0 /neck/ins_conv.2/in_conv/Conv_output_0 0=96 1=1 6=4032
Split                    splitncnn_32             1 3 /neck/ins_conv.2/in_conv/Conv_output_0 /neck/ins_conv.2/in_conv/Conv_output_0_splitncnn_0 /neck/ins_conv.2/in_conv/Conv_output_0_splitncnn_1 /neck/ins_conv.2/in_conv/Conv_output_0_splitncnn_2
Pooling                  /neck/ins_conv.2/se_block/avg_pool/GlobalAveragePool 1 1 /neck/ins_conv.2/in_conv/Conv_output_0_splitncnn_2 /neck/ins_conv.2/se_block/avg_pool/GlobalAveragePool_output_0 0=1 4=1
InnerProduct             /neck/ins_conv.2/se_block/conv1/Conv 1 1 /neck/ins_conv.2/se_block/avg_pool/GlobalAveragePool_output_0 /neck/ins_conv.2/se_block/relu1/act/Relu_output_0 0=24 1=1 2=2304 9=1
InnerProduct             /neck/ins_conv.2/se_block/conv2/Conv 1 1 /neck/ins_conv.2/se_block/relu1/act/Relu_output_0 /neck/ins_conv.2/se_block/conv2/Conv_output_0 0=96 1=1 2=2304
HardSigmoid              /neck/ins_conv.2/se_block/hard_sigmoid/act/HardSigmoid 1 1 /neck/ins_conv.2/se_block/conv2/Conv_output_0 /neck/ins_conv.2/se_block/hard_sigmoid/act/HardSigmoid_output_0 0=1.666667e-01
BinaryOp                 /neck/ins_conv.2/se_block/Mul 2 1 /neck/ins_conv.2/in_conv/Conv_output_0_splitncnn_1 /neck/ins_conv.2/se_block/hard_sigmoid/act/HardSigmoid_output_0 /neck/ins_conv.2/se_block/Mul_output_0 0=2
BinaryOp                 /neck/ins_conv.2/Add     2 1 /neck/ins_conv.2/in_conv/Conv_output_0_splitncnn_0 /neck/ins_conv.2/se_block/Mul_output_0 /neck/ins_conv.2/Add_output_0
Convolution              /neck/ins_conv.1/in_conv/Conv 1 1 /backbone/layer_list.1/Conv_output_0 /neck/ins_conv.1/in_conv/Conv_output_0 0=96 1=1 6=1728
Split                    splitncnn_33             1 3 /neck/ins_conv.1/in_conv/Conv_output_0 /neck/ins_conv.1/in_conv/Conv_output_0_splitncnn_0 /neck/ins_conv.1/in_conv/Conv_output_0_splitncnn_1 /neck/ins_conv.1/in_conv/Conv_output_0_splitncnn_2
Pooling                  /neck/ins_conv.1/se_block/avg_pool/GlobalAveragePool 1 1 /neck/ins_conv.1/in_conv/Conv_output_0_splitncnn_2 /neck/ins_conv.1/se_block/avg_pool/GlobalAveragePool_output_0 0=1 4=1
InnerProduct             /neck/ins_conv.1/se_block/conv1/Conv 1 1 /neck/ins_conv.1/se_block/avg_pool/GlobalAveragePool_output_0 /neck/ins_conv.1/se_block/relu1/act/Relu_output_0 0=24 1=1 2=2304 9=1
InnerProduct             /neck/ins_conv.1/se_block/conv2/Conv 1 1 /neck/ins_conv.1/se_block/relu1/act/Relu_output_0 /neck/ins_conv.1/se_block/conv2/Conv_output_0 0=96 1=1 2=2304
HardSigmoid              /neck/ins_conv.1/se_block/hard_sigmoid/act/HardSigmoid 1 1 /neck/ins_conv.1/se_block/conv2/Conv_output_0 /neck/ins_conv.1/se_block/hard_sigmoid/act/HardSigmoid_output_0 0=1.666667e-01
BinaryOp                 /neck/ins_conv.1/se_block/Mul 2 1 /neck/ins_conv.1/in_conv/Conv_output_0_splitncnn_1 /neck/ins_conv.1/se_block/hard_sigmoid/act/HardSigmoid_output_0 /neck/ins_conv.1/se_block/Mul_output_0 0=2
BinaryOp                 /neck/ins_conv.1/Add     2 1 /neck/ins_conv.1/in_conv/Conv_output_0_splitncnn_0 /neck/ins_conv.1/se_block/Mul_output_0 /neck/ins_conv.1/Add_output_0
Convolution              /neck/ins_conv.0/in_conv/Conv 1 1 /backbone/layer_list.0/Conv_output_0 /neck/ins_conv.0/in_conv/Conv_output_0 0=96 1=1 6=1152
Split                    splitncnn_34             1 3 /neck/ins_conv.0/in_conv/Conv_output_0 /neck/ins_conv.0/in_conv/Conv_output_0_splitncnn_0 /neck/ins_conv.0/in_conv/Conv_output_0_splitncnn_1 /neck/ins_conv.0/in_conv/Conv_output_0_splitncnn_2
Pooling                  /neck/ins_conv.0/se_block/avg_pool/GlobalAveragePool 1 1 /neck/ins_conv.0/in_conv/Conv_output_0_splitncnn_2 /neck/ins_conv.0/se_block/avg_pool/GlobalAveragePool_output_0 0=1 4=1
InnerProduct             /neck/ins_conv.0/se_block/conv1/Conv 1 1 /neck/ins_conv.0/se_block/avg_pool/GlobalAveragePool_output_0 /neck/ins_conv.0/se_block/relu1/act/Relu_output_0 0=24 1=1 2=2304 9=1
InnerProduct             /neck/ins_conv.0/se_block/conv2/Conv 1 1 /neck/ins_conv.0/se_block/relu1/act/Relu_output_0 /neck/ins_conv.0/se_block/conv2/Conv_output_0 0=96 1=1 2=2304
HardSigmoid              /neck/ins_conv.0/se_block/hard_sigmoid/act/HardSigmoid 1 1 /neck/ins_conv.0/se_block/conv2/Conv_output_0 /neck/ins_conv.0/se_block/hard_sigmoid/act/HardSigmoid_output_0 0=1.666667e-01
BinaryOp                 /neck/ins_conv.0/se_block/Mul 2 1 /neck/ins_conv.0/in_conv/Conv_output_0_splitncnn_1 /neck/ins_conv.0/se_block/hard_sigmoid/act/HardSigmoid_output_0 /neck/ins_conv.0/se_block/Mul_output_0 0=2
BinaryOp                 /neck/ins_conv.0/Add     2 1 /neck/ins_conv.0/in_conv/Conv_output_0_splitncnn_0 /neck/ins_conv.0/se_block/Mul_output_0 /neck/ins_conv.0/Add_output_0
Interp                   /neck/Resize             1 1 /neck/ins_conv.3/Add_output_0_splitncnn_1 /neck/Resize_output_0 0=1 1=2.000000e+00 2=2.000000e+00
BinaryOp                 /neck/Add                2 1 /neck/ins_conv.2/Add_output_0 /neck/Resize_output_0 /neck/Add_output_0
Split                    splitncnn_35             1 2 /neck/Add_output_0 /neck/Add_output_0_splitncnn_0 /neck/Add_output_0_splitncnn_1
Interp                   /neck/Resize_1           1 1 /neck/Add_output_0_splitncnn_1 /neck/Resize_1_output_0 0=1 1=2.000000e+00 2=2.000000e+00
BinaryOp                 /neck/Add_1              2 1 /neck/ins_conv.1/Add_output_0 /neck/Resize_1_output_0 /neck/Add_1_output_0
Split                    splitncnn_36             1 2 /neck/Add_1_output_0 /neck/Add_1_output_0_splitncnn_0 /neck/Add_1_output_0_splitncnn_1
Interp                   /neck/Resize_2           1 1 /neck/Add_1_output_0_splitncnn_1 /neck/Resize_2_output_0 0=1 1=2.000000e+00 2=2.000000e+00
BinaryOp                 /neck/Add_2              2 1 /neck/ins_conv.0/Add_output_0 /neck/Resize_2_output_0 /neck/Add_2_output_0
Convolution              /neck/inp_conv.3/in_conv/Conv 1 1 /neck/ins_conv.3/Add_output_0_splitncnn_0 /neck/inp_conv.3/in_conv/Conv_output_0 0=24 1=3 4=1 6=20736
Split                    splitncnn_37             1 3 /neck/inp_conv.3/in_conv/Conv_output_0 /neck/inp_conv.3/in_conv/Conv_output_0_splitncnn_0 /neck/inp_conv.3/in_conv/Conv_output_0_splitncnn_1 /neck/inp_conv.3/in_conv/Conv_output_0_splitncnn_2
Pooling                  /neck/inp_conv.3/se_block/avg_pool/GlobalAveragePool 1 1 /neck/inp_conv.3/in_conv/Conv_output_0_splitncnn_2 /neck/inp_conv.3/se_block/avg_pool/GlobalAveragePool_output_0 0=1 4=1
InnerProduct             /neck/inp_conv.3/se_block/conv1/Conv 1 1 /neck/inp_conv.3/se_block/avg_pool/GlobalAveragePool_output_0 /neck/inp_conv.3/se_block/relu1/act/Relu_output_0 0=6 1=1 2=144 9=1
InnerProduct             /neck/inp_conv.3/se_block/conv2/Conv 1 1 /neck/inp_conv.3/se_block/relu1/act/Relu_output_0 /neck/inp_conv.3/se_block/conv2/Conv_output_0 0=24 1=1 2=144
HardSigmoid              /neck/inp_conv.3/se_block/hard_sigmoid/act/HardSigmoid 1 1 /neck/inp_conv.3/se_block/conv2/Conv_output_0 /neck/inp_conv.3/se_block/hard_sigmoid/act/HardSigmoid_output_0 0=1.666667e-01
BinaryOp                 /neck/inp_conv.3/se_block/Mul 2 1 /neck/inp_conv.3/in_conv/Conv_output_0_splitncnn_1 /neck/inp_conv.3/se_block/hard_sigmoid/act/HardSigmoid_output_0 /neck/inp_conv.3/se_block/Mul_output_0 0=2
BinaryOp                 /neck/inp_conv.3/Add     2 1 /neck/inp_conv.3/in_conv/Conv_output_0_splitncnn_0 /neck/inp_conv.3/se_block/Mul_output_0 /neck/inp_conv.3/Add_output_0
Convolution              /neck/inp_conv.2/in_conv/Conv 1 1 /neck/Add_output_0_splitncnn_0 /neck/inp_conv.2/in_conv/Conv_output_0 0=24 1=3 4=1 6=20736
Split                    splitncnn_38             1 3 /neck/inp_conv.2/in_conv/Conv_output_0 /neck/inp_conv.2/in_conv/Conv_output_0_splitncnn_0 /neck/inp_conv.2/in_conv/Conv_output_0_splitncnn_1 /neck/inp_conv.2/in_conv/Conv_output_0_splitncnn_2
Pooling                  /neck/inp_conv.2/se_block/avg_pool/GlobalAveragePool 1 1 /neck/inp_conv.2/in_conv/Conv_output_0_splitncnn_2 /neck/inp_conv.2/se_block/avg_pool/GlobalAveragePool_output_0 0=1 4=1
InnerProduct             /neck/inp_conv.2/se_block/conv1/Conv 1 1 /neck/inp_conv.2/se_block/avg_pool/GlobalAveragePool_output_0 /neck/inp_conv.2/se_block/relu1/act/Relu_output_0 0=6 1=1 2=144 9=1
InnerProduct             /neck/inp_conv.2/se_block/conv2/Conv 1 1 /neck/inp_conv.2/se_block/relu1/act/Relu_output_0 /neck/inp_conv.2/se_block/conv2/Conv_output_0 0=24 1=1 2=144
HardSigmoid              /neck/inp_conv.2/se_block/hard_sigmoid/act/HardSigmoid 1 1 /neck/inp_conv.2/se_block/conv2/Conv_output_0 /neck/inp_conv.2/se_block/hard_sigmoid/act/HardSigmoid_output_0 0=1.666667e-01
BinaryOp                 /neck/inp_conv.2/se_block/Mul 2 1 /neck/inp_conv.2/in_conv/Conv_output_0_splitncnn_1 /neck/inp_conv.2/se_block/hard_sigmoid/act/HardSigmoid_output_0 /neck/inp_conv.2/se_block/Mul_output_0 0=2
BinaryOp                 /neck/inp_conv.2/Add     2 1 /neck/inp_conv.2/in_conv/Conv_output_0_splitncnn_0 /neck/inp_conv.2/se_block/Mul_output_0 /neck/inp_conv.2/Add_output_0
Convolution              /neck/inp_conv.1/in_conv/Conv 1 1 /neck/Add_1_output_0_splitncnn_0 /neck/inp_conv.1/in_conv/Conv_output_0 0=24 1=3 4=1 6=20736
Split                    splitncnn_39             1 3 /neck/inp_conv.1/in_conv/Conv_output_0 /neck/inp_conv.1/in_conv/Conv_output_0_splitncnn_0 /neck/inp_conv.1/in_conv/Conv_output_0_splitncnn_1 /neck/inp_conv.1/in_conv/Conv_output_0_splitncnn_2
Pooling                  /neck/inp_conv.1/se_block/avg_pool/GlobalAveragePool 1 1 /neck/inp_conv.1/in_conv/Conv_output_0_splitncnn_2 /neck/inp_conv.1/se_block/avg_pool/GlobalAveragePool_output_0 0=1 4=1
InnerProduct             /neck/inp_conv.1/se_block/conv1/Conv 1 1 /neck/inp_conv.1/se_block/avg_pool/GlobalAveragePool_output_0 /neck/inp_conv.1/se_block/relu1/act/Relu_output_0 0=6 1=1 2=144 9=1
InnerProduct             /neck/inp_conv.1/se_block/conv2/Conv 1 1 /neck/inp_conv.1/se_block/relu1/act/Relu_output_0 /neck/inp_conv.1/se_block/conv2/Conv_output_0 0=24 1=1 2=144
HardSigmoid              /neck/inp_conv.1/se_block/hard_sigmoid/act/HardSigmoid 1 1 /neck/inp_conv.1/se_block/conv2/Conv_output_0 /neck/inp_conv.1/se_block/hard_sigmoid/act/HardSigmoid_output_0 0=1.666667e-01
BinaryOp                 /neck/inp_conv.1/se_block/Mul 2 1 /neck/inp_conv.1/in_conv/Conv_output_0_splitncnn_1 /neck/inp_conv.1/se_block/hard_sigmoid/act/HardSigmoid_output_0 /neck/inp_conv.1/se_block/Mul_output_0 0=2
BinaryOp                 /neck/inp_conv.1/Add     2 1 /neck/inp_conv.1/in_conv/Conv_output_0_splitncnn_0 /neck/inp_conv.1/se_block/Mul_output_0 /neck/inp_conv.1/Add_output_0
Convolution              /neck/inp_conv.0/in_conv/Conv 1 1 /neck/Add_2_output_0 /neck/inp_conv.0/in_conv/Conv_output_0 0=24 1=3 4=1 6=20736
Split                    splitncnn_40             1 3 /neck/inp_conv.0/in_conv/Conv_output_0 /neck/inp_conv.0/in_conv/Conv_output_0_splitncnn_0 /neck/inp_conv.0/in_conv/Conv_output_0_splitncnn_1 /neck/inp_conv.0/in_conv/Conv_output_0_splitncnn_2
Pooling                  /neck/inp_conv.0/se_block/avg_pool/GlobalAveragePool 1 1 /neck/inp_conv.0/in_conv/Conv_output_0_splitncnn_2 /neck/inp_conv.0/se_block/avg_pool/GlobalAveragePool_output_0 0=1 4=1
InnerProduct             /neck/inp_conv.0/se_block/conv1/Conv 1 1 /neck/inp_conv.0/se_block/avg_pool/GlobalAveragePool_output_0 /neck/inp_conv.0/se_block/relu1/act/Relu_output_0 0=6 1=1 2=144 9=1
InnerProduct             /neck/inp_conv.0/se_block/conv2/Conv 1 1 /neck/inp_conv.0/se_block/relu1/act/Relu_output_0 /neck/inp_conv.0/se_block/conv2/Conv_output_0 0=24 1=1 2=144
HardSigmoid              /neck/inp_conv.0/se_block/hard_sigmoid/act/HardSigmoid 1 1 /neck/inp_conv.0/se_block/conv2/Conv_output_0 /neck/inp_conv.0/se_block/hard_sigmoid/act/HardSigmoid_output_0 0=1.666667e-01
BinaryOp                 /neck/inp_conv.0/se_block/Mul 2 1 /neck/inp_conv.0/in_conv/Conv_output_0_splitncnn_1 /neck/inp_conv.0/se_block/hard_sigmoid/act/HardSigmoid_output_0 /neck/inp_conv.0/se_block/Mul_output_0 0=2
BinaryOp                 /neck/inp_conv.0/Add     2 1 /neck/inp_conv.0/in_conv/Conv_output_0_splitncnn_0 /neck/inp_conv.0/se_block/Mul_output_0 /neck/inp_conv.0/Add_output_0
Interp                   /neck/Resize_3           1 1 /neck/inp_conv.3/Add_output_0 /neck/Resize_3_output_0 0=1 1=8.000000e+00 2=8.000000e+00
Interp                   /neck/Resize_4           1 1 /neck/inp_conv.2/Add_output_0 /neck/Resize_4_output_0 0=1 1=4.000000e+00 2=4.000000e+00
Interp                   /neck/Resize_5           1 1 /neck/inp_conv.1/Add_output_0 /neck/Resize_5_output_0 0=1 1=2.000000e+00 2=2.000000e+00
Concat                   /neck/Concat             4 1 /neck/Resize_3_output_0 /neck/Resize_4_output_0 /neck/Resize_5_output_0 /neck/inp_conv.0/Add_output_0 /neck/Concat_output_0
Convolution              /head/binarize/conv1/Conv 1 1 /neck/Concat_output_0 /head/binarize/relu1/act/Relu_output_0 0=24 1=3 4=1 5=1 6=20736 9=1
Deconvolution            /head/binarize/conv2/ConvTranspose 1 1 /head/binarize/relu1/act/Relu_output_0 /head/binarize/relu2/act/Relu_output_0 0=24 1=2 3=2 5=1 6=2304 9=1
Deconvolution            /head/binarize/conv3/ConvTranspose 1 1 /head/binarize/relu2/act/Relu_output_0 output 0=1 1=2 3=2 5=1 6=96 9=4
