7767517
516 644
Input                    input                    0 1 input
Convolution              /backbone/conv1/conv/Conv 1 1 input /backbone/conv1/conv/Conv_output_0 0=16 1=3 3=2 4=1 5=1 6=432
Split                    splitncnn_0              1 6 /backbone/conv1/conv/Conv_output_0 /backbone/conv1/conv/Conv_output_0_splitncnn_0 /backbone/conv1/conv/Conv_output_0_splitncnn_1 /backbone/conv1/conv/Conv_output_0_splitncnn_2 /backbone/conv1/conv/Conv_output_0_splitncnn_3 /backbone/conv1/conv/Conv_output_0_splitncnn_4 /backbone/conv1/conv/Conv_output_0_splitncnn_5
BatchNorm                /backbone/blocks2/blocks2.0/dw_conv/identity/BatchNormalization 1 1 /backbone/conv1/conv/Conv_output_0_splitncnn_5 /backbone/blocks2/blocks2.0/dw_conv/identity/BatchNormalization_output_0 0=16
BinaryOp                 /backbone/blocks2/blocks2.0/dw_conv/Add 1 1 /backbone/blocks2/blocks2.0/dw_conv/identity/BatchNormalization_output_0 /backbone/blocks2/blocks2.0/dw_conv/Add_output_0 1=1
ConvolutionDepthWise     /backbone/blocks2/blocks2.0/dw_conv/conv_1x1/conv/Conv 1 1 /backbone/conv1/conv/Conv_output_0_splitncnn_4 /backbone/blocks2/blocks2.0/dw_conv/conv_1x1/conv/Conv_output_0 0=16 1=1 5=1 6=16 7=16
BinaryOp                 /backbone/blocks2/blocks2.0/dw_conv/Add_1 2 1 /backbone/blocks2/blocks2.0/dw_conv/Add_output_0 /backbone/blocks2/blocks2.0/dw_conv/conv_1x1/conv/Conv_output_0 /backbone/blocks2/blocks2.0/dw_conv/Add_1_output_0
ConvolutionDepthWise     /backbone/blocks2/blocks2.0/dw_conv/conv_kxk.0/conv/Conv 1 1 /backbone/conv1/conv/Conv_output_0_splitncnn_3 /backbone/blocks2/blocks2.0/dw_conv/conv_kxk.0/conv/Conv_output_0 0=16 1=3 4=1 5=1 6=144 7=16
BinaryOp                 /backbone/blocks2/blocks2.0/dw_conv/Add_2 2 1 /backbone/blocks2/blocks2.0/dw_conv/Add_1_output_0 /backbone/blocks2/blocks2.0/dw_conv/conv_kxk.0/conv/Conv_output_0 /backbone/blocks2/blocks2.0/dw_conv/Add_2_output_0
ConvolutionDepthWise     /backbone/blocks2/blocks2.0/dw_conv/conv_kxk.1/conv/Conv 1 1 /backbone/conv1/conv/Conv_output_0_splitncnn_2 /backbone/blocks2/blocks2.0/dw_conv/conv_kxk.1/conv/Conv_output_0 0=16 1=3 4=1 5=1 6=144 7=16
BinaryOp                 /backbone/blocks2/blocks2.0/dw_conv/Add_3 2 1 /backbone/blocks2/blocks2.0/dw_conv/Add_2_output_0 /backbone/blocks2/blocks2.0/dw_conv/conv_kxk.1/conv/Conv_output_0 /backbone/blocks2/blocks2.0/dw_conv/Add_3_output_0
ConvolutionDepthWise     /backbone/blocks2/blocks2.0/dw_conv/conv_kxk.2/conv/Conv 1 1 /backbone/conv1/conv/Conv_output_0_splitncnn_1 /backbone/blocks2/blocks2.0/dw_conv/conv_kxk.2/conv/Conv_output_0 0=16 1=3 4=1 5=1 6=144 7=16
BinaryOp                 /backbone/blocks2/blocks2.0/dw_conv/Add_4 2 1 /backbone/blocks2/blocks2.0/dw_conv/Add_3_output_0 /backbone/blocks2/blocks2.0/dw_conv/conv_kxk.2/conv/Conv_output_0 /backbone/blocks2/blocks2.0/dw_conv/Add_4_output_0
ConvolutionDepthWise     /backbone/blocks2/blocks2.0/dw_conv/conv_kxk.3/conv/Conv 1 1 /backbone/conv1/conv/Conv_output_0_splitncnn_0 /backbone/blocks2/blocks2.0/dw_conv/conv_kxk.3/conv/Conv_output_0 0=16 1=3 4=1 5=1 6=144 7=16
BinaryOp                 /backbone/blocks2/blocks2.0/dw_conv/Add_5 2 1 /backbone/blocks2/blocks2.0/dw_conv/Add_4_output_0 /backbone/blocks2/blocks2.0/dw_conv/conv_kxk.3/conv/Conv_output_0 /backbone/blocks2/blocks2.0/dw_conv/Add_5_output_0
BinaryOp                 /backbone/blocks2/blocks2.0/dw_conv/lab/Mul 1 1 /backbone/blocks2/blocks2.0/dw_conv/Add_5_output_0 /backbone/blocks2/blocks2.0/dw_conv/lab/Mul_output_0 0=2 1=1 2=1.384107e+00
BinaryOp                 /backbone/blocks2/blocks2.0/dw_conv/lab/Add 1 1 /backbone/blocks2/blocks2.0/dw_conv/lab/Mul_output_0 /backbone/blocks2/blocks2.0/dw_conv/lab/Add_output_0 1=1 2=5.860772e-01
HardSwish                /backbone/blocks2/blocks2.0/dw_conv/act/act/Mul 1 1 /backbone/blocks2/blocks2.0/dw_conv/lab/Add_output_0 /backbone/blocks2/blocks2.0/dw_conv/act/act/Mul_output_0 0=1.666667e-01
BinaryOp                 /backbone/blocks2/blocks2.0/dw_conv/act/lab/Mul 1 1 /backbone/blocks2/blocks2.0/dw_conv/act/act/Mul_output_0 /backbone/blocks2/blocks2.0/dw_conv/act/lab/Mul_output_0 0=2 1=1 2=1.675188e-01
BinaryOp                 /backbone/blocks2/blocks2.0/dw_conv/act/lab/Add 1 1 /backbone/blocks2/blocks2.0/dw_conv/act/lab/Mul_output_0 /backbone/blocks2/blocks2.0/dw_conv/act/lab/Add_output_0 1=1 2=3.470043e-05
Split                    splitncnn_1              1 4 /backbone/blocks2/blocks2.0/dw_conv/act/lab/Add_output_0 /backbone/blocks2/blocks2.0/dw_conv/act/lab/Add_output_0_splitncnn_0 /backbone/blocks2/blocks2.0/dw_conv/act/lab/Add_output_0_splitncnn_1 /backbone/blocks2/blocks2.0/dw_conv/act/lab/Add_output_0_splitncnn_2 /backbone/blocks2/blocks2.0/dw_conv/act/lab/Add_output_0_splitncnn_3
Convolution              /backbone/blocks2/blocks2.0/pw_conv/conv_kxk.0/conv/Conv 1 1 /backbone/blocks2/blocks2.0/dw_conv/act/lab/Add_output_0_splitncnn_3 /backbone/blocks2/blocks2.0/pw_conv/conv_kxk.0/conv/Conv_output_0 0=32 1=1 5=1 6=512
BinaryOp                 /backbone/blocks2/blocks2.0/pw_conv/Add 1 1 /backbone/blocks2/blocks2.0/pw_conv/conv_kxk.0/conv/Conv_output_0 /backbone/blocks2/blocks2.0/pw_conv/Add_output_0 1=1
Convolution              /backbone/blocks2/blocks2.0/pw_conv/conv_kxk.1/conv/Conv 1 1 /backbone/blocks2/blocks2.0/dw_conv/act/lab/Add_output_0_splitncnn_2 /backbone/blocks2/blocks2.0/pw_conv/conv_kxk.1/conv/Conv_output_0 0=32 1=1 5=1 6=512
BinaryOp                 /backbone/blocks2/blocks2.0/pw_conv/Add_1 2 1 /backbone/blocks2/blocks2.0/pw_conv/Add_output_0 /backbone/blocks2/blocks2.0/pw_conv/conv_kxk.1/conv/Conv_output_0 /backbone/blocks2/blocks2.0/pw_conv/Add_1_output_0
Convolution              /backbone/blocks2/blocks2.0/pw_conv/conv_kxk.2/conv/Conv 1 1 /backbone/blocks2/blocks2.0/dw_conv/act/lab/Add_output_0_splitncnn_1 /backbone/blocks2/blocks2.0/pw_conv/conv_kxk.2/conv/Conv_output_0 0=32 1=1 5=1 6=512
BinaryOp                 /backbone/blocks2/blocks2.0/pw_conv/Add_2 2 1 /backbone/blocks2/blocks2.0/pw_conv/Add_1_output_0 /backbone/blocks2/blocks2.0/pw_conv/conv_kxk.2/conv/Conv_output_0 /backbone/blocks2/blocks2.0/pw_conv/Add_2_output_0
Convolution              /backbone/blocks2/blocks2.0/pw_conv/conv_kxk.3/conv/Conv 1 1 /backbone/blocks2/blocks2.0/dw_conv/act/lab/Add_output_0_splitncnn_0 /backbone/blocks2/blocks2.0/pw_conv/conv_kxk.3/conv/Conv_output_0 0=32 1=1 5=1 6=512
BinaryOp                 /backbone/blocks2/blocks2.0/pw_conv/Add_3 2 1 /backbone/blocks2/blocks2.0/pw_conv/Add_2_output_0 /backbone/blocks2/blocks2.0/pw_conv/conv_kxk.3/conv/Conv_output_0 /backbone/blocks2/blocks2.0/pw_conv/Add_3_output_0
BinaryOp                 /backbone/blocks2/blocks2.0/pw_conv/lab/Mul 1 1 /backbone/blocks2/blocks2.0/pw_conv/Add_3_output_0 /backbone/blocks2/blocks2.0/pw_conv/lab/Mul_output_0 0=2 1=1 2=2.111558e+00
BinaryOp                 /backbone/blocks2/blocks2.0/pw_conv/lab/Add 1 1 /backbone/blocks2/blocks2.0/pw_conv/lab/Mul_output_0 /backbone/blocks2/blocks2.0/pw_conv/lab/Add_output_0 1=1 2=1.056320e+00
HardSwish                /backbone/blocks2/blocks2.0/pw_conv/act/act/Mul 1 1 /backbone/blocks2/blocks2.0/pw_conv/lab/Add_output_0 /backbone/blocks2/blocks2.0/pw_conv/act/act/Mul_output_0 0=1.666667e-01
BinaryOp                 /backbone/blocks2/blocks2.0/pw_conv/act/lab/Mul 1 1 /backbone/blocks2/blocks2.0/pw_conv/act/act/Mul_output_0 /backbone/blocks2/blocks2.0/pw_conv/act/lab/Mul_output_0 0=2 1=1 2=1.828085e-01
BinaryOp                 /backbone/blocks2/blocks2.0/pw_conv/act/lab/Add 1 1 /backbone/blocks2/blocks2.0/pw_conv/act/lab/Mul_output_0 /backbone/blocks2/blocks2.0/pw_conv/act/lab/Add_output_0 1=1 2=-2.008548e-01
Split                    splitncnn_2              1 6 /backbone/blocks2/blocks2.0/pw_conv/act/lab/Add_output_0 /backbone/blocks2/blocks2.0/pw_conv/act/lab/Add_output_0_splitncnn_0 /backbone/blocks2/blocks2.0/pw_conv/act/lab/Add_output_0_splitncnn_1 /backbone/blocks2/blocks2.0/pw_conv/act/lab/Add_output_0_splitncnn_2 /backbone/blocks2/blocks2.0/pw_conv/act/lab/Add_output_0_splitncnn_3 /backbone/blocks2/blocks2.0/pw_conv/act/lab/Add_output_0_splitncnn_4 /backbone/blocks2/blocks2.0/pw_conv/act/lab/Add_output_0_splitncnn_5
BatchNorm                /backbone/blocks3/blocks3.0/dw_conv/identity/BatchNormalization 1 1 /backbone/blocks2/blocks2.0/pw_conv/act/lab/Add_output_0_splitncnn_5 /backbone/blocks3/blocks3.0/dw_conv/identity/BatchNormalization_output_0 0=32
BinaryOp                 /backbone/blocks3/blocks3.0/dw_conv/Add 1 1 /backbone/blocks3/blocks3.0/dw_conv/identity/BatchNormalization_output_0 /backbone/blocks3/blocks3.0/dw_conv/Add_output_0 1=1
ConvolutionDepthWise     /backbone/blocks3/blocks3.0/dw_conv/conv_1x1/conv/Conv 1 1 /backbone/blocks2/blocks2.0/pw_conv/act/lab/Add_output_0_splitncnn_4 /backbone/blocks3/blocks3.0/dw_conv/conv_1x1/conv/Conv_output_0 0=32 1=1 5=1 6=32 7=32
BinaryOp                 /backbone/blocks3/blocks3.0/dw_conv/Add_1 2 1 /backbone/blocks3/blocks3.0/dw_conv/Add_output_0 /backbone/blocks3/blocks3.0/dw_conv/conv_1x1/conv/Conv_output_0 /backbone/blocks3/blocks3.0/dw_conv/Add_1_output_0
ConvolutionDepthWise     /backbone/blocks3/blocks3.0/dw_conv/conv_kxk.0/conv/Conv 1 1 /backbone/blocks2/blocks2.0/pw_conv/act/lab/Add_output_0_splitncnn_3 /backbone/blocks3/blocks3.0/dw_conv/conv_kxk.0/conv/Conv_output_0 0=32 1=3 4=1 5=1 6=288 7=32
BinaryOp                 /backbone/blocks3/blocks3.0/dw_conv/Add_2 2 1 /backbone/blocks3/blocks3.0/dw_conv/Add_1_output_0 /backbone/blocks3/blocks3.0/dw_conv/conv_kxk.0/conv/Conv_output_0 /backbone/blocks3/blocks3.0/dw_conv/Add_2_output_0
ConvolutionDepthWise     /backbone/blocks3/blocks3.0/dw_conv/conv_kxk.1/conv/Conv 1 1 /backbone/blocks2/blocks2.0/pw_conv/act/lab/Add_output_0_splitncnn_2 /backbone/blocks3/blocks3.0/dw_conv/conv_kxk.1/conv/Conv_output_0 0=32 1=3 4=1 5=1 6=288 7=32
BinaryOp                 /backbone/blocks3/blocks3.0/dw_conv/Add_3 2 1 /backbone/blocks3/blocks3.0/dw_conv/Add_2_output_0 /backbone/blocks3/blocks3.0/dw_conv/conv_kxk.1/conv/Conv_output_0 /backbone/blocks3/blocks3.0/dw_conv/Add_3_output_0
ConvolutionDepthWise     /backbone/blocks3/blocks3.0/dw_conv/conv_kxk.2/conv/Conv 1 1 /backbone/blocks2/blocks2.0/pw_conv/act/lab/Add_output_0_splitncnn_1 /backbone/blocks3/blocks3.0/dw_conv/conv_kxk.2/conv/Conv_output_0 0=32 1=3 4=1 5=1 6=288 7=32
BinaryOp                 /backbone/blocks3/blocks3.0/dw_conv/Add_4 2 1 /backbone/blocks3/blocks3.0/dw_conv/Add_3_output_0 /backbone/blocks3/blocks3.0/dw_conv/conv_kxk.2/conv/Conv_output_0 /backbone/blocks3/blocks3.0/dw_conv/Add_4_output_0
ConvolutionDepthWise     /backbone/blocks3/blocks3.0/dw_conv/conv_kxk.3/conv/Conv 1 1 /backbone/blocks2/blocks2.0/pw_conv/act/lab/Add_output_0_splitncnn_0 /backbone/blocks3/blocks3.0/dw_conv/conv_kxk.3/conv/Conv_output_0 0=32 1=3 4=1 5=1 6=288 7=32
BinaryOp                 /backbone/blocks3/blocks3.0/dw_conv/Add_5 2 1 /backbone/blocks3/blocks3.0/dw_conv/Add_4_output_0 /backbone/blocks3/blocks3.0/dw_conv/conv_kxk.3/conv/Conv_output_0 /backbone/blocks3/blocks3.0/dw_conv/Add_5_output_0
BinaryOp                 /backbone/blocks3/blocks3.0/dw_conv/lab/Mul 1 1 /backbone/blocks3/blocks3.0/dw_conv/Add_5_output_0 /backbone/blocks3/blocks3.0/dw_conv/lab/Mul_output_0 0=2 1=1 2=2.166723e+00
BinaryOp                 /backbone/blocks3/blocks3.0/dw_conv/lab/Add 1 1 /backbone/blocks3/blocks3.0/dw_conv/lab/Mul_output_0 /backbone/blocks3/blocks3.0/dw_conv/lab/Add_output_0 1=1 2=1.000862e+00
HardSwish                /backbone/blocks3/blocks3.0/dw_conv/act/act/Mul 1 1 /backbone/blocks3/blocks3.0/dw_conv/lab/Add_output_0 /backbone/blocks3/blocks3.0/dw_conv/act/act/Mul_output_0 0=1.666667e-01
BinaryOp                 /backbone/blocks3/blocks3.0/dw_conv/act/lab/Mul 1 1 /backbone/blocks3/blocks3.0/dw_conv/act/act/Mul_output_0 /backbone/blocks3/blocks3.0/dw_conv/act/lab/Mul_output_0 0=2 1=1 2=6.063076e-02
BinaryOp                 /backbone/blocks3/blocks3.0/dw_conv/act/lab/Add 1 1 /backbone/blocks3/blocks3.0/dw_conv/act/lab/Mul_output_0 /backbone/blocks3/blocks3.0/dw_conv/act/lab/Add_output_0 1=1 2=-4.069060e-05
Split                    splitncnn_3              1 4 /backbone/blocks3/blocks3.0/dw_conv/act/lab/Add_output_0 /backbone/blocks3/blocks3.0/dw_conv/act/lab/Add_output_0_splitncnn_0 /backbone/blocks3/blocks3.0/dw_conv/act/lab/Add_output_0_splitncnn_1 /backbone/blocks3/blocks3.0/dw_conv/act/lab/Add_output_0_splitncnn_2 /backbone/blocks3/blocks3.0/dw_conv/act/lab/Add_output_0_splitncnn_3
Convolution              /backbone/blocks3/blocks3.0/pw_conv/conv_kxk.0/conv/Conv 1 1 /backbone/blocks3/blocks3.0/dw_conv/act/lab/Add_output_0_splitncnn_3 /backbone/blocks3/blocks3.0/pw_conv/conv_kxk.0/conv/Conv_output_0 0=64 1=1 5=1 6=2048
BinaryOp                 /backbone/blocks3/blocks3.0/pw_conv/Add 1 1 /backbone/blocks3/blocks3.0/pw_conv/conv_kxk.0/conv/Conv_output_0 /backbone/blocks3/blocks3.0/pw_conv/Add_output_0 1=1
Convolution              /backbone/blocks3/blocks3.0/pw_conv/conv_kxk.1/conv/Conv 1 1 /backbone/blocks3/blocks3.0/dw_conv/act/lab/Add_output_0_splitncnn_2 /backbone/blocks3/blocks3.0/pw_conv/conv_kxk.1/conv/Conv_output_0 0=64 1=1 5=1 6=2048
BinaryOp                 /backbone/blocks3/blocks3.0/pw_conv/Add_1 2 1 /backbone/blocks3/blocks3.0/pw_conv/Add_output_0 /backbone/blocks3/blocks3.0/pw_conv/conv_kxk.1/conv/Conv_output_0 /backbone/blocks3/blocks3.0/pw_conv/Add_1_output_0
Convolution              /backbone/blocks3/blocks3.0/pw_conv/conv_kxk.2/conv/Conv 1 1 /backbone/blocks3/blocks3.0/dw_conv/act/lab/Add_output_0_splitncnn_1 /backbone/blocks3/blocks3.0/pw_conv/conv_kxk.2/conv/Conv_output_0 0=64 1=1 5=1 6=2048
BinaryOp                 /backbone/blocks3/blocks3.0/pw_conv/Add_2 2 1 /backbone/blocks3/blocks3.0/pw_conv/Add_1_output_0 /backbone/blocks3/blocks3.0/pw_conv/conv_kxk.2/conv/Conv_output_0 /backbone/blocks3/blocks3.0/pw_conv/Add_2_output_0
Convolution              /backbone/blocks3/blocks3.0/pw_conv/conv_kxk.3/conv/Conv 1 1 /backbone/blocks3/blocks3.0/dw_conv/act/lab/Add_output_0_splitncnn_0 /backbone/blocks3/blocks3.0/pw_conv/conv_kxk.3/conv/Conv_output_0 0=64 1=1 5=1 6=2048
BinaryOp                 /backbone/blocks3/blocks3.0/pw_conv/Add_3 2 1 /backbone/blocks3/blocks3.0/pw_conv/Add_2_output_0 /backbone/blocks3/blocks3.0/pw_conv/conv_kxk.3/conv/Conv_output_0 /backbone/blocks3/blocks3.0/pw_conv/Add_3_output_0
BinaryOp                 /backbone/blocks3/blocks3.0/pw_conv/lab/Mul 1 1 /backbone/blocks3/blocks3.0/pw_conv/Add_3_output_0 /backbone/blocks3/blocks3.0/pw_conv/lab/Mul_output_0 0=2 1=1 2=2.172230e+00
BinaryOp                 /backbone/blocks3/blocks3.0/pw_conv/lab/Add 1 1 /backbone/blocks3/blocks3.0/pw_conv/lab/Mul_output_0 /backbone/blocks3/blocks3.0/pw_conv/lab/Add_output_0 1=1 2=8.583514e-01
HardSwish                /backbone/blocks3/blocks3.0/pw_conv/act/act/Mul 1 1 /backbone/blocks3/blocks3.0/pw_conv/lab/Add_output_0 /backbone/blocks3/blocks3.0/pw_conv/act/act/Mul_output_0 0=1.666667e-01
BinaryOp                 /backbone/blocks3/blocks3.0/pw_conv/act/lab/Mul 1 1 /backbone/blocks3/blocks3.0/pw_conv/act/act/Mul_output_0 /backbone/blocks3/blocks3.0/pw_conv/act/lab/Mul_output_0 0=2 1=1 2=4.061948e-01
BinaryOp                 /backbone/blocks3/blocks3.0/pw_conv/act/lab/Add 1 1 /backbone/blocks3/blocks3.0/pw_conv/act/lab/Mul_output_0 /backbone/blocks3/blocks3.0/pw_conv/act/lab/Add_output_0 1=1 2=-2.785621e-01
Split                    splitncnn_4              1 6 /backbone/blocks3/blocks3.0/pw_conv/act/lab/Add_output_0 /backbone/blocks3/blocks3.0/pw_conv/act/lab/Add_output_0_splitncnn_0 /backbone/blocks3/blocks3.0/pw_conv/act/lab/Add_output_0_splitncnn_1 /backbone/blocks3/blocks3.0/pw_conv/act/lab/Add_output_0_splitncnn_2 /backbone/blocks3/blocks3.0/pw_conv/act/lab/Add_output_0_splitncnn_3 /backbone/blocks3/blocks3.0/pw_conv/act/lab/Add_output_0_splitncnn_4 /backbone/blocks3/blocks3.0/pw_conv/act/lab/Add_output_0_splitncnn_5
BatchNorm                /backbone/blocks3/blocks3.1/dw_conv/identity/BatchNormalization 1 1 /backbone/blocks3/blocks3.0/pw_conv/act/lab/Add_output_0_splitncnn_5 /backbone/blocks3/blocks3.1/dw_conv/identity/BatchNormalization_output_0 0=64
BinaryOp                 /backbone/blocks3/blocks3.1/dw_conv/Add 1 1 /backbone/blocks3/blocks3.1/dw_conv/identity/BatchNormalization_output_0 /backbone/blocks3/blocks3.1/dw_conv/Add_output_0 1=1
ConvolutionDepthWise     /backbone/blocks3/blocks3.1/dw_conv/conv_1x1/conv/Conv 1 1 /backbone/blocks3/blocks3.0/pw_conv/act/lab/Add_output_0_splitncnn_4 /backbone/blocks3/blocks3.1/dw_conv/conv_1x1/conv/Conv_output_0 0=64 1=1 5=1 6=64 7=64
BinaryOp                 /backbone/blocks3/blocks3.1/dw_conv/Add_1 2 1 /backbone/blocks3/blocks3.1/dw_conv/Add_output_0 /backbone/blocks3/blocks3.1/dw_conv/conv_1x1/conv/Conv_output_0 /backbone/blocks3/blocks3.1/dw_conv/Add_1_output_0
ConvolutionDepthWise     /backbone/blocks3/blocks3.1/dw_conv/conv_kxk.0/conv/Conv 1 1 /backbone/blocks3/blocks3.0/pw_conv/act/lab/Add_output_0_splitncnn_3 /backbone/blocks3/blocks3.1/dw_conv/conv_kxk.0/conv/Conv_output_0 0=64 1=3 4=1 5=1 6=576 7=64
BinaryOp                 /backbone/blocks3/blocks3.1/dw_conv/Add_2 2 1 /backbone/blocks3/blocks3.1/dw_conv/Add_1_output_0 /backbone/blocks3/blocks3.1/dw_conv/conv_kxk.0/conv/Conv_output_0 /backbone/blocks3/blocks3.1/dw_conv/Add_2_output_0
ConvolutionDepthWise     /backbone/blocks3/blocks3.1/dw_conv/conv_kxk.1/conv/Conv 1 1 /backbone/blocks3/blocks3.0/pw_conv/act/lab/Add_output_0_splitncnn_2 /backbone/blocks3/blocks3.1/dw_conv/conv_kxk.1/conv/Conv_output_0 0=64 1=3 4=1 5=1 6=576 7=64
BinaryOp                 /backbone/blocks3/blocks3.1/dw_conv/Add_3 2 1 /backbone/blocks3/blocks3.1/dw_conv/Add_2_output_0 /backbone/blocks3/blocks3.1/dw_conv/conv_kxk.1/conv/Conv_output_0 /backbone/blocks3/blocks3.1/dw_conv/Add_3_output_0
ConvolutionDepthWise     /backbone/blocks3/blocks3.1/dw_conv/conv_kxk.2/conv/Conv 1 1 /backbone/blocks3/blocks3.0/pw_conv/act/lab/Add_output_0_splitncnn_1 /backbone/blocks3/blocks3.1/dw_conv/conv_kxk.2/conv/Conv_output_0 0=64 1=3 4=1 5=1 6=576 7=64
BinaryOp                 /backbone/blocks3/blocks3.1/dw_conv/Add_4 2 1 /backbone/blocks3/blocks3.1/dw_conv/Add_3_output_0 /backbone/blocks3/blocks3.1/dw_conv/conv_kxk.2/conv/Conv_output_0 /backbone/blocks3/blocks3.1/dw_conv/Add_4_output_0
ConvolutionDepthWise     /backbone/blocks3/blocks3.1/dw_conv/conv_kxk.3/conv/Conv 1 1 /backbone/blocks3/blocks3.0/pw_conv/act/lab/Add_output_0_splitncnn_0 /backbone/blocks3/blocks3.1/dw_conv/conv_kxk.3/conv/Conv_output_0 0=64 1=3 4=1 5=1 6=576 7=64
BinaryOp                 /backbone/blocks3/blocks3.1/dw_conv/Add_5 2 1 /backbone/blocks3/blocks3.1/dw_conv/Add_4_output_0 /backbone/blocks3/blocks3.1/dw_conv/conv_kxk.3/conv/Conv_output_0 /backbone/blocks3/blocks3.1/dw_conv/Add_5_output_0
BinaryOp                 /backbone/blocks3/blocks3.1/dw_conv/lab/Mul 1 1 /backbone/blocks3/blocks3.1/dw_conv/Add_5_output_0 /backbone/blocks3/blocks3.1/dw_conv/lab/Mul_output_0 0=2 1=1 2=3.069615e+00
BinaryOp                 /backbone/blocks3/blocks3.1/dw_conv/lab/Add 1 1 /backbone/blocks3/blocks3.1/dw_conv/lab/Mul_output_0 /backbone/blocks3/blocks3.1/dw_conv/lab/Add_output_0 1=1 2=3.243599e-01
HardSwish                /backbone/blocks3/blocks3.1/dw_conv/act/act/Mul 1 1 /backbone/blocks3/blocks3.1/dw_conv/lab/Add_output_0 /backbone/blocks3/blocks3.1/dw_conv/act/act/Mul_output_0 0=1.666667e-01
BinaryOp                 /backbone/blocks3/blocks3.1/dw_conv/act/lab/Mul 1 1 /backbone/blocks3/blocks3.1/dw_conv/act/act/Mul_output_0 /backbone/blocks3/blocks3.1/dw_conv/act/lab/Mul_output_0 0=2 1=1 2=3.095054e-02
BinaryOp                 /backbone/blocks3/blocks3.1/dw_conv/act/lab/Add 1 1 /backbone/blocks3/blocks3.1/dw_conv/act/lab/Mul_output_0 /backbone/blocks3/blocks3.1/dw_conv/act/lab/Add_output_0 1=1 2=-4.651240e-05
Split                    splitncnn_5              1 5 /backbone/blocks3/blocks3.1/dw_conv/act/lab/Add_output_0 /backbone/blocks3/blocks3.1/dw_conv/act/lab/Add_output_0_splitncnn_0 /backbone/blocks3/blocks3.1/dw_conv/act/lab/Add_output_0_splitncnn_1 /backbone/blocks3/blocks3.1/dw_conv/act/lab/Add_output_0_splitncnn_2 /backbone/blocks3/blocks3.1/dw_conv/act/lab/Add_output_0_splitncnn_3 /backbone/blocks3/blocks3.1/dw_conv/act/lab/Add_output_0_splitncnn_4
BatchNorm                /backbone/blocks3/blocks3.1/pw_conv/identity/BatchNormalization 1 1 /backbone/blocks3/blocks3.1/dw_conv/act/lab/Add_output_0_splitncnn_4 /backbone/blocks3/blocks3.1/pw_conv/identity/BatchNormalization_output_0 0=64
BinaryOp                 /backbone/blocks3/blocks3.1/pw_conv/Add 1 1 /backbone/blocks3/blocks3.1/pw_conv/identity/BatchNormalization_output_0 /backbone/blocks3/blocks3.1/pw_conv/Add_output_0 1=1
Convolution              /backbone/blocks3/blocks3.1/pw_conv/conv_kxk.0/conv/Conv 1 1 /backbone/blocks3/blocks3.1/dw_conv/act/lab/Add_output_0_splitncnn_3 /backbone/blocks3/blocks3.1/pw_conv/conv_kxk.0/conv/Conv_output_0 0=64 1=1 5=1 6=4096
BinaryOp                 /backbone/blocks3/blocks3.1/pw_conv/Add_1 2 1 /backbone/blocks3/blocks3.1/pw_conv/Add_output_0 /backbone/blocks3/blocks3.1/pw_conv/conv_kxk.0/conv/Conv_output_0 /backbone/blocks3/blocks3.1/pw_conv/Add_1_output_0
Convolution              /backbone/blocks3/blocks3.1/pw_conv/conv_kxk.1/conv/Conv 1 1 /backbone/blocks3/blocks3.1/dw_conv/act/lab/Add_output_0_splitncnn_2 /backbone/blocks3/blocks3.1/pw_conv/conv_kxk.1/conv/Conv_output_0 0=64 1=1 5=1 6=4096
BinaryOp                 /backbone/blocks3/blocks3.1/pw_conv/Add_2 2 1 /backbone/blocks3/blocks3.1/pw_conv/Add_1_output_0 /backbone/blocks3/blocks3.1/pw_conv/conv_kxk.1/conv/Conv_output_0 /backbone/blocks3/blocks3.1/pw_conv/Add_2_output_0
Convolution              /backbone/blocks3/blocks3.1/pw_conv/conv_kxk.2/conv/Conv 1 1 /backbone/blocks3/blocks3.1/dw_conv/act/lab/Add_output_0_splitncnn_1 /backbone/blocks3/blocks3.1/pw_conv/conv_kxk.2/conv/Conv_output_0 0=64 1=1 5=1 6=4096
BinaryOp                 /backbone/blocks3/blocks3.1/pw_conv/Add_3 2 1 /backbone/blocks3/blocks3.1/pw_conv/Add_2_output_0 /backbone/blocks3/blocks3.1/pw_conv/conv_kxk.2/conv/Conv_output_0 /backbone/blocks3/blocks3.1/pw_conv/Add_3_output_0
Convolution              /backbone/blocks3/blocks3.1/pw_conv/conv_kxk.3/conv/Conv 1 1 /backbone/blocks3/blocks3.1/dw_conv/act/lab/Add_output_0_splitncnn_0 /backbone/blocks3/blocks3.1/pw_conv/conv_kxk.3/conv/Conv_output_0 0=64 1=1 5=1 6=4096
BinaryOp                 /backbone/blocks3/blocks3.1/pw_conv/Add_4 2 1 /backbone/blocks3/blocks3.1/pw_conv/Add_3_output_0 /backbone/blocks3/blocks3.1/pw_conv/conv_kxk.3/conv/Conv_output_0 /backbone/blocks3/blocks3.1/pw_conv/Add_4_output_0
BinaryOp                 /backbone/blocks3/blocks3.1/pw_conv/lab/Mul 1 1 /backbone/blocks3/blocks3.1/pw_conv/Add_4_output_0 /backbone/blocks3/blocks3.1/pw_conv/lab/Mul_output_0 0=2 1=1 2=2.164231e+00
BinaryOp                 /backbone/blocks3/blocks3.1/pw_conv/lab/Add 1 1 /backbone/blocks3/blocks3.1/pw_conv/lab/Mul_output_0 /backbone/blocks3/blocks3.1/pw_conv/lab/Add_output_0 1=1 2=4.336767e-01
HardSwish                /backbone/blocks3/blocks3.1/pw_conv/act/act/Mul 1 1 /backbone/blocks3/blocks3.1/pw_conv/lab/Add_output_0 /backbone/blocks3/blocks3.1/pw_conv/act/act/Mul_output_0 0=1.666667e-01
BinaryOp                 /backbone/blocks3/blocks3.1/pw_conv/act/lab/Mul 1 1 /backbone/blocks3/blocks3.1/pw_conv/act/act/Mul_output_0 /backbone/blocks3/blocks3.1/pw_conv/act/lab/Mul_output_0 0=2 1=1 2=4.283067e-01
BinaryOp                 /backbone/blocks3/blocks3.1/pw_conv/act/lab/Add 1 1 /backbone/blocks3/blocks3.1/pw_conv/act/lab/Mul_output_0 /backbone/blocks3/blocks3.1/pw_conv/act/lab/Add_output_0 1=1 2=-8.378658e-02
Split                    splitncnn_6              1 5 /backbone/blocks3/blocks3.1/pw_conv/act/lab/Add_output_0 /backbone/blocks3/blocks3.1/pw_conv/act/lab/Add_output_0_splitncnn_0 /backbone/blocks3/blocks3.1/pw_conv/act/lab/Add_output_0_splitncnn_1 /backbone/blocks3/blocks3.1/pw_conv/act/lab/Add_output_0_splitncnn_2 /backbone/blocks3/blocks3.1/pw_conv/act/lab/Add_output_0_splitncnn_3 /backbone/blocks3/blocks3.1/pw_conv/act/lab/Add_output_0_splitncnn_4
ConvolutionDepthWise     /backbone/blocks4/blocks4.0/dw_conv/conv_1x1/conv/Conv 1 1 /backbone/blocks3/blocks3.1/pw_conv/act/lab/Add_output_0_splitncnn_4 /backbone/blocks4/blocks4.0/dw_conv/conv_1x1/conv/Conv_output_0 0=64 1=1 13=2 5=1 6=64 7=64
BinaryOp                 /backbone/blocks4/blocks4.0/dw_conv/Add 1 1 /backbone/blocks4/blocks4.0/dw_conv/conv_1x1/conv/Conv_output_0 /backbone/blocks4/blocks4.0/dw_conv/Add_output_0 1=1
ConvolutionDepthWise     /backbone/blocks4/blocks4.0/dw_conv/conv_kxk.0/conv/Conv 1 1 /backbone/blocks3/blocks3.1/pw_conv/act/lab/Add_output_0_splitncnn_3 /backbone/blocks4/blocks4.0/dw_conv/conv_kxk.0/conv/Conv_output_0 0=64 1=3 13=2 4=1 5=1 6=576 7=64
BinaryOp                 /backbone/blocks4/blocks4.0/dw_conv/Add_1 2 1 /backbone/blocks4/blocks4.0/dw_conv/Add_output_0 /backbone/blocks4/blocks4.0/dw_conv/conv_kxk.0/conv/Conv_output_0 /backbone/blocks4/blocks4.0/dw_conv/Add_1_output_0
ConvolutionDepthWise     /backbone/blocks4/blocks4.0/dw_conv/conv_kxk.1/conv/Conv 1 1 /backbone/blocks3/blocks3.1/pw_conv/act/lab/Add_output_0_splitncnn_2 /backbone/blocks4/blocks4.0/dw_conv/conv_kxk.1/conv/Conv_output_0 0=64 1=3 13=2 4=1 5=1 6=576 7=64
BinaryOp                 /backbone/blocks4/blocks4.0/dw_conv/Add_2 2 1 /backbone/blocks4/blocks4.0/dw_conv/Add_1_output_0 /backbone/blocks4/blocks4.0/dw_conv/conv_kxk.1/conv/Conv_output_0 /backbone/blocks4/blocks4.0/dw_conv/Add_2_output_0
ConvolutionDepthWise     /backbone/blocks4/blocks4.0/dw_conv/conv_kxk.2/conv/Conv 1 1 /backbone/blocks3/blocks3.1/pw_conv/act/lab/Add_output_0_splitncnn_1 /backbone/blocks4/blocks4.0/dw_conv/conv_kxk.2/conv/Conv_output_0 0=64 1=3 13=2 4=1 5=1 6=576 7=64
BinaryOp                 /backbone/blocks4/blocks4.0/dw_conv/Add_3 2 1 /backbone/blocks4/blocks4.0/dw_conv/Add_2_output_0 /backbone/blocks4/blocks4.0/dw_conv/conv_kxk.2/conv/Conv_output_0 /backbone/blocks4/blocks4.0/dw_conv/Add_3_output_0
ConvolutionDepthWise     /backbone/blocks4/blocks4.0/dw_conv/conv_kxk.3/conv/Conv 1 1 /backbone/blocks3/blocks3.1/pw_conv/act/lab/Add_output_0_splitncnn_0 /backbone/blocks4/blocks4.0/dw_conv/conv_kxk.3/conv/Conv_output_0 0=64 1=3 13=2 4=1 5=1 6=576 7=64
BinaryOp                 /backbone/blocks4/blocks4.0/dw_conv/Add_4 2 1 /backbone/blocks4/blocks4.0/dw_conv/Add_3_output_0 /backbone/blocks4/blocks4.0/dw_conv/conv_kxk.3/conv/Conv_output_0 /backbone/blocks4/blocks4.0/dw_conv/Add_4_output_0
BinaryOp                 /backbone/blocks4/blocks4.0/dw_conv/lab/Mul 1 1 /backbone/blocks4/blocks4.0/dw_conv/Add_4_output_0 /backbone/blocks4/blocks4.0/dw_conv/lab/Mul_output_0 0=2 1=1 2=2.293733e+00
BinaryOp                 /backbone/blocks4/blocks4.0/dw_conv/lab/Add 1 1 /backbone/blocks4/blocks4.0/dw_conv/lab/Mul_output_0 /backbone/blocks4/blocks4.0/dw_conv/lab/Add_output_0 1=1 2=1.019056e+00
HardSwish                /backbone/blocks4/blocks4.0/dw_conv/act/act/Mul 1 1 /backbone/blocks4/blocks4.0/dw_conv/lab/Add_output_0 /backbone/blocks4/blocks4.0/dw_conv/act/act/Mul_output_0 0=1.666667e-01
BinaryOp                 /backbone/blocks4/blocks4.0/dw_conv/act/lab/Mul 1 1 /backbone/blocks4/blocks4.0/dw_conv/act/act/Mul_output_0 /backbone/blocks4/blocks4.0/dw_conv/act/lab/Mul_output_0 0=2 1=1 2=3.271981e-02
BinaryOp                 /backbone/blocks4/blocks4.0/dw_conv/act/lab/Add 1 1 /backbone/blocks4/blocks4.0/dw_conv/act/lab/Mul_output_0 /backbone/blocks4/blocks4.0/dw_conv/act/lab/Add_output_0 1=1 2=-2.652152e-06
Split                    splitncnn_7              1 4 /backbone/blocks4/blocks4.0/dw_conv/act/lab/Add_output_0 /backbone/blocks4/blocks4.0/dw_conv/act/lab/Add_output_0_splitncnn_0 /backbone/blocks4/blocks4.0/dw_conv/act/lab/Add_output_0_splitncnn_1 /backbone/blocks4/blocks4.0/dw_conv/act/lab/Add_output_0_splitncnn_2 /backbone/blocks4/blocks4.0/dw_conv/act/lab/Add_output_0_splitncnn_3
Convolution              /backbone/blocks4/blocks4.0/pw_conv/conv_kxk.0/conv/Conv 1 1 /backbone/blocks4/blocks4.0/dw_conv/act/lab/Add_output_0_splitncnn_3 /backbone/blocks4/blocks4.0/pw_conv/conv_kxk.0/conv/Conv_output_0 0=128 1=1 5=1 6=8192
BinaryOp                 /backbone/blocks4/blocks4.0/pw_conv/Add 1 1 /backbone/blocks4/blocks4.0/pw_conv/conv_kxk.0/conv/Conv_output_0 /backbone/blocks4/blocks4.0/pw_conv/Add_output_0 1=1
Convolution              /backbone/blocks4/blocks4.0/pw_conv/conv_kxk.1/conv/Conv 1 1 /backbone/blocks4/blocks4.0/dw_conv/act/lab/Add_output_0_splitncnn_2 /backbone/blocks4/blocks4.0/pw_conv/conv_kxk.1/conv/Conv_output_0 0=128 1=1 5=1 6=8192
BinaryOp                 /backbone/blocks4/blocks4.0/pw_conv/Add_1 2 1 /backbone/blocks4/blocks4.0/pw_conv/Add_output_0 /backbone/blocks4/blocks4.0/pw_conv/conv_kxk.1/conv/Conv_output_0 /backbone/blocks4/blocks4.0/pw_conv/Add_1_output_0
Convolution              /backbone/blocks4/blocks4.0/pw_conv/conv_kxk.2/conv/Conv 1 1 /backbone/blocks4/blocks4.0/dw_conv/act/lab/Add_output_0_splitncnn_1 /backbone/blocks4/blocks4.0/pw_conv/conv_kxk.2/conv/Conv_output_0 0=128 1=1 5=1 6=8192
BinaryOp                 /backbone/blocks4/blocks4.0/pw_conv/Add_2 2 1 /backbone/blocks4/blocks4.0/pw_conv/Add_1_output_0 /backbone/blocks4/blocks4.0/pw_conv/conv_kxk.2/conv/Conv_output_0 /backbone/blocks4/blocks4.0/pw_conv/Add_2_output_0
Convolution              /backbone/blocks4/blocks4.0/pw_conv/conv_kxk.3/conv/Conv 1 1 /backbone/blocks4/blocks4.0/dw_conv/act/lab/Add_output_0_splitncnn_0 /backbone/blocks4/blocks4.0/pw_conv/conv_kxk.3/conv/Conv_output_0 0=128 1=1 5=1 6=8192
BinaryOp                 /backbone/blocks4/blocks4.0/pw_conv/Add_3 2 1 /backbone/blocks4/blocks4.0/pw_conv/Add_2_output_0 /backbone/blocks4/blocks4.0/pw_conv/conv_kxk.3/conv/Conv_output_0 /backbone/blocks4/blocks4.0/pw_conv/Add_3_output_0
BinaryOp                 /backbone/blocks4/blocks4.0/pw_conv/lab/Mul 1 1 /backbone/blocks4/blocks4.0/pw_conv/Add_3_output_0 /backbone/blocks4/blocks4.0/pw_conv/lab/Mul_output_0 0=2 1=1 2=1.768801e+00
BinaryOp                 /backbone/blocks4/blocks4.0/pw_conv/lab/Add 1 1 /backbone/blocks4/blocks4.0/pw_conv/lab/Mul_output_0 /backbone/blocks4/blocks4.0/pw_conv/lab/Add_output_0 1=1 2=2.181246e-01
HardSwish                /backbone/blocks4/blocks4.0/pw_conv/act/act/Mul 1 1 /backbone/blocks4/blocks4.0/pw_conv/lab/Add_output_0 /backbone/blocks4/blocks4.0/pw_conv/act/act/Mul_output_0 0=1.666667e-01
BinaryOp                 /backbone/blocks4/blocks4.0/pw_conv/act/lab/Mul 1 1 /backbone/blocks4/blocks4.0/pw_conv/act/act/Mul_output_0 /backbone/blocks4/blocks4.0/pw_conv/act/lab/Mul_output_0 0=2 1=1 2=7.304567e-01
BinaryOp                 /backbone/blocks4/blocks4.0/pw_conv/act/lab/Add 1 1 /backbone/blocks4/blocks4.0/pw_conv/act/lab/Mul_output_0 /backbone/blocks4/blocks4.0/pw_conv/act/lab/Add_output_0 1=1 2=-8.572540e-02
Split                    splitncnn_8              1 6 /backbone/blocks4/blocks4.0/pw_conv/act/lab/Add_output_0 /backbone/blocks4/blocks4.0/pw_conv/act/lab/Add_output_0_splitncnn_0 /backbone/blocks4/blocks4.0/pw_conv/act/lab/Add_output_0_splitncnn_1 /backbone/blocks4/blocks4.0/pw_conv/act/lab/Add_output_0_splitncnn_2 /backbone/blocks4/blocks4.0/pw_conv/act/lab/Add_output_0_splitncnn_3 /backbone/blocks4/blocks4.0/pw_conv/act/lab/Add_output_0_splitncnn_4 /backbone/blocks4/blocks4.0/pw_conv/act/lab/Add_output_0_splitncnn_5
BatchNorm                /backbone/blocks4/blocks4.1/dw_conv/identity/BatchNormalization 1 1 /backbone/blocks4/blocks4.0/pw_conv/act/lab/Add_output_0_splitncnn_5 /backbone/blocks4/blocks4.1/dw_conv/identity/BatchNormalization_output_0 0=128
BinaryOp                 /backbone/blocks4/blocks4.1/dw_conv/Add 1 1 /backbone/blocks4/blocks4.1/dw_conv/identity/BatchNormalization_output_0 /backbone/blocks4/blocks4.1/dw_conv/Add_output_0 1=1
ConvolutionDepthWise     /backbone/blocks4/blocks4.1/dw_conv/conv_1x1/conv/Conv 1 1 /backbone/blocks4/blocks4.0/pw_conv/act/lab/Add_output_0_splitncnn_4 /backbone/blocks4/blocks4.1/dw_conv/conv_1x1/conv/Conv_output_0 0=128 1=1 5=1 6=128 7=128
BinaryOp                 /backbone/blocks4/blocks4.1/dw_conv/Add_1 2 1 /backbone/blocks4/blocks4.1/dw_conv/Add_output_0 /backbone/blocks4/blocks4.1/dw_conv/conv_1x1/conv/Conv_output_0 /backbone/blocks4/blocks4.1/dw_conv/Add_1_output_0
ConvolutionDepthWise     /backbone/blocks4/blocks4.1/dw_conv/conv_kxk.0/conv/Conv 1 1 /backbone/blocks4/blocks4.0/pw_conv/act/lab/Add_output_0_splitncnn_3 /backbone/blocks4/blocks4.1/dw_conv/conv_kxk.0/conv/Conv_output_0 0=128 1=3 4=1 5=1 6=1152 7=128
BinaryOp                 /backbone/blocks4/blocks4.1/dw_conv/Add_2 2 1 /backbone/blocks4/blocks4.1/dw_conv/Add_1_output_0 /backbone/blocks4/blocks4.1/dw_conv/conv_kxk.0/conv/Conv_output_0 /backbone/blocks4/blocks4.1/dw_conv/Add_2_output_0
ConvolutionDepthWise     /backbone/blocks4/blocks4.1/dw_conv/conv_kxk.1/conv/Conv 1 1 /backbone/blocks4/blocks4.0/pw_conv/act/lab/Add_output_0_splitncnn_2 /backbone/blocks4/blocks4.1/dw_conv/conv_kxk.1/conv/Conv_output_0 0=128 1=3 4=1 5=1 6=1152 7=128
BinaryOp                 /backbone/blocks4/blocks4.1/dw_conv/Add_3 2 1 /backbone/blocks4/blocks4.1/dw_conv/Add_2_output_0 /backbone/blocks4/blocks4.1/dw_conv/conv_kxk.1/conv/Conv_output_0 /backbone/blocks4/blocks4.1/dw_conv/Add_3_output_0
ConvolutionDepthWise     /backbone/blocks4/blocks4.1/dw_conv/conv_kxk.2/conv/Conv 1 1 /backbone/blocks4/blocks4.0/pw_conv/act/lab/Add_output_0_splitncnn_1 /backbone/blocks4/blocks4.1/dw_conv/conv_kxk.2/conv/Conv_output_0 0=128 1=3 4=1 5=1 6=1152 7=128
BinaryOp                 /backbone/blocks4/blocks4.1/dw_conv/Add_4 2 1 /backbone/blocks4/blocks4.1/dw_conv/Add_3_output_0 /backbone/blocks4/blocks4.1/dw_conv/conv_kxk.2/conv/Conv_output_0 /backbone/blocks4/blocks4.1/dw_conv/Add_4_output_0
ConvolutionDepthWise     /backbone/blocks4/blocks4.1/dw_conv/conv_kxk.3/conv/Conv 1 1 /backbone/blocks4/blocks4.0/pw_conv/act/lab/Add_output_0_splitncnn_0 /backbone/blocks4/blocks4.1/dw_conv/conv_kxk.3/conv/Conv_output_0 0=128 1=3 4=1 5=1 6=1152 7=128
BinaryOp                 /backbone/blocks4/blocks4.1/dw_conv/Add_5 2 1 /backbone/blocks4/blocks4.1/dw_conv/Add_4_output_0 /backbone/blocks4/blocks4.1/dw_conv/conv_kxk.3/conv/Conv_output_0 /backbone/blocks4/blocks4.1/dw_conv/Add_5_output_0
BinaryOp                 /backbone/blocks4/blocks4.1/dw_conv/lab/Mul 1 1 /backbone/blocks4/blocks4.1/dw_conv/Add_5_output_0 /backbone/blocks4/blocks4.1/dw_conv/lab/Mul_output_0 0=2 1=1 2=2.623634e+00
BinaryOp                 /backbone/blocks4/blocks4.1/dw_conv/lab/Add 1 1 /backbone/blocks4/blocks4.1/dw_conv/lab/Mul_output_0 /backbone/blocks4/blocks4.1/dw_conv/lab/Add_output_0 1=1 2=-7.918281e-03
HardSwish                /backbone/blocks4/blocks4.1/dw_conv/act/act/Mul 1 1 /backbone/blocks4/blocks4.1/dw_conv/lab/Add_output_0 /backbone/blocks4/blocks4.1/dw_conv/act/act/Mul_output_0 0=1.666667e-01
BinaryOp                 /backbone/blocks4/blocks4.1/dw_conv/act/lab/Mul 1 1 /backbone/blocks4/blocks4.1/dw_conv/act/act/Mul_output_0 /backbone/blocks4/blocks4.1/dw_conv/act/lab/Mul_output_0 0=2 1=1 2=4.377005e-02
BinaryOp                 /backbone/blocks4/blocks4.1/dw_conv/act/lab/Add 1 1 /backbone/blocks4/blocks4.1/dw_conv/act/lab/Mul_output_0 /backbone/blocks4/blocks4.1/dw_conv/act/lab/Add_output_0 1=1 2=5.633773e-05
Split                    splitncnn_9              1 5 /backbone/blocks4/blocks4.1/dw_conv/act/lab/Add_output_0 /backbone/blocks4/blocks4.1/dw_conv/act/lab/Add_output_0_splitncnn_0 /backbone/blocks4/blocks4.1/dw_conv/act/lab/Add_output_0_splitncnn_1 /backbone/blocks4/blocks4.1/dw_conv/act/lab/Add_output_0_splitncnn_2 /backbone/blocks4/blocks4.1/dw_conv/act/lab/Add_output_0_splitncnn_3 /backbone/blocks4/blocks4.1/dw_conv/act/lab/Add_output_0_splitncnn_4
BatchNorm                /backbone/blocks4/blocks4.1/pw_conv/identity/BatchNormalization 1 1 /backbone/blocks4/blocks4.1/dw_conv/act/lab/Add_output_0_splitncnn_4 /backbone/blocks4/blocks4.1/pw_conv/identity/BatchNormalization_output_0 0=128
BinaryOp                 /backbone/blocks4/blocks4.1/pw_conv/Add 1 1 /backbone/blocks4/blocks4.1/pw_conv/identity/BatchNormalization_output_0 /backbone/blocks4/blocks4.1/pw_conv/Add_output_0 1=1
Convolution              /backbone/blocks4/blocks4.1/pw_conv/conv_kxk.0/conv/Conv 1 1 /backbone/blocks4/blocks4.1/dw_conv/act/lab/Add_output_0_splitncnn_3 /backbone/blocks4/blocks4.1/pw_conv/conv_kxk.0/conv/Conv_output_0 0=128 1=1 5=1 6=16384
BinaryOp                 /backbone/blocks4/blocks4.1/pw_conv/Add_1 2 1 /backbone/blocks4/blocks4.1/pw_conv/Add_output_0 /backbone/blocks4/blocks4.1/pw_conv/conv_kxk.0/conv/Conv_output_0 /backbone/blocks4/blocks4.1/pw_conv/Add_1_output_0
Convolution              /backbone/blocks4/blocks4.1/pw_conv/conv_kxk.1/conv/Conv 1 1 /backbone/blocks4/blocks4.1/dw_conv/act/lab/Add_output_0_splitncnn_2 /backbone/blocks4/blocks4.1/pw_conv/conv_kxk.1/conv/Conv_output_0 0=128 1=1 5=1 6=16384
BinaryOp                 /backbone/blocks4/blocks4.1/pw_conv/Add_2 2 1 /backbone/blocks4/blocks4.1/pw_conv/Add_1_output_0 /backbone/blocks4/blocks4.1/pw_conv/conv_kxk.1/conv/Conv_output_0 /backbone/blocks4/blocks4.1/pw_conv/Add_2_output_0
Convolution              /backbone/blocks4/blocks4.1/pw_conv/conv_kxk.2/conv/Conv 1 1 /backbone/blocks4/blocks4.1/dw_conv/act/lab/Add_output_0_splitncnn_1 /backbone/blocks4/blocks4.1/pw_conv/conv_kxk.2/conv/Conv_output_0 0=128 1=1 5=1 6=16384
BinaryOp                 /backbone/blocks4/blocks4.1/pw_conv/Add_3 2 1 /backbone/blocks4/blocks4.1/pw_conv/Add_2_output_0 /backbone/blocks4/blocks4.1/pw_conv/conv_kxk.2/conv/Conv_output_0 /backbone/blocks4/blocks4.1/pw_conv/Add_3_output_0
Convolution              /backbone/blocks4/blocks4.1/pw_conv/conv_kxk.3/conv/Conv 1 1 /backbone/blocks4/blocks4.1/dw_conv/act/lab/Add_output_0_splitncnn_0 /backbone/blocks4/blocks4.1/pw_conv/conv_kxk.3/conv/Conv_output_0 0=128 1=1 5=1 6=16384
BinaryOp                 /backbone/blocks4/blocks4.1/pw_conv/Add_4 2 1 /backbone/blocks4/blocks4.1/pw_conv/Add_3_output_0 /backbone/blocks4/blocks4.1/pw_conv/conv_kxk.3/conv/Conv_output_0 /backbone/blocks4/blocks4.1/pw_conv/Add_4_output_0
BinaryOp                 /backbone/blocks4/blocks4.1/pw_conv/lab/Mul 1 1 /backbone/blocks4/blocks4.1/pw_conv/Add_4_output_0 /backbone/blocks4/blocks4.1/pw_conv/lab/Mul_output_0 0=2 1=1 2=1.893770e+00
BinaryOp                 /backbone/blocks4/blocks4.1/pw_conv/lab/Add 1 1 /backbone/blocks4/blocks4.1/pw_conv/lab/Mul_output_0 /backbone/blocks4/blocks4.1/pw_conv/lab/Add_output_0 1=1 2=-4.865660e-02
HardSwish                /backbone/blocks4/blocks4.1/pw_conv/act/act/Mul 1 1 /backbone/blocks4/blocks4.1/pw_conv/lab/Add_output_0 /backbone/blocks4/blocks4.1/pw_conv/act/act/Mul_output_0 0=1.666667e-01
BinaryOp                 /backbone/blocks4/blocks4.1/pw_conv/act/lab/Mul 1 1 /backbone/blocks4/blocks4.1/pw_conv/act/act/Mul_output_0 /backbone/blocks4/blocks4.1/pw_conv/act/lab/Mul_output_0 0=2 1=1 2=6.528459e-01
BinaryOp                 /backbone/blocks4/blocks4.1/pw_conv/act/lab/Add 1 1 /backbone/blocks4/blocks4.1/pw_conv/act/lab/Mul_output_0 /backbone/blocks4/blocks4.1/pw_conv/act/lab/Add_output_0 1=1 2=7.379292e-02
Split                    splitncnn_10             1 5 /backbone/blocks4/blocks4.1/pw_conv/act/lab/Add_output_0 /backbone/blocks4/blocks4.1/pw_conv/act/lab/Add_output_0_splitncnn_0 /backbone/blocks4/blocks4.1/pw_conv/act/lab/Add_output_0_splitncnn_1 /backbone/blocks4/blocks4.1/pw_conv/act/lab/Add_output_0_splitncnn_2 /backbone/blocks4/blocks4.1/pw_conv/act/lab/Add_output_0_splitncnn_3 /backbone/blocks4/blocks4.1/pw_conv/act/lab/Add_output_0_splitncnn_4
ConvolutionDepthWise     /backbone/blocks5/blocks5.0/dw_conv/conv_1x1/conv/Conv 1 1 /backbone/blocks4/blocks4.1/pw_conv/act/lab/Add_output_0_splitncnn_4 /backbone/blocks5/blocks5.0/dw_conv/conv_1x1/conv/Conv_output_0 0=128 1=1 3=2 13=1 5=1 6=128 7=128
BinaryOp                 /backbone/blocks5/blocks5.0/dw_conv/Add 1 1 /backbone/blocks5/blocks5.0/dw_conv/conv_1x1/conv/Conv_output_0 /backbone/blocks5/blocks5.0/dw_conv/Add_output_0 1=1
ConvolutionDepthWise     /backbone/blocks5/blocks5.0/dw_conv/conv_kxk.0/conv/Conv 1 1 /backbone/blocks4/blocks4.1/pw_conv/act/lab/Add_output_0_splitncnn_3 /backbone/blocks5/blocks5.0/dw_conv/conv_kxk.0/conv/Conv_output_0 0=128 1=3 3=2 13=1 4=1 5=1 6=1152 7=128
BinaryOp                 /backbone/blocks5/blocks5.0/dw_conv/Add_1 2 1 /backbone/blocks5/blocks5.0/dw_conv/Add_output_0 /backbone/blocks5/blocks5.0/dw_conv/conv_kxk.0/conv/Conv_output_0 /backbone/blocks5/blocks5.0/dw_conv/Add_1_output_0
ConvolutionDepthWise     /backbone/blocks5/blocks5.0/dw_conv/conv_kxk.1/conv/Conv 1 1 /backbone/blocks4/blocks4.1/pw_conv/act/lab/Add_output_0_splitncnn_2 /backbone/blocks5/blocks5.0/dw_conv/conv_kxk.1/conv/Conv_output_0 0=128 1=3 3=2 13=1 4=1 5=1 6=1152 7=128
BinaryOp                 /backbone/blocks5/blocks5.0/dw_conv/Add_2 2 1 /backbone/blocks5/blocks5.0/dw_conv/Add_1_output_0 /backbone/blocks5/blocks5.0/dw_conv/conv_kxk.1/conv/Conv_output_0 /backbone/blocks5/blocks5.0/dw_conv/Add_2_output_0
ConvolutionDepthWise     /backbone/blocks5/blocks5.0/dw_conv/conv_kxk.2/conv/Conv 1 1 /backbone/blocks4/blocks4.1/pw_conv/act/lab/Add_output_0_splitncnn_1 /backbone/blocks5/blocks5.0/dw_conv/conv_kxk.2/conv/Conv_output_0 0=128 1=3 3=2 13=1 4=1 5=1 6=1152 7=128
BinaryOp                 /backbone/blocks5/blocks5.0/dw_conv/Add_3 2 1 /backbone/blocks5/blocks5.0/dw_conv/Add_2_output_0 /backbone/blocks5/blocks5.0/dw_conv/conv_kxk.2/conv/Conv_output_0 /backbone/blocks5/blocks5.0/dw_conv/Add_3_output_0
ConvolutionDepthWise     /backbone/blocks5/blocks5.0/dw_conv/conv_kxk.3/conv/Conv 1 1 /backbone/blocks4/blocks4.1/pw_conv/act/lab/Add_output_0_splitncnn_0 /backbone/blocks5/blocks5.0/dw_conv/conv_kxk.3/conv/Conv_output_0 0=128 1=3 3=2 13=1 4=1 5=1 6=1152 7=128
BinaryOp                 /backbone/blocks5/blocks5.0/dw_conv/Add_4 2 1 /backbone/blocks5/blocks5.0/dw_conv/Add_3_output_0 /backbone/blocks5/blocks5.0/dw_conv/conv_kxk.3/conv/Conv_output_0 /backbone/blocks5/blocks5.0/dw_conv/Add_4_output_0
BinaryOp                 /backbone/blocks5/blocks5.0/dw_conv/lab/Mul 1 1 /backbone/blocks5/blocks5.0/dw_conv/Add_4_output_0 /backbone/blocks5/blocks5.0/dw_conv/lab/Mul_output_0 0=2 1=1 2=2.482111e+00
BinaryOp                 /backbone/blocks5/blocks5.0/dw_conv/lab/Add 1 1 /backbone/blocks5/blocks5.0/dw_conv/lab/Mul_output_0 /backbone/blocks5/blocks5.0/dw_conv/lab/Add_output_0 1=1 2=6.599923e-01
HardSwish                /backbone/blocks5/blocks5.0/dw_conv/act/act/Mul 1 1 /backbone/blocks5/blocks5.0/dw_conv/lab/Add_output_0 /backbone/blocks5/blocks5.0/dw_conv/act/act/Mul_output_0 0=1.666667e-01
BinaryOp                 /backbone/blocks5/blocks5.0/dw_conv/act/lab/Mul 1 1 /backbone/blocks5/blocks5.0/dw_conv/act/act/Mul_output_0 /backbone/blocks5/blocks5.0/dw_conv/act/lab/Mul_output_0 0=2 1=1 2=2.353299e-02
BinaryOp                 /backbone/blocks5/blocks5.0/dw_conv/act/lab/Add 1 1 /backbone/blocks5/blocks5.0/dw_conv/act/lab/Mul_output_0 /backbone/blocks5/blocks5.0/dw_conv/act/lab/Add_output_0 1=1 2=5.462020e-05
Split                    splitncnn_11             1 4 /backbone/blocks5/blocks5.0/dw_conv/act/lab/Add_output_0 /backbone/blocks5/blocks5.0/dw_conv/act/lab/Add_output_0_splitncnn_0 /backbone/blocks5/blocks5.0/dw_conv/act/lab/Add_output_0_splitncnn_1 /backbone/blocks5/blocks5.0/dw_conv/act/lab/Add_output_0_splitncnn_2 /backbone/blocks5/blocks5.0/dw_conv/act/lab/Add_output_0_splitncnn_3
Convolution              /backbone/blocks5/blocks5.0/pw_conv/conv_kxk.0/conv/Conv 1 1 /backbone/blocks5/blocks5.0/dw_conv/act/lab/Add_output_0_splitncnn_3 /backbone/blocks5/blocks5.0/pw_conv/conv_kxk.0/conv/Conv_output_0 0=240 1=1 5=1 6=30720
BinaryOp                 /backbone/blocks5/blocks5.0/pw_conv/Add 1 1 /backbone/blocks5/blocks5.0/pw_conv/conv_kxk.0/conv/Conv_output_0 /backbone/blocks5/blocks5.0/pw_conv/Add_output_0 1=1
Convolution              /backbone/blocks5/blocks5.0/pw_conv/conv_kxk.1/conv/Conv 1 1 /backbone/blocks5/blocks5.0/dw_conv/act/lab/Add_output_0_splitncnn_2 /backbone/blocks5/blocks5.0/pw_conv/conv_kxk.1/conv/Conv_output_0 0=240 1=1 5=1 6=30720
BinaryOp                 /backbone/blocks5/blocks5.0/pw_conv/Add_1 2 1 /backbone/blocks5/blocks5.0/pw_conv/Add_output_0 /backbone/blocks5/blocks5.0/pw_conv/conv_kxk.1/conv/Conv_output_0 /backbone/blocks5/blocks5.0/pw_conv/Add_1_output_0
Convolution              /backbone/blocks5/blocks5.0/pw_conv/conv_kxk.2/conv/Conv 1 1 /backbone/blocks5/blocks5.0/dw_conv/act/lab/Add_output_0_splitncnn_1 /backbone/blocks5/blocks5.0/pw_conv/conv_kxk.2/conv/Conv_output_0 0=240 1=1 5=1 6=30720
BinaryOp                 /backbone/blocks5/blocks5.0/pw_conv/Add_2 2 1 /backbone/blocks5/blocks5.0/pw_conv/Add_1_output_0 /backbone/blocks5/blocks5.0/pw_conv/conv_kxk.2/conv/Conv_output_0 /backbone/blocks5/blocks5.0/pw_conv/Add_2_output_0
Convolution              /backbone/blocks5/blocks5.0/pw_conv/conv_kxk.3/conv/Conv 1 1 /backbone/blocks5/blocks5.0/dw_conv/act/lab/Add_output_0_splitncnn_0 /backbone/blocks5/blocks5.0/pw_conv/conv_kxk.3/conv/Conv_output_0 0=240 1=1 5=1 6=30720
BinaryOp                 /backbone/blocks5/blocks5.0/pw_conv/Add_3 2 1 /backbone/blocks5/blocks5.0/pw_conv/Add_2_output_0 /backbone/blocks5/blocks5.0/pw_conv/conv_kxk.3/conv/Conv_output_0 /backbone/blocks5/blocks5.0/pw_conv/Add_3_output_0
BinaryOp                 /backbone/blocks5/blocks5.0/pw_conv/lab/Mul 1 1 /backbone/blocks5/blocks5.0/pw_conv/Add_3_output_0 /backbone/blocks5/blocks5.0/pw_conv/lab/Mul_output_0 0=2 1=1 2=1.523635e+00
BinaryOp                 /backbone/blocks5/blocks5.0/pw_conv/lab/Add 1 1 /backbone/blocks5/blocks5.0/pw_conv/lab/Mul_output_0 /backbone/blocks5/blocks5.0/pw_conv/lab/Add_output_0 1=1 2=6.392852e-02
HardSwish                /backbone/blocks5/blocks5.0/pw_conv/act/act/Mul 1 1 /backbone/blocks5/blocks5.0/pw_conv/lab/Add_output_0 /backbone/blocks5/blocks5.0/pw_conv/act/act/Mul_output_0 0=1.666667e-01
BinaryOp                 /backbone/blocks5/blocks5.0/pw_conv/act/lab/Mul 1 1 /backbone/blocks5/blocks5.0/pw_conv/act/act/Mul_output_0 /backbone/blocks5/blocks5.0/pw_conv/act/lab/Mul_output_0 0=2 1=1 2=5.249293e-01
BinaryOp                 /backbone/blocks5/blocks5.0/pw_conv/act/lab/Add 1 1 /backbone/blocks5/blocks5.0/pw_conv/act/lab/Mul_output_0 /backbone/blocks5/blocks5.0/pw_conv/act/lab/Add_output_0 1=1 2=-1.167872e-02
Split                    splitncnn_12             1 6 /backbone/blocks5/blocks5.0/pw_conv/act/lab/Add_output_0 /backbone/blocks5/blocks5.0/pw_conv/act/lab/Add_output_0_splitncnn_0 /backbone/blocks5/blocks5.0/pw_conv/act/lab/Add_output_0_splitncnn_1 /backbone/blocks5/blocks5.0/pw_conv/act/lab/Add_output_0_splitncnn_2 /backbone/blocks5/blocks5.0/pw_conv/act/lab/Add_output_0_splitncnn_3 /backbone/blocks5/blocks5.0/pw_conv/act/lab/Add_output_0_splitncnn_4 /backbone/blocks5/blocks5.0/pw_conv/act/lab/Add_output_0_splitncnn_5
BatchNorm                /backbone/blocks5/blocks5.1/dw_conv/identity/BatchNormalization 1 1 /backbone/blocks5/blocks5.0/pw_conv/act/lab/Add_output_0_splitncnn_5 /backbone/blocks5/blocks5.1/dw_conv/identity/BatchNormalization_output_0 0=240
BinaryOp                 /backbone/blocks5/blocks5.1/dw_conv/Add 1 1 /backbone/blocks5/blocks5.1/dw_conv/identity/BatchNormalization_output_0 /backbone/blocks5/blocks5.1/dw_conv/Add_output_0 1=1
ConvolutionDepthWise     /backbone/blocks5/blocks5.1/dw_conv/conv_1x1/conv/Conv 1 1 /backbone/blocks5/blocks5.0/pw_conv/act/lab/Add_output_0_splitncnn_4 /backbone/blocks5/blocks5.1/dw_conv/conv_1x1/conv/Conv_output_0 0=240 1=1 5=1 6=240 7=240
BinaryOp                 /backbone/blocks5/blocks5.1/dw_conv/Add_1 2 1 /backbone/blocks5/blocks5.1/dw_conv/Add_output_0 /backbone/blocks5/blocks5.1/dw_conv/conv_1x1/conv/Conv_output_0 /backbone/blocks5/blocks5.1/dw_conv/Add_1_output_0
ConvolutionDepthWise     /backbone/blocks5/blocks5.1/dw_conv/conv_kxk.0/conv/Conv 1 1 /backbone/blocks5/blocks5.0/pw_conv/act/lab/Add_output_0_splitncnn_3 /backbone/blocks5/blocks5.1/dw_conv/conv_kxk.0/conv/Conv_output_0 0=240 1=5 4=2 5=1 6=6000 7=240
BinaryOp                 /backbone/blocks5/blocks5.1/dw_conv/Add_2 2 1 /backbone/blocks5/blocks5.1/dw_conv/Add_1_output_0 /backbone/blocks5/blocks5.1/dw_conv/conv_kxk.0/conv/Conv_output_0 /backbone/blocks5/blocks5.1/dw_conv/Add_2_output_0
ConvolutionDepthWise     /backbone/blocks5/blocks5.1/dw_conv/conv_kxk.1/conv/Conv 1 1 /backbone/blocks5/blocks5.0/pw_conv/act/lab/Add_output_0_splitncnn_2 /backbone/blocks5/blocks5.1/dw_conv/conv_kxk.1/conv/Conv_output_0 0=240 1=5 4=2 5=1 6=6000 7=240
BinaryOp                 /backbone/blocks5/blocks5.1/dw_conv/Add_3 2 1 /backbone/blocks5/blocks5.1/dw_conv/Add_2_output_0 /backbone/blocks5/blocks5.1/dw_conv/conv_kxk.1/conv/Conv_output_0 /backbone/blocks5/blocks5.1/dw_conv/Add_3_output_0
ConvolutionDepthWise     /backbone/blocks5/blocks5.1/dw_conv/conv_kxk.2/conv/Conv 1 1 /backbone/blocks5/blocks5.0/pw_conv/act/lab/Add_output_0_splitncnn_1 /backbone/blocks5/blocks5.1/dw_conv/conv_kxk.2/conv/Conv_output_0 0=240 1=5 4=2 5=1 6=6000 7=240
BinaryOp                 /backbone/blocks5/blocks5.1/dw_conv/Add_4 2 1 /backbone/blocks5/blocks5.1/dw_conv/Add_3_output_0 /backbone/blocks5/blocks5.1/dw_conv/conv_kxk.2/conv/Conv_output_0 /backbone/blocks5/blocks5.1/dw_conv/Add_4_output_0
ConvolutionDepthWise     /backbone/blocks5/blocks5.1/dw_conv/conv_kxk.3/conv/Conv 1 1 /backbone/blocks5/blocks5.0/pw_conv/act/lab/Add_output_0_splitncnn_0 /backbone/blocks5/blocks5.1/dw_conv/conv_kxk.3/conv/Conv_output_0 0=240 1=5 4=2 5=1 6=6000 7=240
BinaryOp                 /backbone/blocks5/blocks5.1/dw_conv/Add_5 2 1 /backbone/blocks5/blocks5.1/dw_conv/Add_4_output_0 /backbone/blocks5/blocks5.1/dw_conv/conv_kxk.3/conv/Conv_output_0 /backbone/blocks5/blocks5.1/dw_conv/Add_5_output_0
BinaryOp                 /backbone/blocks5/blocks5.1/dw_conv/lab/Mul 1 1 /backbone/blocks5/blocks5.1/dw_conv/Add_5_output_0 /backbone/blocks5/blocks5.1/dw_conv/lab/Mul_output_0 0=2 1=1 2=2.138868e+00
BinaryOp                 /backbone/blocks5/blocks5.1/dw_conv/lab/Add 1 1 /backbone/blocks5/blocks5.1/dw_conv/lab/Mul_output_0 /backbone/blocks5/blocks5.1/dw_conv/lab/Add_output_0 1=1 2=-4.507720e-01
HardSwish                /backbone/blocks5/blocks5.1/dw_conv/act/act/Mul 1 1 /backbone/blocks5/blocks5.1/dw_conv/lab/Add_output_0 /backbone/blocks5/blocks5.1/dw_conv/act/act/Mul_output_0 0=1.666667e-01
BinaryOp                 /backbone/blocks5/blocks5.1/dw_conv/act/lab/Mul 1 1 /backbone/blocks5/blocks5.1/dw_conv/act/act/Mul_output_0 /backbone/blocks5/blocks5.1/dw_conv/act/lab/Mul_output_0 0=2 1=1 2=1.181495e-01
BinaryOp                 /backbone/blocks5/blocks5.1/dw_conv/act/lab/Add 1 1 /backbone/blocks5/blocks5.1/dw_conv/act/lab/Mul_output_0 /backbone/blocks5/blocks5.1/dw_conv/act/lab/Add_output_0 1=1 2=-6.013525e-05
Split                    splitncnn_13             1 5 /backbone/blocks5/blocks5.1/dw_conv/act/lab/Add_output_0 /backbone/blocks5/blocks5.1/dw_conv/act/lab/Add_output_0_splitncnn_0 /backbone/blocks5/blocks5.1/dw_conv/act/lab/Add_output_0_splitncnn_1 /backbone/blocks5/blocks5.1/dw_conv/act/lab/Add_output_0_splitncnn_2 /backbone/blocks5/blocks5.1/dw_conv/act/lab/Add_output_0_splitncnn_3 /backbone/blocks5/blocks5.1/dw_conv/act/lab/Add_output_0_splitncnn_4
BatchNorm                /backbone/blocks5/blocks5.1/pw_conv/identity/BatchNormalization 1 1 /backbone/blocks5/blocks5.1/dw_conv/act/lab/Add_output_0_splitncnn_4 /backbone/blocks5/blocks5.1/pw_conv/identity/BatchNormalization_output_0 0=240
BinaryOp                 /backbone/blocks5/blocks5.1/pw_conv/Add 1 1 /backbone/blocks5/blocks5.1/pw_conv/identity/BatchNormalization_output_0 /backbone/blocks5/blocks5.1/pw_conv/Add_output_0 1=1
Convolution              /backbone/blocks5/blocks5.1/pw_conv/conv_kxk.0/conv/Conv 1 1 /backbone/blocks5/blocks5.1/dw_conv/act/lab/Add_output_0_splitncnn_3 /backbone/blocks5/blocks5.1/pw_conv/conv_kxk.0/conv/Conv_output_0 0=240 1=1 5=1 6=57600
BinaryOp                 /backbone/blocks5/blocks5.1/pw_conv/Add_1 2 1 /backbone/blocks5/blocks5.1/pw_conv/Add_output_0 /backbone/blocks5/blocks5.1/pw_conv/conv_kxk.0/conv/Conv_output_0 /backbone/blocks5/blocks5.1/pw_conv/Add_1_output_0
Convolution              /backbone/blocks5/blocks5.1/pw_conv/conv_kxk.1/conv/Conv 1 1 /backbone/blocks5/blocks5.1/dw_conv/act/lab/Add_output_0_splitncnn_2 /backbone/blocks5/blocks5.1/pw_conv/conv_kxk.1/conv/Conv_output_0 0=240 1=1 5=1 6=57600
BinaryOp                 /backbone/blocks5/blocks5.1/pw_conv/Add_2 2 1 /backbone/blocks5/blocks5.1/pw_conv/Add_1_output_0 /backbone/blocks5/blocks5.1/pw_conv/conv_kxk.1/conv/Conv_output_0 /backbone/blocks5/blocks5.1/pw_conv/Add_2_output_0
Convolution              /backbone/blocks5/blocks5.1/pw_conv/conv_kxk.2/conv/Conv 1 1 /backbone/blocks5/blocks5.1/dw_conv/act/lab/Add_output_0_splitncnn_1 /backbone/blocks5/blocks5.1/pw_conv/conv_kxk.2/conv/Conv_output_0 0=240 1=1 5=1 6=57600
BinaryOp                 /backbone/blocks5/blocks5.1/pw_conv/Add_3 2 1 /backbone/blocks5/blocks5.1/pw_conv/Add_2_output_0 /backbone/blocks5/blocks5.1/pw_conv/conv_kxk.2/conv/Conv_output_0 /backbone/blocks5/blocks5.1/pw_conv/Add_3_output_0
Convolution              /backbone/blocks5/blocks5.1/pw_conv/conv_kxk.3/conv/Conv 1 1 /backbone/blocks5/blocks5.1/dw_conv/act/lab/Add_output_0_splitncnn_0 /backbone/blocks5/blocks5.1/pw_conv/conv_kxk.3/conv/Conv_output_0 0=240 1=1 5=1 6=57600
BinaryOp                 /backbone/blocks5/blocks5.1/pw_conv/Add_4 2 1 /backbone/blocks5/blocks5.1/pw_conv/Add_3_output_0 /backbone/blocks5/blocks5.1/pw_conv/conv_kxk.3/conv/Conv_output_0 /backbone/blocks5/blocks5.1/pw_conv/Add_4_output_0
BinaryOp                 /backbone/blocks5/blocks5.1/pw_conv/lab/Mul 1 1 /backbone/blocks5/blocks5.1/pw_conv/Add_4_output_0 /backbone/blocks5/blocks5.1/pw_conv/lab/Mul_output_0 0=2 1=1 2=2.044553e+00
BinaryOp                 /backbone/blocks5/blocks5.1/pw_conv/lab/Add 1 1 /backbone/blocks5/blocks5.1/pw_conv/lab/Mul_output_0 /backbone/blocks5/blocks5.1/pw_conv/lab/Add_output_0 1=1 2=-2.431049e-01
HardSwish                /backbone/blocks5/blocks5.1/pw_conv/act/act/Mul 1 1 /backbone/blocks5/blocks5.1/pw_conv/lab/Add_output_0 /backbone/blocks5/blocks5.1/pw_conv/act/act/Mul_output_0 0=1.666667e-01
BinaryOp                 /backbone/blocks5/blocks5.1/pw_conv/act/lab/Mul 1 1 /backbone/blocks5/blocks5.1/pw_conv/act/act/Mul_output_0 /backbone/blocks5/blocks5.1/pw_conv/act/lab/Mul_output_0 0=2 1=1 2=6.219931e-01
BinaryOp                 /backbone/blocks5/blocks5.1/pw_conv/act/lab/Add 1 1 /backbone/blocks5/blocks5.1/pw_conv/act/lab/Mul_output_0 /backbone/blocks5/blocks5.1/pw_conv/act/lab/Add_output_0 1=1 2=8.859989e-02
Split                    splitncnn_14             1 6 /backbone/blocks5/blocks5.1/pw_conv/act/lab/Add_output_0 /backbone/blocks5/blocks5.1/pw_conv/act/lab/Add_output_0_splitncnn_0 /backbone/blocks5/blocks5.1/pw_conv/act/lab/Add_output_0_splitncnn_1 /backbone/blocks5/blocks5.1/pw_conv/act/lab/Add_output_0_splitncnn_2 /backbone/blocks5/blocks5.1/pw_conv/act/lab/Add_output_0_splitncnn_3 /backbone/blocks5/blocks5.1/pw_conv/act/lab/Add_output_0_splitncnn_4 /backbone/blocks5/blocks5.1/pw_conv/act/lab/Add_output_0_splitncnn_5
BatchNorm                /backbone/blocks5/blocks5.2/dw_conv/identity/BatchNormalization 1 1 /backbone/blocks5/blocks5.1/pw_conv/act/lab/Add_output_0_splitncnn_5 /backbone/blocks5/blocks5.2/dw_conv/identity/BatchNormalization_output_0 0=240
BinaryOp                 /backbone/blocks5/blocks5.2/dw_conv/Add 1 1 /backbone/blocks5/blocks5.2/dw_conv/identity/BatchNormalization_output_0 /backbone/blocks5/blocks5.2/dw_conv/Add_output_0 1=1
ConvolutionDepthWise     /backbone/blocks5/blocks5.2/dw_conv/conv_1x1/conv/Conv 1 1 /backbone/blocks5/blocks5.1/pw_conv/act/lab/Add_output_0_splitncnn_4 /backbone/blocks5/blocks5.2/dw_conv/conv_1x1/conv/Conv_output_0 0=240 1=1 5=1 6=240 7=240
BinaryOp                 /backbone/blocks5/blocks5.2/dw_conv/Add_1 2 1 /backbone/blocks5/blocks5.2/dw_conv/Add_output_0 /backbone/blocks5/blocks5.2/dw_conv/conv_1x1/conv/Conv_output_0 /backbone/blocks5/blocks5.2/dw_conv/Add_1_output_0
ConvolutionDepthWise     /backbone/blocks5/blocks5.2/dw_conv/conv_kxk.0/conv/Conv 1 1 /backbone/blocks5/blocks5.1/pw_conv/act/lab/Add_output_0_splitncnn_3 /backbone/blocks5/blocks5.2/dw_conv/conv_kxk.0/conv/Conv_output_0 0=240 1=5 4=2 5=1 6=6000 7=240
BinaryOp                 /backbone/blocks5/blocks5.2/dw_conv/Add_2 2 1 /backbone/blocks5/blocks5.2/dw_conv/Add_1_output_0 /backbone/blocks5/blocks5.2/dw_conv/conv_kxk.0/conv/Conv_output_0 /backbone/blocks5/blocks5.2/dw_conv/Add_2_output_0
ConvolutionDepthWise     /backbone/blocks5/blocks5.2/dw_conv/conv_kxk.1/conv/Conv 1 1 /backbone/blocks5/blocks5.1/pw_conv/act/lab/Add_output_0_splitncnn_2 /backbone/blocks5/blocks5.2/dw_conv/conv_kxk.1/conv/Conv_output_0 0=240 1=5 4=2 5=1 6=6000 7=240
BinaryOp                 /backbone/blocks5/blocks5.2/dw_conv/Add_3 2 1 /backbone/blocks5/blocks5.2/dw_conv/Add_2_output_0 /backbone/blocks5/blocks5.2/dw_conv/conv_kxk.1/conv/Conv_output_0 /backbone/blocks5/blocks5.2/dw_conv/Add_3_output_0
ConvolutionDepthWise     /backbone/blocks5/blocks5.2/dw_conv/conv_kxk.2/conv/Conv 1 1 /backbone/blocks5/blocks5.1/pw_conv/act/lab/Add_output_0_splitncnn_1 /backbone/blocks5/blocks5.2/dw_conv/conv_kxk.2/conv/Conv_output_0 0=240 1=5 4=2 5=1 6=6000 7=240
BinaryOp                 /backbone/blocks5/blocks5.2/dw_conv/Add_4 2 1 /backbone/blocks5/blocks5.2/dw_conv/Add_3_output_0 /backbone/blocks5/blocks5.2/dw_conv/conv_kxk.2/conv/Conv_output_0 /backbone/blocks5/blocks5.2/dw_conv/Add_4_output_0
ConvolutionDepthWise     /backbone/blocks5/blocks5.2/dw_conv/conv_kxk.3/conv/Conv 1 1 /backbone/blocks5/blocks5.1/pw_conv/act/lab/Add_output_0_splitncnn_0 /backbone/blocks5/blocks5.2/dw_conv/conv_kxk.3/conv/Conv_output_0 0=240 1=5 4=2 5=1 6=6000 7=240
BinaryOp                 /backbone/blocks5/blocks5.2/dw_conv/Add_5 2 1 /backbone/blocks5/blocks5.2/dw_conv/Add_4_output_0 /backbone/blocks5/blocks5.2/dw_conv/conv_kxk.3/conv/Conv_output_0 /backbone/blocks5/blocks5.2/dw_conv/Add_5_output_0
BinaryOp                 /backbone/blocks5/blocks5.2/dw_conv/lab/Mul 1 1 /backbone/blocks5/blocks5.2/dw_conv/Add_5_output_0 /backbone/blocks5/blocks5.2/dw_conv/lab/Mul_output_0 0=2 1=1 2=2.830977e+00
BinaryOp                 /backbone/blocks5/blocks5.2/dw_conv/lab/Add 1 1 /backbone/blocks5/blocks5.2/dw_conv/lab/Mul_output_0 /backbone/blocks5/blocks5.2/dw_conv/lab/Add_output_0 1=1 2=1.021500e-01
HardSwish                /backbone/blocks5/blocks5.2/dw_conv/act/act/Mul 1 1 /backbone/blocks5/blocks5.2/dw_conv/lab/Add_output_0 /backbone/blocks5/blocks5.2/dw_conv/act/act/Mul_output_0 0=1.666667e-01
BinaryOp                 /backbone/blocks5/blocks5.2/dw_conv/act/lab/Mul 1 1 /backbone/blocks5/blocks5.2/dw_conv/act/act/Mul_output_0 /backbone/blocks5/blocks5.2/dw_conv/act/lab/Mul_output_0 0=2 1=1 2=4.216631e-02
BinaryOp                 /backbone/blocks5/blocks5.2/dw_conv/act/lab/Add 1 1 /backbone/blocks5/blocks5.2/dw_conv/act/lab/Mul_output_0 /backbone/blocks5/blocks5.2/dw_conv/act/lab/Add_output_0 1=1 2=-5.604238e-05
Split                    splitncnn_15             1 5 /backbone/blocks5/blocks5.2/dw_conv/act/lab/Add_output_0 /backbone/blocks5/blocks5.2/dw_conv/act/lab/Add_output_0_splitncnn_0 /backbone/blocks5/blocks5.2/dw_conv/act/lab/Add_output_0_splitncnn_1 /backbone/blocks5/blocks5.2/dw_conv/act/lab/Add_output_0_splitncnn_2 /backbone/blocks5/blocks5.2/dw_conv/act/lab/Add_output_0_splitncnn_3 /backbone/blocks5/blocks5.2/dw_conv/act/lab/Add_output_0_splitncnn_4
BatchNorm                /backbone/blocks5/blocks5.2/pw_conv/identity/BatchNormalization 1 1 /backbone/blocks5/blocks5.2/dw_conv/act/lab/Add_output_0_splitncnn_4 /backbone/blocks5/blocks5.2/pw_conv/identity/BatchNormalization_output_0 0=240
BinaryOp                 /backbone/blocks5/blocks5.2/pw_conv/Add 1 1 /backbone/blocks5/blocks5.2/pw_conv/identity/BatchNormalization_output_0 /backbone/blocks5/blocks5.2/pw_conv/Add_output_0 1=1
Convolution              /backbone/blocks5/blocks5.2/pw_conv/conv_kxk.0/conv/Conv 1 1 /backbone/blocks5/blocks5.2/dw_conv/act/lab/Add_output_0_splitncnn_3 /backbone/blocks5/blocks5.2/pw_conv/conv_kxk.0/conv/Conv_output_0 0=240 1=1 5=1 6=57600
BinaryOp                 /backbone/blocks5/blocks5.2/pw_conv/Add_1 2 1 /backbone/blocks5/blocks5.2/pw_conv/Add_output_0 /backbone/blocks5/blocks5.2/pw_conv/conv_kxk.0/conv/Conv_output_0 /backbone/blocks5/blocks5.2/pw_conv/Add_1_output_0
Convolution              /backbone/blocks5/blocks5.2/pw_conv/conv_kxk.1/conv/Conv 1 1 /backbone/blocks5/blocks5.2/dw_conv/act/lab/Add_output_0_splitncnn_2 /backbone/blocks5/blocks5.2/pw_conv/conv_kxk.1/conv/Conv_output_0 0=240 1=1 5=1 6=57600
BinaryOp                 /backbone/blocks5/blocks5.2/pw_conv/Add_2 2 1 /backbone/blocks5/blocks5.2/pw_conv/Add_1_output_0 /backbone/blocks5/blocks5.2/pw_conv/conv_kxk.1/conv/Conv_output_0 /backbone/blocks5/blocks5.2/pw_conv/Add_2_output_0
Convolution              /backbone/blocks5/blocks5.2/pw_conv/conv_kxk.2/conv/Conv 1 1 /backbone/blocks5/blocks5.2/dw_conv/act/lab/Add_output_0_splitncnn_1 /backbone/blocks5/blocks5.2/pw_conv/conv_kxk.2/conv/Conv_output_0 0=240 1=1 5=1 6=57600
BinaryOp                 /backbone/blocks5/blocks5.2/pw_conv/Add_3 2 1 /backbone/blocks5/blocks5.2/pw_conv/Add_2_output_0 /backbone/blocks5/blocks5.2/pw_conv/conv_kxk.2/conv/Conv_output_0 /backbone/blocks5/blocks5.2/pw_conv/Add_3_output_0
Convolution              /backbone/blocks5/blocks5.2/pw_conv/conv_kxk.3/conv/Conv 1 1 /backbone/blocks5/blocks5.2/dw_conv/act/lab/Add_output_0_splitncnn_0 /backbone/blocks5/blocks5.2/pw_conv/conv_kxk.3/conv/Conv_output_0 0=240 1=1 5=1 6=57600
BinaryOp                 /backbone/blocks5/blocks5.2/pw_conv/Add_4 2 1 /backbone/blocks5/blocks5.2/pw_conv/Add_3_output_0 /backbone/blocks5/blocks5.2/pw_conv/conv_kxk.3/conv/Conv_output_0 /backbone/blocks5/blocks5.2/pw_conv/Add_4_output_0
BinaryOp                 /backbone/blocks5/blocks5.2/pw_conv/lab/Mul 1 1 /backbone/blocks5/blocks5.2/pw_conv/Add_4_output_0 /backbone/blocks5/blocks5.2/pw_conv/lab/Mul_output_0 0=2 1=1 2=2.156336e+00
BinaryOp                 /backbone/blocks5/blocks5.2/pw_conv/lab/Add 1 1 /backbone/blocks5/blocks5.2/pw_conv/lab/Mul_output_0 /backbone/blocks5/blocks5.2/pw_conv/lab/Add_output_0 1=1 2=-5.589596e-01
HardSwish                /backbone/blocks5/blocks5.2/pw_conv/act/act/Mul 1 1 /backbone/blocks5/blocks5.2/pw_conv/lab/Add_output_0 /backbone/blocks5/blocks5.2/pw_conv/act/act/Mul_output_0 0=1.666667e-01
BinaryOp                 /backbone/blocks5/blocks5.2/pw_conv/act/lab/Mul 1 1 /backbone/blocks5/blocks5.2/pw_conv/act/act/Mul_output_0 /backbone/blocks5/blocks5.2/pw_conv/act/lab/Mul_output_0 0=2 1=1 2=5.327490e-01
BinaryOp                 /backbone/blocks5/blocks5.2/pw_conv/act/lab/Add 1 1 /backbone/blocks5/blocks5.2/pw_conv/act/lab/Mul_output_0 /backbone/blocks5/blocks5.2/pw_conv/act/lab/Add_output_0 1=1 2=1.568191e-01
Split                    splitncnn_16             1 6 /backbone/blocks5/blocks5.2/pw_conv/act/lab/Add_output_0 /backbone/blocks5/blocks5.2/pw_conv/act/lab/Add_output_0_splitncnn_0 /backbone/blocks5/blocks5.2/pw_conv/act/lab/Add_output_0_splitncnn_1 /backbone/blocks5/blocks5.2/pw_conv/act/lab/Add_output_0_splitncnn_2 /backbone/blocks5/blocks5.2/pw_conv/act/lab/Add_output_0_splitncnn_3 /backbone/blocks5/blocks5.2/pw_conv/act/lab/Add_output_0_splitncnn_4 /backbone/blocks5/blocks5.2/pw_conv/act/lab/Add_output_0_splitncnn_5
BatchNorm                /backbone/blocks5/blocks5.3/dw_conv/identity/BatchNormalization 1 1 /backbone/blocks5/blocks5.2/pw_conv/act/lab/Add_output_0_splitncnn_5 /backbone/blocks5/blocks5.3/dw_conv/identity/BatchNormalization_output_0 0=240
BinaryOp                 /backbone/blocks5/blocks5.3/dw_conv/Add 1 1 /backbone/blocks5/blocks5.3/dw_conv/identity/BatchNormalization_output_0 /backbone/blocks5/blocks5.3/dw_conv/Add_output_0 1=1
ConvolutionDepthWise     /backbone/blocks5/blocks5.3/dw_conv/conv_1x1/conv/Conv 1 1 /backbone/blocks5/blocks5.2/pw_conv/act/lab/Add_output_0_splitncnn_4 /backbone/blocks5/blocks5.3/dw_conv/conv_1x1/conv/Conv_output_0 0=240 1=1 5=1 6=240 7=240
BinaryOp                 /backbone/blocks5/blocks5.3/dw_conv/Add_1 2 1 /backbone/blocks5/blocks5.3/dw_conv/Add_output_0 /backbone/blocks5/blocks5.3/dw_conv/conv_1x1/conv/Conv_output_0 /backbone/blocks5/blocks5.3/dw_conv/Add_1_output_0
ConvolutionDepthWise     /backbone/blocks5/blocks5.3/dw_conv/conv_kxk.0/conv/Conv 1 1 /backbone/blocks5/blocks5.2/pw_conv/act/lab/Add_output_0_splitncnn_3 /backbone/blocks5/blocks5.3/dw_conv/conv_kxk.0/conv/Conv_output_0 0=240 1=5 4=2 5=1 6=6000 7=240
BinaryOp                 /backbone/blocks5/blocks5.3/dw_conv/Add_2 2 1 /backbone/blocks5/blocks5.3/dw_conv/Add_1_output_0 /backbone/blocks5/blocks5.3/dw_conv/conv_kxk.0/conv/Conv_output_0 /backbone/blocks5/blocks5.3/dw_conv/Add_2_output_0
ConvolutionDepthWise     /backbone/blocks5/blocks5.3/dw_conv/conv_kxk.1/conv/Conv 1 1 /backbone/blocks5/blocks5.2/pw_conv/act/lab/Add_output_0_splitncnn_2 /backbone/blocks5/blocks5.3/dw_conv/conv_kxk.1/conv/Conv_output_0 0=240 1=5 4=2 5=1 6=6000 7=240
BinaryOp                 /backbone/blocks5/blocks5.3/dw_conv/Add_3 2 1 /backbone/blocks5/blocks5.3/dw_conv/Add_2_output_0 /backbone/blocks5/blocks5.3/dw_conv/conv_kxk.1/conv/Conv_output_0 /backbone/blocks5/blocks5.3/dw_conv/Add_3_output_0
ConvolutionDepthWise     /backbone/blocks5/blocks5.3/dw_conv/conv_kxk.2/conv/Conv 1 1 /backbone/blocks5/blocks5.2/pw_conv/act/lab/Add_output_0_splitncnn_1 /backbone/blocks5/blocks5.3/dw_conv/conv_kxk.2/conv/Conv_output_0 0=240 1=5 4=2 5=1 6=6000 7=240
BinaryOp                 /backbone/blocks5/blocks5.3/dw_conv/Add_4 2 1 /backbone/blocks5/blocks5.3/dw_conv/Add_3_output_0 /backbone/blocks5/blocks5.3/dw_conv/conv_kxk.2/conv/Conv_output_0 /backbone/blocks5/blocks5.3/dw_conv/Add_4_output_0
ConvolutionDepthWise     /backbone/blocks5/blocks5.3/dw_conv/conv_kxk.3/conv/Conv 1 1 /backbone/blocks5/blocks5.2/pw_conv/act/lab/Add_output_0_splitncnn_0 /backbone/blocks5/blocks5.3/dw_conv/conv_kxk.3/conv/Conv_output_0 0=240 1=5 4=2 5=1 6=6000 7=240
BinaryOp                 /backbone/blocks5/blocks5.3/dw_conv/Add_5 2 1 /backbone/blocks5/blocks5.3/dw_conv/Add_4_output_0 /backbone/blocks5/blocks5.3/dw_conv/conv_kxk.3/conv/Conv_output_0 /backbone/blocks5/blocks5.3/dw_conv/Add_5_output_0
BinaryOp                 /backbone/blocks5/blocks5.3/dw_conv/lab/Mul 1 1 /backbone/blocks5/blocks5.3/dw_conv/Add_5_output_0 /backbone/blocks5/blocks5.3/dw_conv/lab/Mul_output_0 0=2 1=1 2=2.506705e+00
BinaryOp                 /backbone/blocks5/blocks5.3/dw_conv/lab/Add 1 1 /backbone/blocks5/blocks5.3/dw_conv/lab/Mul_output_0 /backbone/blocks5/blocks5.3/dw_conv/lab/Add_output_0 1=1 2=1.157011e+00
HardSwish                /backbone/blocks5/blocks5.3/dw_conv/act/act/Mul 1 1 /backbone/blocks5/blocks5.3/dw_conv/lab/Add_output_0 /backbone/blocks5/blocks5.3/dw_conv/act/act/Mul_output_0 0=1.666667e-01
BinaryOp                 /backbone/blocks5/blocks5.3/dw_conv/act/lab/Mul 1 1 /backbone/blocks5/blocks5.3/dw_conv/act/act/Mul_output_0 /backbone/blocks5/blocks5.3/dw_conv/act/lab/Mul_output_0 0=2 1=1 2=4.520729e-02
BinaryOp                 /backbone/blocks5/blocks5.3/dw_conv/act/lab/Add 1 1 /backbone/blocks5/blocks5.3/dw_conv/act/lab/Mul_output_0 /backbone/blocks5/blocks5.3/dw_conv/act/lab/Add_output_0 1=1 2=-3.584615e-06
Split                    splitncnn_17             1 5 /backbone/blocks5/blocks5.3/dw_conv/act/lab/Add_output_0 /backbone/blocks5/blocks5.3/dw_conv/act/lab/Add_output_0_splitncnn_0 /backbone/blocks5/blocks5.3/dw_conv/act/lab/Add_output_0_splitncnn_1 /backbone/blocks5/blocks5.3/dw_conv/act/lab/Add_output_0_splitncnn_2 /backbone/blocks5/blocks5.3/dw_conv/act/lab/Add_output_0_splitncnn_3 /backbone/blocks5/blocks5.3/dw_conv/act/lab/Add_output_0_splitncnn_4
BatchNorm                /backbone/blocks5/blocks5.3/pw_conv/identity/BatchNormalization 1 1 /backbone/blocks5/blocks5.3/dw_conv/act/lab/Add_output_0_splitncnn_4 /backbone/blocks5/blocks5.3/pw_conv/identity/BatchNormalization_output_0 0=240
BinaryOp                 /backbone/blocks5/blocks5.3/pw_conv/Add 1 1 /backbone/blocks5/blocks5.3/pw_conv/identity/BatchNormalization_output_0 /backbone/blocks5/blocks5.3/pw_conv/Add_output_0 1=1
Convolution              /backbone/blocks5/blocks5.3/pw_conv/conv_kxk.0/conv/Conv 1 1 /backbone/blocks5/blocks5.3/dw_conv/act/lab/Add_output_0_splitncnn_3 /backbone/blocks5/blocks5.3/pw_conv/conv_kxk.0/conv/Conv_output_0 0=240 1=1 5=1 6=57600
BinaryOp                 /backbone/blocks5/blocks5.3/pw_conv/Add_1 2 1 /backbone/blocks5/blocks5.3/pw_conv/Add_output_0 /backbone/blocks5/blocks5.3/pw_conv/conv_kxk.0/conv/Conv_output_0 /backbone/blocks5/blocks5.3/pw_conv/Add_1_output_0
Convolution              /backbone/blocks5/blocks5.3/pw_conv/conv_kxk.1/conv/Conv 1 1 /backbone/blocks5/blocks5.3/dw_conv/act/lab/Add_output_0_splitncnn_2 /backbone/blocks5/blocks5.3/pw_conv/conv_kxk.1/conv/Conv_output_0 0=240 1=1 5=1 6=57600
BinaryOp                 /backbone/blocks5/blocks5.3/pw_conv/Add_2 2 1 /backbone/blocks5/blocks5.3/pw_conv/Add_1_output_0 /backbone/blocks5/blocks5.3/pw_conv/conv_kxk.1/conv/Conv_output_0 /backbone/blocks5/blocks5.3/pw_conv/Add_2_output_0
Convolution              /backbone/blocks5/blocks5.3/pw_conv/conv_kxk.2/conv/Conv 1 1 /backbone/blocks5/blocks5.3/dw_conv/act/lab/Add_output_0_splitncnn_1 /backbone/blocks5/blocks5.3/pw_conv/conv_kxk.2/conv/Conv_output_0 0=240 1=1 5=1 6=57600
BinaryOp                 /backbone/blocks5/blocks5.3/pw_conv/Add_3 2 1 /backbone/blocks5/blocks5.3/pw_conv/Add_2_output_0 /backbone/blocks5/blocks5.3/pw_conv/conv_kxk.2/conv/Conv_output_0 /backbone/blocks5/blocks5.3/pw_conv/Add_3_output_0
Convolution              /backbone/blocks5/blocks5.3/pw_conv/conv_kxk.3/conv/Conv 1 1 /backbone/blocks5/blocks5.3/dw_conv/act/lab/Add_output_0_splitncnn_0 /backbone/blocks5/blocks5.3/pw_conv/conv_kxk.3/conv/Conv_output_0 0=240 1=1 5=1 6=57600
BinaryOp                 /backbone/blocks5/blocks5.3/pw_conv/Add_4 2 1 /backbone/blocks5/blocks5.3/pw_conv/Add_3_output_0 /backbone/blocks5/blocks5.3/pw_conv/conv_kxk.3/conv/Conv_output_0 /backbone/blocks5/blocks5.3/pw_conv/Add_4_output_0
BinaryOp                 /backbone/blocks5/blocks5.3/pw_conv/lab/Mul 1 1 /backbone/blocks5/blocks5.3/pw_conv/Add_4_output_0 /backbone/blocks5/blocks5.3/pw_conv/lab/Mul_output_0 0=2 1=1 2=2.150808e+00
BinaryOp                 /backbone/blocks5/blocks5.3/pw_conv/lab/Add 1 1 /backbone/blocks5/blocks5.3/pw_conv/lab/Mul_output_0 /backbone/blocks5/blocks5.3/pw_conv/lab/Add_output_0 1=1 2=-5.547040e-01
HardSwish                /backbone/blocks5/blocks5.3/pw_conv/act/act/Mul 1 1 /backbone/blocks5/blocks5.3/pw_conv/lab/Add_output_0 /backbone/blocks5/blocks5.3/pw_conv/act/act/Mul_output_0 0=1.666667e-01
BinaryOp                 /backbone/blocks5/blocks5.3/pw_conv/act/lab/Mul 1 1 /backbone/blocks5/blocks5.3/pw_conv/act/act/Mul_output_0 /backbone/blocks5/blocks5.3/pw_conv/act/lab/Mul_output_0 0=2 1=1 2=5.370421e-01
BinaryOp                 /backbone/blocks5/blocks5.3/pw_conv/act/lab/Add 1 1 /backbone/blocks5/blocks5.3/pw_conv/act/lab/Mul_output_0 /backbone/blocks5/blocks5.3/pw_conv/act/lab/Add_output_0 1=1 2=1.735165e-01
Split                    splitncnn_18             1 6 /backbone/blocks5/blocks5.3/pw_conv/act/lab/Add_output_0 /backbone/blocks5/blocks5.3/pw_conv/act/lab/Add_output_0_splitncnn_0 /backbone/blocks5/blocks5.3/pw_conv/act/lab/Add_output_0_splitncnn_1 /backbone/blocks5/blocks5.3/pw_conv/act/lab/Add_output_0_splitncnn_2 /backbone/blocks5/blocks5.3/pw_conv/act/lab/Add_output_0_splitncnn_3 /backbone/blocks5/blocks5.3/pw_conv/act/lab/Add_output_0_splitncnn_4 /backbone/blocks5/blocks5.3/pw_conv/act/lab/Add_output_0_splitncnn_5
BatchNorm                /backbone/blocks5/blocks5.4/dw_conv/identity/BatchNormalization 1 1 /backbone/blocks5/blocks5.3/pw_conv/act/lab/Add_output_0_splitncnn_5 /backbone/blocks5/blocks5.4/dw_conv/identity/BatchNormalization_output_0 0=240
BinaryOp                 /backbone/blocks5/blocks5.4/dw_conv/Add 1 1 /backbone/blocks5/blocks5.4/dw_conv/identity/BatchNormalization_output_0 /backbone/blocks5/blocks5.4/dw_conv/Add_output_0 1=1
ConvolutionDepthWise     /backbone/blocks5/blocks5.4/dw_conv/conv_1x1/conv/Conv 1 1 /backbone/blocks5/blocks5.3/pw_conv/act/lab/Add_output_0_splitncnn_4 /backbone/blocks5/blocks5.4/dw_conv/conv_1x1/conv/Conv_output_0 0=240 1=1 5=1 6=240 7=240
BinaryOp                 /backbone/blocks5/blocks5.4/dw_conv/Add_1 2 1 /backbone/blocks5/blocks5.4/dw_conv/Add_output_0 /backbone/blocks5/blocks5.4/dw_conv/conv_1x1/conv/Conv_output_0 /backbone/blocks5/blocks5.4/dw_conv/Add_1_output_0
ConvolutionDepthWise     /backbone/blocks5/blocks5.4/dw_conv/conv_kxk.0/conv/Conv 1 1 /backbone/blocks5/blocks5.3/pw_conv/act/lab/Add_output_0_splitncnn_3 /backbone/blocks5/blocks5.4/dw_conv/conv_kxk.0/conv/Conv_output_0 0=240 1=5 4=2 5=1 6=6000 7=240
BinaryOp                 /backbone/blocks5/blocks5.4/dw_conv/Add_2 2 1 /backbone/blocks5/blocks5.4/dw_conv/Add_1_output_0 /backbone/blocks5/blocks5.4/dw_conv/conv_kxk.0/conv/Conv_output_0 /backbone/blocks5/blocks5.4/dw_conv/Add_2_output_0
ConvolutionDepthWise     /backbone/blocks5/blocks5.4/dw_conv/conv_kxk.1/conv/Conv 1 1 /backbone/blocks5/blocks5.3/pw_conv/act/lab/Add_output_0_splitncnn_2 /backbone/blocks5/blocks5.4/dw_conv/conv_kxk.1/conv/Conv_output_0 0=240 1=5 4=2 5=1 6=6000 7=240
BinaryOp                 /backbone/blocks5/blocks5.4/dw_conv/Add_3 2 1 /backbone/blocks5/blocks5.4/dw_conv/Add_2_output_0 /backbone/blocks5/blocks5.4/dw_conv/conv_kxk.1/conv/Conv_output_0 /backbone/blocks5/blocks5.4/dw_conv/Add_3_output_0
ConvolutionDepthWise     /backbone/blocks5/blocks5.4/dw_conv/conv_kxk.2/conv/Conv 1 1 /backbone/blocks5/blocks5.3/pw_conv/act/lab/Add_output_0_splitncnn_1 /backbone/blocks5/blocks5.4/dw_conv/conv_kxk.2/conv/Conv_output_0 0=240 1=5 4=2 5=1 6=6000 7=240
BinaryOp                 /backbone/blocks5/blocks5.4/dw_conv/Add_4 2 1 /backbone/blocks5/blocks5.4/dw_conv/Add_3_output_0 /backbone/blocks5/blocks5.4/dw_conv/conv_kxk.2/conv/Conv_output_0 /backbone/blocks5/blocks5.4/dw_conv/Add_4_output_0
ConvolutionDepthWise     /backbone/blocks5/blocks5.4/dw_conv/conv_kxk.3/conv/Conv 1 1 /backbone/blocks5/blocks5.3/pw_conv/act/lab/Add_output_0_splitncnn_0 /backbone/blocks5/blocks5.4/dw_conv/conv_kxk.3/conv/Conv_output_0 0=240 1=5 4=2 5=1 6=6000 7=240
BinaryOp                 /backbone/blocks5/blocks5.4/dw_conv/Add_5 2 1 /backbone/blocks5/blocks5.4/dw_conv/Add_4_output_0 /backbone/blocks5/blocks5.4/dw_conv/conv_kxk.3/conv/Conv_output_0 /backbone/blocks5/blocks5.4/dw_conv/Add_5_output_0
BinaryOp                 /backbone/blocks5/blocks5.4/dw_conv/lab/Mul 1 1 /backbone/blocks5/blocks5.4/dw_conv/Add_5_output_0 /backbone/blocks5/blocks5.4/dw_conv/lab/Mul_output_0 0=2 1=1 2=2.481236e+00
BinaryOp                 /backbone/blocks5/blocks5.4/dw_conv/lab/Add 1 1 /backbone/blocks5/blocks5.4/dw_conv/lab/Mul_output_0 /backbone/blocks5/blocks5.4/dw_conv/lab/Add_output_0 1=1 2=1.145820e+00
HardSwish                /backbone/blocks5/blocks5.4/dw_conv/act/act/Mul 1 1 /backbone/blocks5/blocks5.4/dw_conv/lab/Add_output_0 /backbone/blocks5/blocks5.4/dw_conv/act/act/Mul_output_0 0=1.666667e-01
BinaryOp                 /backbone/blocks5/blocks5.4/dw_conv/act/lab/Mul 1 1 /backbone/blocks5/blocks5.4/dw_conv/act/act/Mul_output_0 /backbone/blocks5/blocks5.4/dw_conv/act/lab/Mul_output_0 0=2 1=1 2=5.446845e-02
BinaryOp                 /backbone/blocks5/blocks5.4/dw_conv/act/lab/Add 1 1 /backbone/blocks5/blocks5.4/dw_conv/act/lab/Mul_output_0 /backbone/blocks5/blocks5.4/dw_conv/act/lab/Add_output_0 1=1 2=4.943241e-05
Split                    splitncnn_19             1 5 /backbone/blocks5/blocks5.4/dw_conv/act/lab/Add_output_0 /backbone/blocks5/blocks5.4/dw_conv/act/lab/Add_output_0_splitncnn_0 /backbone/blocks5/blocks5.4/dw_conv/act/lab/Add_output_0_splitncnn_1 /backbone/blocks5/blocks5.4/dw_conv/act/lab/Add_output_0_splitncnn_2 /backbone/blocks5/blocks5.4/dw_conv/act/lab/Add_output_0_splitncnn_3 /backbone/blocks5/blocks5.4/dw_conv/act/lab/Add_output_0_splitncnn_4
BatchNorm                /backbone/blocks5/blocks5.4/pw_conv/identity/BatchNormalization 1 1 /backbone/blocks5/blocks5.4/dw_conv/act/lab/Add_output_0_splitncnn_4 /backbone/blocks5/blocks5.4/pw_conv/identity/BatchNormalization_output_0 0=240
BinaryOp                 /backbone/blocks5/blocks5.4/pw_conv/Add 1 1 /backbone/blocks5/blocks5.4/pw_conv/identity/BatchNormalization_output_0 /backbone/blocks5/blocks5.4/pw_conv/Add_output_0 1=1
Convolution              /backbone/blocks5/blocks5.4/pw_conv/conv_kxk.0/conv/Conv 1 1 /backbone/blocks5/blocks5.4/dw_conv/act/lab/Add_output_0_splitncnn_3 /backbone/blocks5/blocks5.4/pw_conv/conv_kxk.0/conv/Conv_output_0 0=240 1=1 5=1 6=57600
BinaryOp                 /backbone/blocks5/blocks5.4/pw_conv/Add_1 2 1 /backbone/blocks5/blocks5.4/pw_conv/Add_output_0 /backbone/blocks5/blocks5.4/pw_conv/conv_kxk.0/conv/Conv_output_0 /backbone/blocks5/blocks5.4/pw_conv/Add_1_output_0
Convolution              /backbone/blocks5/blocks5.4/pw_conv/conv_kxk.1/conv/Conv 1 1 /backbone/blocks5/blocks5.4/dw_conv/act/lab/Add_output_0_splitncnn_2 /backbone/blocks5/blocks5.4/pw_conv/conv_kxk.1/conv/Conv_output_0 0=240 1=1 5=1 6=57600
BinaryOp                 /backbone/blocks5/blocks5.4/pw_conv/Add_2 2 1 /backbone/blocks5/blocks5.4/pw_conv/Add_1_output_0 /backbone/blocks5/blocks5.4/pw_conv/conv_kxk.1/conv/Conv_output_0 /backbone/blocks5/blocks5.4/pw_conv/Add_2_output_0
Convolution              /backbone/blocks5/blocks5.4/pw_conv/conv_kxk.2/conv/Conv 1 1 /backbone/blocks5/blocks5.4/dw_conv/act/lab/Add_output_0_splitncnn_1 /backbone/blocks5/blocks5.4/pw_conv/conv_kxk.2/conv/Conv_output_0 0=240 1=1 5=1 6=57600
BinaryOp                 /backbone/blocks5/blocks5.4/pw_conv/Add_3 2 1 /backbone/blocks5/blocks5.4/pw_conv/Add_2_output_0 /backbone/blocks5/blocks5.4/pw_conv/conv_kxk.2/conv/Conv_output_0 /backbone/blocks5/blocks5.4/pw_conv/Add_3_output_0
Convolution              /backbone/blocks5/blocks5.4/pw_conv/conv_kxk.3/conv/Conv 1 1 /backbone/blocks5/blocks5.4/dw_conv/act/lab/Add_output_0_splitncnn_0 /backbone/blocks5/blocks5.4/pw_conv/conv_kxk.3/conv/Conv_output_0 0=240 1=1 5=1 6=57600
BinaryOp                 /backbone/blocks5/blocks5.4/pw_conv/Add_4 2 1 /backbone/blocks5/blocks5.4/pw_conv/Add_3_output_0 /backbone/blocks5/blocks5.4/pw_conv/conv_kxk.3/conv/Conv_output_0 /backbone/blocks5/blocks5.4/pw_conv/Add_4_output_0
BinaryOp                 /backbone/blocks5/blocks5.4/pw_conv/lab/Mul 1 1 /backbone/blocks5/blocks5.4/pw_conv/Add_4_output_0 /backbone/blocks5/blocks5.4/pw_conv/lab/Mul_output_0 0=2 1=1 2=2.169699e+00
BinaryOp                 /backbone/blocks5/blocks5.4/pw_conv/lab/Add 1 1 /backbone/blocks5/blocks5.4/pw_conv/lab/Mul_output_0 /backbone/blocks5/blocks5.4/pw_conv/lab/Add_output_0 1=1 2=-6.480080e-01
HardSwish                /backbone/blocks5/blocks5.4/pw_conv/act/act/Mul 1 1 /backbone/blocks5/blocks5.4/pw_conv/lab/Add_output_0 /backbone/blocks5/blocks5.4/pw_conv/act/act/Mul_output_0 0=1.666667e-01
BinaryOp                 /backbone/blocks5/blocks5.4/pw_conv/act/lab/Mul 1 1 /backbone/blocks5/blocks5.4/pw_conv/act/act/Mul_output_0 /backbone/blocks5/blocks5.4/pw_conv/act/lab/Mul_output_0 0=2 1=1 2=7.006389e-01
BinaryOp                 /backbone/blocks5/blocks5.4/pw_conv/act/lab/Add 1 1 /backbone/blocks5/blocks5.4/pw_conv/act/lab/Mul_output_0 /backbone/blocks5/blocks5.4/pw_conv/act/lab/Add_output_0 1=1 2=2.380483e-01
Split                    splitncnn_20             1 5 /backbone/blocks5/blocks5.4/pw_conv/act/lab/Add_output_0 /backbone/blocks5/blocks5.4/pw_conv/act/lab/Add_output_0_splitncnn_0 /backbone/blocks5/blocks5.4/pw_conv/act/lab/Add_output_0_splitncnn_1 /backbone/blocks5/blocks5.4/pw_conv/act/lab/Add_output_0_splitncnn_2 /backbone/blocks5/blocks5.4/pw_conv/act/lab/Add_output_0_splitncnn_3 /backbone/blocks5/blocks5.4/pw_conv/act/lab/Add_output_0_splitncnn_4
ConvolutionDepthWise     /backbone/blocks6/blocks6.0/dw_conv/conv_1x1/conv/Conv 1 1 /backbone/blocks5/blocks5.4/pw_conv/act/lab/Add_output_0_splitncnn_4 /backbone/blocks6/blocks6.0/dw_conv/conv_1x1/conv/Conv_output_0 0=240 1=1 13=2 5=1 6=240 7=240
BinaryOp                 /backbone/blocks6/blocks6.0/dw_conv/Add 1 1 /backbone/blocks6/blocks6.0/dw_conv/conv_1x1/conv/Conv_output_0 /backbone/blocks6/blocks6.0/dw_conv/Add_output_0 1=1
ConvolutionDepthWise     /backbone/blocks6/blocks6.0/dw_conv/conv_kxk.0/conv/Conv 1 1 /backbone/blocks5/blocks5.4/pw_conv/act/lab/Add_output_0_splitncnn_3 /backbone/blocks6/blocks6.0/dw_conv/conv_kxk.0/conv/Conv_output_0 0=240 1=5 13=2 4=2 5=1 6=6000 7=240
BinaryOp                 /backbone/blocks6/blocks6.0/dw_conv/Add_1 2 1 /backbone/blocks6/blocks6.0/dw_conv/Add_output_0 /backbone/blocks6/blocks6.0/dw_conv/conv_kxk.0/conv/Conv_output_0 /backbone/blocks6/blocks6.0/dw_conv/Add_1_output_0
ConvolutionDepthWise     /backbone/blocks6/blocks6.0/dw_conv/conv_kxk.1/conv/Conv 1 1 /backbone/blocks5/blocks5.4/pw_conv/act/lab/Add_output_0_splitncnn_2 /backbone/blocks6/blocks6.0/dw_conv/conv_kxk.1/conv/Conv_output_0 0=240 1=5 13=2 4=2 5=1 6=6000 7=240
BinaryOp                 /backbone/blocks6/blocks6.0/dw_conv/Add_2 2 1 /backbone/blocks6/blocks6.0/dw_conv/Add_1_output_0 /backbone/blocks6/blocks6.0/dw_conv/conv_kxk.1/conv/Conv_output_0 /backbone/blocks6/blocks6.0/dw_conv/Add_2_output_0
ConvolutionDepthWise     /backbone/blocks6/blocks6.0/dw_conv/conv_kxk.2/conv/Conv 1 1 /backbone/blocks5/blocks5.4/pw_conv/act/lab/Add_output_0_splitncnn_1 /backbone/blocks6/blocks6.0/dw_conv/conv_kxk.2/conv/Conv_output_0 0=240 1=5 13=2 4=2 5=1 6=6000 7=240
BinaryOp                 /backbone/blocks6/blocks6.0/dw_conv/Add_3 2 1 /backbone/blocks6/blocks6.0/dw_conv/Add_2_output_0 /backbone/blocks6/blocks6.0/dw_conv/conv_kxk.2/conv/Conv_output_0 /backbone/blocks6/blocks6.0/dw_conv/Add_3_output_0
ConvolutionDepthWise     /backbone/blocks6/blocks6.0/dw_conv/conv_kxk.3/conv/Conv 1 1 /backbone/blocks5/blocks5.4/pw_conv/act/lab/Add_output_0_splitncnn_0 /backbone/blocks6/blocks6.0/dw_conv/conv_kxk.3/conv/Conv_output_0 0=240 1=5 13=2 4=2 5=1 6=6000 7=240
BinaryOp                 /backbone/blocks6/blocks6.0/dw_conv/Add_4 2 1 /backbone/blocks6/blocks6.0/dw_conv/Add_3_output_0 /backbone/blocks6/blocks6.0/dw_conv/conv_kxk.3/conv/Conv_output_0 /backbone/blocks6/blocks6.0/dw_conv/Add_4_output_0
BinaryOp                 /backbone/blocks6/blocks6.0/dw_conv/lab/Mul 1 1 /backbone/blocks6/blocks6.0/dw_conv/Add_4_output_0 /backbone/blocks6/blocks6.0/dw_conv/lab/Mul_output_0 0=2 1=1 2=1.926186e+00
BinaryOp                 /backbone/blocks6/blocks6.0/dw_conv/lab/Add 1 1 /backbone/blocks6/blocks6.0/dw_conv/lab/Mul_output_0 /backbone/blocks6/blocks6.0/dw_conv/lab/Add_output_0 1=1 2=4.542438e-01
HardSwish                /backbone/blocks6/blocks6.0/dw_conv/act/act/Mul 1 1 /backbone/blocks6/blocks6.0/dw_conv/lab/Add_output_0 /backbone/blocks6/blocks6.0/dw_conv/act/act/Mul_output_0 0=1.666667e-01
BinaryOp                 /backbone/blocks6/blocks6.0/dw_conv/act/lab/Mul 1 1 /backbone/blocks6/blocks6.0/dw_conv/act/act/Mul_output_0 /backbone/blocks6/blocks6.0/dw_conv/act/lab/Mul_output_0 0=2 1=1 2=1.393038e+00
BinaryOp                 /backbone/blocks6/blocks6.0/dw_conv/act/lab/Add 1 1 /backbone/blocks6/blocks6.0/dw_conv/act/lab/Mul_output_0 /backbone/blocks6/blocks6.0/dw_conv/act/lab/Add_output_0 1=1 2=-4.136366e-01
Split                    splitncnn_21             1 2 /backbone/blocks6/blocks6.0/dw_conv/act/lab/Add_output_0 /backbone/blocks6/blocks6.0/dw_conv/act/lab/Add_output_0_splitncnn_0 /backbone/blocks6/blocks6.0/dw_conv/act/lab/Add_output_0_splitncnn_1
Pooling                  /backbone/blocks6/blocks6.0/se/avg_pool/GlobalAveragePool 1 1 /backbone/blocks6/blocks6.0/dw_conv/act/lab/Add_output_0_splitncnn_1 /backbone/blocks6/blocks6.0/se/avg_pool/GlobalAveragePool_output_0 0=1 4=1
InnerProduct             /backbone/blocks6/blocks6.0/se/conv1/Conv 1 1 /backbone/blocks6/blocks6.0/se/avg_pool/GlobalAveragePool_output_0 /backbone/blocks6/blocks6.0/se/relu/Relu_output_0 0=60 1=1 2=14400 9=1
InnerProduct             /backbone/blocks6/blocks6.0/se/conv2/Conv 1 1 /backbone/blocks6/blocks6.0/se/relu/Relu_output_0 /backbone/blocks6/blocks6.0/se/conv2/Conv_output_0 0=240 1=1 2=14400
HardSigmoid              /backbone/blocks6/blocks6.0/se/hardsigmoid/HardSigmoid 1 1 /backbone/blocks6/blocks6.0/se/conv2/Conv_output_0 /backbone/blocks6/blocks6.0/se/hardsigmoid/HardSigmoid_output_0 0=1.666667e-01
BinaryOp                 /backbone/blocks6/blocks6.0/se/Mul 2 1 /backbone/blocks6/blocks6.0/dw_conv/act/lab/Add_output_0_splitncnn_0 /backbone/blocks6/blocks6.0/se/hardsigmoid/HardSigmoid_output_0 /backbone/blocks6/blocks6.0/se/Mul_output_0 0=2
Split                    splitncnn_22             1 4 /backbone/blocks6/blocks6.0/se/Mul_output_0 /backbone/blocks6/blocks6.0/se/Mul_output_0_splitncnn_0 /backbone/blocks6/blocks6.0/se/Mul_output_0_splitncnn_1 /backbone/blocks6/blocks6.0/se/Mul_output_0_splitncnn_2 /backbone/blocks6/blocks6.0/se/Mul_output_0_splitncnn_3
Convolution              /backbone/blocks6/blocks6.0/pw_conv/conv_kxk.0/conv/Conv 1 1 /backbone/blocks6/blocks6.0/se/Mul_output_0_splitncnn_3 /backbone/blocks6/blocks6.0/pw_conv/conv_kxk.0/conv/Conv_output_0 0=480 1=1 5=1 6=115200
BinaryOp                 /backbone/blocks6/blocks6.0/pw_conv/Add 1 1 /backbone/blocks6/blocks6.0/pw_conv/conv_kxk.0/conv/Conv_output_0 /backbone/blocks6/blocks6.0/pw_conv/Add_output_0 1=1
Convolution              /backbone/blocks6/blocks6.0/pw_conv/conv_kxk.1/conv/Conv 1 1 /backbone/blocks6/blocks6.0/se/Mul_output_0_splitncnn_2 /backbone/blocks6/blocks6.0/pw_conv/conv_kxk.1/conv/Conv_output_0 0=480 1=1 5=1 6=115200
BinaryOp                 /backbone/blocks6/blocks6.0/pw_conv/Add_1 2 1 /backbone/blocks6/blocks6.0/pw_conv/Add_output_0 /backbone/blocks6/blocks6.0/pw_conv/conv_kxk.1/conv/Conv_output_0 /backbone/blocks6/blocks6.0/pw_conv/Add_1_output_0
Convolution              /backbone/blocks6/blocks6.0/pw_conv/conv_kxk.2/conv/Conv 1 1 /backbone/blocks6/blocks6.0/se/Mul_output_0_splitncnn_1 /backbone/blocks6/blocks6.0/pw_conv/conv_kxk.2/conv/Conv_output_0 0=480 1=1 5=1 6=115200
BinaryOp                 /backbone/blocks6/blocks6.0/pw_conv/Add_2 2 1 /backbone/blocks6/blocks6.0/pw_conv/Add_1_output_0 /backbone/blocks6/blocks6.0/pw_conv/conv_kxk.2/conv/Conv_output_0 /backbone/blocks6/blocks6.0/pw_conv/Add_2_output_0
Convolution              /backbone/blocks6/blocks6.0/pw_conv/conv_kxk.3/conv/Conv 1 1 /backbone/blocks6/blocks6.0/se/Mul_output_0_splitncnn_0 /backbone/blocks6/blocks6.0/pw_conv/conv_kxk.3/conv/Conv_output_0 0=480 1=1 5=1 6=115200
BinaryOp                 /backbone/blocks6/blocks6.0/pw_conv/Add_3 2 1 /backbone/blocks6/blocks6.0/pw_conv/Add_2_output_0 /backbone/blocks6/blocks6.0/pw_conv/conv_kxk.3/conv/Conv_output_0 /backbone/blocks6/blocks6.0/pw_conv/Add_3_output_0
BinaryOp                 /backbone/blocks6/blocks6.0/pw_conv/lab/Mul 1 1 /backbone/blocks6/blocks6.0/pw_conv/Add_3_output_0 /backbone/blocks6/blocks6.0/pw_conv/lab/Mul_output_0 0=2 1=1 2=2.592662e+00
BinaryOp                 /backbone/blocks6/blocks6.0/pw_conv/lab/Add 1 1 /backbone/blocks6/blocks6.0/pw_conv/lab/Mul_output_0 /backbone/blocks6/blocks6.0/pw_conv/lab/Add_output_0 1=1 2=-4.306299e-01
HardSwish                /backbone/blocks6/blocks6.0/pw_conv/act/act/Mul 1 1 /backbone/blocks6/blocks6.0/pw_conv/lab/Add_output_0 /backbone/blocks6/blocks6.0/pw_conv/act/act/Mul_output_0 0=1.666667e-01
BinaryOp                 /backbone/blocks6/blocks6.0/pw_conv/act/lab/Mul 1 1 /backbone/blocks6/blocks6.0/pw_conv/act/act/Mul_output_0 /backbone/blocks6/blocks6.0/pw_conv/act/lab/Mul_output_0 0=2 1=1 2=9.122257e-01
BinaryOp                 /backbone/blocks6/blocks6.0/pw_conv/act/lab/Add 1 1 /backbone/blocks6/blocks6.0/pw_conv/act/lab/Mul_output_0 /backbone/blocks6/blocks6.0/pw_conv/act/lab/Add_output_0 1=1 2=2.021912e-01
Split                    splitncnn_23             1 6 /backbone/blocks6/blocks6.0/pw_conv/act/lab/Add_output_0 /backbone/blocks6/blocks6.0/pw_conv/act/lab/Add_output_0_splitncnn_0 /backbone/blocks6/blocks6.0/pw_conv/act/lab/Add_output_0_splitncnn_1 /backbone/blocks6/blocks6.0/pw_conv/act/lab/Add_output_0_splitncnn_2 /backbone/blocks6/blocks6.0/pw_conv/act/lab/Add_output_0_splitncnn_3 /backbone/blocks6/blocks6.0/pw_conv/act/lab/Add_output_0_splitncnn_4 /backbone/blocks6/blocks6.0/pw_conv/act/lab/Add_output_0_splitncnn_5
BatchNorm                /backbone/blocks6/blocks6.1/dw_conv/identity/BatchNormalization 1 1 /backbone/blocks6/blocks6.0/pw_conv/act/lab/Add_output_0_splitncnn_5 /backbone/blocks6/blocks6.1/dw_conv/identity/BatchNormalization_output_0 0=480
BinaryOp                 /backbone/blocks6/blocks6.1/dw_conv/Add 1 1 /backbone/blocks6/blocks6.1/dw_conv/identity/BatchNormalization_output_0 /backbone/blocks6/blocks6.1/dw_conv/Add_output_0 1=1
ConvolutionDepthWise     /backbone/blocks6/blocks6.1/dw_conv/conv_1x1/conv/Conv 1 1 /backbone/blocks6/blocks6.0/pw_conv/act/lab/Add_output_0_splitncnn_4 /backbone/blocks6/blocks6.1/dw_conv/conv_1x1/conv/Conv_output_0 0=480 1=1 5=1 6=480 7=480
BinaryOp                 /backbone/blocks6/blocks6.1/dw_conv/Add_1 2 1 /backbone/blocks6/blocks6.1/dw_conv/Add_output_0 /backbone/blocks6/blocks6.1/dw_conv/conv_1x1/conv/Conv_output_0 /backbone/blocks6/blocks6.1/dw_conv/Add_1_output_0
ConvolutionDepthWise     /backbone/blocks6/blocks6.1/dw_conv/conv_kxk.0/conv/Conv 1 1 /backbone/blocks6/blocks6.0/pw_conv/act/lab/Add_output_0_splitncnn_3 /backbone/blocks6/blocks6.1/dw_conv/conv_kxk.0/conv/Conv_output_0 0=480 1=5 4=2 5=1 6=12000 7=480
BinaryOp                 /backbone/blocks6/blocks6.1/dw_conv/Add_2 2 1 /backbone/blocks6/blocks6.1/dw_conv/Add_1_output_0 /backbone/blocks6/blocks6.1/dw_conv/conv_kxk.0/conv/Conv_output_0 /backbone/blocks6/blocks6.1/dw_conv/Add_2_output_0
ConvolutionDepthWise     /backbone/blocks6/blocks6.1/dw_conv/conv_kxk.1/conv/Conv 1 1 /backbone/blocks6/blocks6.0/pw_conv/act/lab/Add_output_0_splitncnn_2 /backbone/blocks6/blocks6.1/dw_conv/conv_kxk.1/conv/Conv_output_0 0=480 1=5 4=2 5=1 6=12000 7=480
BinaryOp                 /backbone/blocks6/blocks6.1/dw_conv/Add_3 2 1 /backbone/blocks6/blocks6.1/dw_conv/Add_2_output_0 /backbone/blocks6/blocks6.1/dw_conv/conv_kxk.1/conv/Conv_output_0 /backbone/blocks6/blocks6.1/dw_conv/Add_3_output_0
ConvolutionDepthWise     /backbone/blocks6/blocks6.1/dw_conv/conv_kxk.2/conv/Conv 1 1 /backbone/blocks6/blocks6.0/pw_conv/act/lab/Add_output_0_splitncnn_1 /backbone/blocks6/blocks6.1/dw_conv/conv_kxk.2/conv/Conv_output_0 0=480 1=5 4=2 5=1 6=12000 7=480
BinaryOp                 /backbone/blocks6/blocks6.1/dw_conv/Add_4 2 1 /backbone/blocks6/blocks6.1/dw_conv/Add_3_output_0 /backbone/blocks6/blocks6.1/dw_conv/conv_kxk.2/conv/Conv_output_0 /backbone/blocks6/blocks6.1/dw_conv/Add_4_output_0
ConvolutionDepthWise     /backbone/blocks6/blocks6.1/dw_conv/conv_kxk.3/conv/Conv 1 1 /backbone/blocks6/blocks6.0/pw_conv/act/lab/Add_output_0_splitncnn_0 /backbone/blocks6/blocks6.1/dw_conv/conv_kxk.3/conv/Conv_output_0 0=480 1=5 4=2 5=1 6=12000 7=480
BinaryOp                 /backbone/blocks6/blocks6.1/dw_conv/Add_5 2 1 /backbone/blocks6/blocks6.1/dw_conv/Add_4_output_0 /backbone/blocks6/blocks6.1/dw_conv/conv_kxk.3/conv/Conv_output_0 /backbone/blocks6/blocks6.1/dw_conv/Add_5_output_0
BinaryOp                 /backbone/blocks6/blocks6.1/dw_conv/lab/Mul 1 1 /backbone/blocks6/blocks6.1/dw_conv/Add_5_output_0 /backbone/blocks6/blocks6.1/dw_conv/lab/Mul_output_0 0=2 1=1 2=2.179476e+00
BinaryOp                 /backbone/blocks6/blocks6.1/dw_conv/lab/Add 1 1 /backbone/blocks6/blocks6.1/dw_conv/lab/Mul_output_0 /backbone/blocks6/blocks6.1/dw_conv/lab/Add_output_0 1=1 2=2.459434e-01
HardSwish                /backbone/blocks6/blocks6.1/dw_conv/act/act/Mul 1 1 /backbone/blocks6/blocks6.1/dw_conv/lab/Add_output_0 /backbone/blocks6/blocks6.1/dw_conv/act/act/Mul_output_0 0=1.666667e-01
BinaryOp                 /backbone/blocks6/blocks6.1/dw_conv/act/lab/Mul 1 1 /backbone/blocks6/blocks6.1/dw_conv/act/act/Mul_output_0 /backbone/blocks6/blocks6.1/dw_conv/act/lab/Mul_output_0 0=2 1=1 2=1.983662e+00
BinaryOp                 /backbone/blocks6/blocks6.1/dw_conv/act/lab/Add 1 1 /backbone/blocks6/blocks6.1/dw_conv/act/lab/Mul_output_0 /backbone/blocks6/blocks6.1/dw_conv/act/lab/Add_output_0 1=1 2=-7.467775e-01
Split                    splitncnn_24             1 2 /backbone/blocks6/blocks6.1/dw_conv/act/lab/Add_output_0 /backbone/blocks6/blocks6.1/dw_conv/act/lab/Add_output_0_splitncnn_0 /backbone/blocks6/blocks6.1/dw_conv/act/lab/Add_output_0_splitncnn_1
Pooling                  /backbone/blocks6/blocks6.1/se/avg_pool/GlobalAveragePool 1 1 /backbone/blocks6/blocks6.1/dw_conv/act/lab/Add_output_0_splitncnn_1 /backbone/blocks6/blocks6.1/se/avg_pool/GlobalAveragePool_output_0 0=1 4=1
InnerProduct             /backbone/blocks6/blocks6.1/se/conv1/Conv 1 1 /backbone/blocks6/blocks6.1/se/avg_pool/GlobalAveragePool_output_0 /backbone/blocks6/blocks6.1/se/relu/Relu_output_0 0=120 1=1 2=57600 9=1
InnerProduct             /backbone/blocks6/blocks6.1/se/conv2/Conv 1 1 /backbone/blocks6/blocks6.1/se/relu/Relu_output_0 /backbone/blocks6/blocks6.1/se/conv2/Conv_output_0 0=480 1=1 2=57600
HardSigmoid              /backbone/blocks6/blocks6.1/se/hardsigmoid/HardSigmoid 1 1 /backbone/blocks6/blocks6.1/se/conv2/Conv_output_0 /backbone/blocks6/blocks6.1/se/hardsigmoid/HardSigmoid_output_0 0=1.666667e-01
BinaryOp                 /backbone/blocks6/blocks6.1/se/Mul 2 1 /backbone/blocks6/blocks6.1/dw_conv/act/lab/Add_output_0_splitncnn_0 /backbone/blocks6/blocks6.1/se/hardsigmoid/HardSigmoid_output_0 /backbone/blocks6/blocks6.1/se/Mul_output_0 0=2
Split                    splitncnn_25             1 5 /backbone/blocks6/blocks6.1/se/Mul_output_0 /backbone/blocks6/blocks6.1/se/Mul_output_0_splitncnn_0 /backbone/blocks6/blocks6.1/se/Mul_output_0_splitncnn_1 /backbone/blocks6/blocks6.1/se/Mul_output_0_splitncnn_2 /backbone/blocks6/blocks6.1/se/Mul_output_0_splitncnn_3 /backbone/blocks6/blocks6.1/se/Mul_output_0_splitncnn_4
BatchNorm                /backbone/blocks6/blocks6.1/pw_conv/identity/BatchNormalization 1 1 /backbone/blocks6/blocks6.1/se/Mul_output_0_splitncnn_4 /backbone/blocks6/blocks6.1/pw_conv/identity/BatchNormalization_output_0 0=480
BinaryOp                 /backbone/blocks6/blocks6.1/pw_conv/Add 1 1 /backbone/blocks6/blocks6.1/pw_conv/identity/BatchNormalization_output_0 /backbone/blocks6/blocks6.1/pw_conv/Add_output_0 1=1
Convolution              /backbone/blocks6/blocks6.1/pw_conv/conv_kxk.0/conv/Conv 1 1 /backbone/blocks6/blocks6.1/se/Mul_output_0_splitncnn_3 /backbone/blocks6/blocks6.1/pw_conv/conv_kxk.0/conv/Conv_output_0 0=480 1=1 5=1 6=230400
BinaryOp                 /backbone/blocks6/blocks6.1/pw_conv/Add_1 2 1 /backbone/blocks6/blocks6.1/pw_conv/Add_output_0 /backbone/blocks6/blocks6.1/pw_conv/conv_kxk.0/conv/Conv_output_0 /backbone/blocks6/blocks6.1/pw_conv/Add_1_output_0
Convolution              /backbone/blocks6/blocks6.1/pw_conv/conv_kxk.1/conv/Conv 1 1 /backbone/blocks6/blocks6.1/se/Mul_output_0_splitncnn_2 /backbone/blocks6/blocks6.1/pw_conv/conv_kxk.1/conv/Conv_output_0 0=480 1=1 5=1 6=230400
BinaryOp                 /backbone/blocks6/blocks6.1/pw_conv/Add_2 2 1 /backbone/blocks6/blocks6.1/pw_conv/Add_1_output_0 /backbone/blocks6/blocks6.1/pw_conv/conv_kxk.1/conv/Conv_output_0 /backbone/blocks6/blocks6.1/pw_conv/Add_2_output_0
Convolution              /backbone/blocks6/blocks6.1/pw_conv/conv_kxk.2/conv/Conv 1 1 /backbone/blocks6/blocks6.1/se/Mul_output_0_splitncnn_1 /backbone/blocks6/blocks6.1/pw_conv/conv_kxk.2/conv/Conv_output_0 0=480 1=1 5=1 6=230400
BinaryOp                 /backbone/blocks6/blocks6.1/pw_conv/Add_3 2 1 /backbone/blocks6/blocks6.1/pw_conv/Add_2_output_0 /backbone/blocks6/blocks6.1/pw_conv/conv_kxk.2/conv/Conv_output_0 /backbone/blocks6/blocks6.1/pw_conv/Add_3_output_0
Convolution              /backbone/blocks6/blocks6.1/pw_conv/conv_kxk.3/conv/Conv 1 1 /backbone/blocks6/blocks6.1/se/Mul_output_0_splitncnn_0 /backbone/blocks6/blocks6.1/pw_conv/conv_kxk.3/conv/Conv_output_0 0=480 1=1 5=1 6=230400
BinaryOp                 /backbone/blocks6/blocks6.1/pw_conv/Add_4 2 1 /backbone/blocks6/blocks6.1/pw_conv/Add_3_output_0 /backbone/blocks6/blocks6.1/pw_conv/conv_kxk.3/conv/Conv_output_0 /backbone/blocks6/blocks6.1/pw_conv/Add_4_output_0
BinaryOp                 /backbone/blocks6/blocks6.1/pw_conv/lab/Mul 1 1 /backbone/blocks6/blocks6.1/pw_conv/Add_4_output_0 /backbone/blocks6/blocks6.1/pw_conv/lab/Mul_output_0 0=2 1=1 2=2.586924e+00
BinaryOp                 /backbone/blocks6/blocks6.1/pw_conv/lab/Add 1 1 /backbone/blocks6/blocks6.1/pw_conv/lab/Mul_output_0 /backbone/blocks6/blocks6.1/pw_conv/lab/Add_output_0 1=1 2=-8.015537e-01
HardSwish                /backbone/blocks6/blocks6.1/pw_conv/act/act/Mul 1 1 /backbone/blocks6/blocks6.1/pw_conv/lab/Add_output_0 /backbone/blocks6/blocks6.1/pw_conv/act/act/Mul_output_0 0=1.666667e-01
BinaryOp                 /backbone/blocks6/blocks6.1/pw_conv/act/lab/Mul 1 1 /backbone/blocks6/blocks6.1/pw_conv/act/act/Mul_output_0 /backbone/blocks6/blocks6.1/pw_conv/act/lab/Mul_output_0 0=2 1=1 2=6.589833e-01
BinaryOp                 /backbone/blocks6/blocks6.1/pw_conv/act/lab/Add 1 1 /backbone/blocks6/blocks6.1/pw_conv/act/lab/Mul_output_0 /backbone/blocks6/blocks6.1/pw_conv/act/lab/Add_output_0 1=1 2=2.119369e-01
Split                    splitncnn_26             1 5 /backbone/blocks6/blocks6.1/pw_conv/act/lab/Add_output_0 /backbone/blocks6/blocks6.1/pw_conv/act/lab/Add_output_0_splitncnn_0 /backbone/blocks6/blocks6.1/pw_conv/act/lab/Add_output_0_splitncnn_1 /backbone/blocks6/blocks6.1/pw_conv/act/lab/Add_output_0_splitncnn_2 /backbone/blocks6/blocks6.1/pw_conv/act/lab/Add_output_0_splitncnn_3 /backbone/blocks6/blocks6.1/pw_conv/act/lab/Add_output_0_splitncnn_4
ConvolutionDepthWise     /backbone/blocks6/blocks6.2/dw_conv/conv_1x1/conv/Conv 1 1 /backbone/blocks6/blocks6.1/pw_conv/act/lab/Add_output_0_splitncnn_4 /backbone/blocks6/blocks6.2/dw_conv/conv_1x1/conv/Conv_output_0 0=480 1=1 13=2 5=1 6=480 7=480
BinaryOp                 /backbone/blocks6/blocks6.2/dw_conv/Add 1 1 /backbone/blocks6/blocks6.2/dw_conv/conv_1x1/conv/Conv_output_0 /backbone/blocks6/blocks6.2/dw_conv/Add_output_0 1=1
ConvolutionDepthWise     /backbone/blocks6/blocks6.2/dw_conv/conv_kxk.0/conv/Conv 1 1 /backbone/blocks6/blocks6.1/pw_conv/act/lab/Add_output_0_splitncnn_3 /backbone/blocks6/blocks6.2/dw_conv/conv_kxk.0/conv/Conv_output_0 0=480 1=5 13=2 4=2 5=1 6=12000 7=480
BinaryOp                 /backbone/blocks6/blocks6.2/dw_conv/Add_1 2 1 /backbone/blocks6/blocks6.2/dw_conv/Add_output_0 /backbone/blocks6/blocks6.2/dw_conv/conv_kxk.0/conv/Conv_output_0 /backbone/blocks6/blocks6.2/dw_conv/Add_1_output_0
ConvolutionDepthWise     /backbone/blocks6/blocks6.2/dw_conv/conv_kxk.1/conv/Conv 1 1 /backbone/blocks6/blocks6.1/pw_conv/act/lab/Add_output_0_splitncnn_2 /backbone/blocks6/blocks6.2/dw_conv/conv_kxk.1/conv/Conv_output_0 0=480 1=5 13=2 4=2 5=1 6=12000 7=480
BinaryOp                 /backbone/blocks6/blocks6.2/dw_conv/Add_2 2 1 /backbone/blocks6/blocks6.2/dw_conv/Add_1_output_0 /backbone/blocks6/blocks6.2/dw_conv/conv_kxk.1/conv/Conv_output_0 /backbone/blocks6/blocks6.2/dw_conv/Add_2_output_0
ConvolutionDepthWise     /backbone/blocks6/blocks6.2/dw_conv/conv_kxk.2/conv/Conv 1 1 /backbone/blocks6/blocks6.1/pw_conv/act/lab/Add_output_0_splitncnn_1 /backbone/blocks6/blocks6.2/dw_conv/conv_kxk.2/conv/Conv_output_0 0=480 1=5 13=2 4=2 5=1 6=12000 7=480
BinaryOp                 /backbone/blocks6/blocks6.2/dw_conv/Add_3 2 1 /backbone/blocks6/blocks6.2/dw_conv/Add_2_output_0 /backbone/blocks6/blocks6.2/dw_conv/conv_kxk.2/conv/Conv_output_0 /backbone/blocks6/blocks6.2/dw_conv/Add_3_output_0
ConvolutionDepthWise     /backbone/blocks6/blocks6.2/dw_conv/conv_kxk.3/conv/Conv 1 1 /backbone/blocks6/blocks6.1/pw_conv/act/lab/Add_output_0_splitncnn_0 /backbone/blocks6/blocks6.2/dw_conv/conv_kxk.3/conv/Conv_output_0 0=480 1=5 13=2 4=2 5=1 6=12000 7=480
BinaryOp                 /backbone/blocks6/blocks6.2/dw_conv/Add_4 2 1 /backbone/blocks6/blocks6.2/dw_conv/Add_3_output_0 /backbone/blocks6/blocks6.2/dw_conv/conv_kxk.3/conv/Conv_output_0 /backbone/blocks6/blocks6.2/dw_conv/Add_4_output_0
BinaryOp                 /backbone/blocks6/blocks6.2/dw_conv/lab/Mul 1 1 /backbone/blocks6/blocks6.2/dw_conv/Add_4_output_0 /backbone/blocks6/blocks6.2/dw_conv/lab/Mul_output_0 0=2 1=1 2=2.348032e+00
BinaryOp                 /backbone/blocks6/blocks6.2/dw_conv/lab/Add 1 1 /backbone/blocks6/blocks6.2/dw_conv/lab/Mul_output_0 /backbone/blocks6/blocks6.2/dw_conv/lab/Add_output_0 1=1 2=1.665339e+00
HardSwish                /backbone/blocks6/blocks6.2/dw_conv/act/act/Mul 1 1 /backbone/blocks6/blocks6.2/dw_conv/lab/Add_output_0 /backbone/blocks6/blocks6.2/dw_conv/act/act/Mul_output_0 0=1.666667e-01
BinaryOp                 /backbone/blocks6/blocks6.2/dw_conv/act/lab/Mul 1 1 /backbone/blocks6/blocks6.2/dw_conv/act/act/Mul_output_0 /backbone/blocks6/blocks6.2/dw_conv/act/lab/Mul_output_0 0=2 1=1 2=7.098751e-02
BinaryOp                 /backbone/blocks6/blocks6.2/dw_conv/act/lab/Add 1 1 /backbone/blocks6/blocks6.2/dw_conv/act/lab/Mul_output_0 /backbone/blocks6/blocks6.2/dw_conv/act/lab/Add_output_0 1=1 2=2.780899e-04
Split                    splitncnn_27             1 5 /backbone/blocks6/blocks6.2/dw_conv/act/lab/Add_output_0 /backbone/blocks6/blocks6.2/dw_conv/act/lab/Add_output_0_splitncnn_0 /backbone/blocks6/blocks6.2/dw_conv/act/lab/Add_output_0_splitncnn_1 /backbone/blocks6/blocks6.2/dw_conv/act/lab/Add_output_0_splitncnn_2 /backbone/blocks6/blocks6.2/dw_conv/act/lab/Add_output_0_splitncnn_3 /backbone/blocks6/blocks6.2/dw_conv/act/lab/Add_output_0_splitncnn_4
BatchNorm                /backbone/blocks6/blocks6.2/pw_conv/identity/BatchNormalization 1 1 /backbone/blocks6/blocks6.2/dw_conv/act/lab/Add_output_0_splitncnn_4 /backbone/blocks6/blocks6.2/pw_conv/identity/BatchNormalization_output_0 0=480
BinaryOp                 /backbone/blocks6/blocks6.2/pw_conv/Add 1 1 /backbone/blocks6/blocks6.2/pw_conv/identity/BatchNormalization_output_0 /backbone/blocks6/blocks6.2/pw_conv/Add_output_0 1=1
Convolution              /backbone/blocks6/blocks6.2/pw_conv/conv_kxk.0/conv/Conv 1 1 /backbone/blocks6/blocks6.2/dw_conv/act/lab/Add_output_0_splitncnn_3 /backbone/blocks6/blocks6.2/pw_conv/conv_kxk.0/conv/Conv_output_0 0=480 1=1 5=1 6=230400
BinaryOp                 /backbone/blocks6/blocks6.2/pw_conv/Add_1 2 1 /backbone/blocks6/blocks6.2/pw_conv/Add_output_0 /backbone/blocks6/blocks6.2/pw_conv/conv_kxk.0/conv/Conv_output_0 /backbone/blocks6/blocks6.2/pw_conv/Add_1_output_0
Convolution              /backbone/blocks6/blocks6.2/pw_conv/conv_kxk.1/conv/Conv 1 1 /backbone/blocks6/blocks6.2/dw_conv/act/lab/Add_output_0_splitncnn_2 /backbone/blocks6/blocks6.2/pw_conv/conv_kxk.1/conv/Conv_output_0 0=480 1=1 5=1 6=230400
BinaryOp                 /backbone/blocks6/blocks6.2/pw_conv/Add_2 2 1 /backbone/blocks6/blocks6.2/pw_conv/Add_1_output_0 /backbone/blocks6/blocks6.2/pw_conv/conv_kxk.1/conv/Conv_output_0 /backbone/blocks6/blocks6.2/pw_conv/Add_2_output_0
Convolution              /backbone/blocks6/blocks6.2/pw_conv/conv_kxk.2/conv/Conv 1 1 /backbone/blocks6/blocks6.2/dw_conv/act/lab/Add_output_0_splitncnn_1 /backbone/blocks6/blocks6.2/pw_conv/conv_kxk.2/conv/Conv_output_0 0=480 1=1 5=1 6=230400
BinaryOp                 /backbone/blocks6/blocks6.2/pw_conv/Add_3 2 1 /backbone/blocks6/blocks6.2/pw_conv/Add_2_output_0 /backbone/blocks6/blocks6.2/pw_conv/conv_kxk.2/conv/Conv_output_0 /backbone/blocks6/blocks6.2/pw_conv/Add_3_output_0
Convolution              /backbone/blocks6/blocks6.2/pw_conv/conv_kxk.3/conv/Conv 1 1 /backbone/blocks6/blocks6.2/dw_conv/act/lab/Add_output_0_splitncnn_0 /backbone/blocks6/blocks6.2/pw_conv/conv_kxk.3/conv/Conv_output_0 0=480 1=1 5=1 6=230400
BinaryOp                 /backbone/blocks6/blocks6.2/pw_conv/Add_4 2 1 /backbone/blocks6/blocks6.2/pw_conv/Add_3_output_0 /backbone/blocks6/blocks6.2/pw_conv/conv_kxk.3/conv/Conv_output_0 /backbone/blocks6/blocks6.2/pw_conv/Add_4_output_0
BinaryOp                 /backbone/blocks6/blocks6.2/pw_conv/lab/Mul 1 1 /backbone/blocks6/blocks6.2/pw_conv/Add_4_output_0 /backbone/blocks6/blocks6.2/pw_conv/lab/Mul_output_0 0=2 1=1 2=3.173168e+00
BinaryOp                 /backbone/blocks6/blocks6.2/pw_conv/lab/Add 1 1 /backbone/blocks6/blocks6.2/pw_conv/lab/Mul_output_0 /backbone/blocks6/blocks6.2/pw_conv/lab/Add_output_0 1=1 2=-6.365986e-01
HardSwish                /backbone/blocks6/blocks6.2/pw_conv/act/act/Mul 1 1 /backbone/blocks6/blocks6.2/pw_conv/lab/Add_output_0 /backbone/blocks6/blocks6.2/pw_conv/act/act/Mul_output_0 0=1.666667e-01
BinaryOp                 /backbone/blocks6/blocks6.2/pw_conv/act/lab/Mul 1 1 /backbone/blocks6/blocks6.2/pw_conv/act/act/Mul_output_0 /backbone/blocks6/blocks6.2/pw_conv/act/lab/Mul_output_0 0=2 1=1 2=4.656531e-01
BinaryOp                 /backbone/blocks6/blocks6.2/pw_conv/act/lab/Add 1 1 /backbone/blocks6/blocks6.2/pw_conv/act/lab/Mul_output_0 /backbone/blocks6/blocks6.2/pw_conv/act/lab/Add_output_0 1=1 2=1.285813e-01
Split                    splitncnn_28             1 6 /backbone/blocks6/blocks6.2/pw_conv/act/lab/Add_output_0 /backbone/blocks6/blocks6.2/pw_conv/act/lab/Add_output_0_splitncnn_0 /backbone/blocks6/blocks6.2/pw_conv/act/lab/Add_output_0_splitncnn_1 /backbone/blocks6/blocks6.2/pw_conv/act/lab/Add_output_0_splitncnn_2 /backbone/blocks6/blocks6.2/pw_conv/act/lab/Add_output_0_splitncnn_3 /backbone/blocks6/blocks6.2/pw_conv/act/lab/Add_output_0_splitncnn_4 /backbone/blocks6/blocks6.2/pw_conv/act/lab/Add_output_0_splitncnn_5
BatchNorm                /backbone/blocks6/blocks6.3/dw_conv/identity/BatchNormalization 1 1 /backbone/blocks6/blocks6.2/pw_conv/act/lab/Add_output_0_splitncnn_5 /backbone/blocks6/blocks6.3/dw_conv/identity/BatchNormalization_output_0 0=480
BinaryOp                 /backbone/blocks6/blocks6.3/dw_conv/Add 1 1 /backbone/blocks6/blocks6.3/dw_conv/identity/BatchNormalization_output_0 /backbone/blocks6/blocks6.3/dw_conv/Add_output_0 1=1
ConvolutionDepthWise     /backbone/blocks6/blocks6.3/dw_conv/conv_1x1/conv/Conv 1 1 /backbone/blocks6/blocks6.2/pw_conv/act/lab/Add_output_0_splitncnn_4 /backbone/blocks6/blocks6.3/dw_conv/conv_1x1/conv/Conv_output_0 0=480 1=1 5=1 6=480 7=480
BinaryOp                 /backbone/blocks6/blocks6.3/dw_conv/Add_1 2 1 /backbone/blocks6/blocks6.3/dw_conv/Add_output_0 /backbone/blocks6/blocks6.3/dw_conv/conv_1x1/conv/Conv_output_0 /backbone/blocks6/blocks6.3/dw_conv/Add_1_output_0
ConvolutionDepthWise     /backbone/blocks6/blocks6.3/dw_conv/conv_kxk.0/conv/Conv 1 1 /backbone/blocks6/blocks6.2/pw_conv/act/lab/Add_output_0_splitncnn_3 /backbone/blocks6/blocks6.3/dw_conv/conv_kxk.0/conv/Conv_output_0 0=480 1=5 4=2 5=1 6=12000 7=480
BinaryOp                 /backbone/blocks6/blocks6.3/dw_conv/Add_2 2 1 /backbone/blocks6/blocks6.3/dw_conv/Add_1_output_0 /backbone/blocks6/blocks6.3/dw_conv/conv_kxk.0/conv/Conv_output_0 /backbone/blocks6/blocks6.3/dw_conv/Add_2_output_0
ConvolutionDepthWise     /backbone/blocks6/blocks6.3/dw_conv/conv_kxk.1/conv/Conv 1 1 /backbone/blocks6/blocks6.2/pw_conv/act/lab/Add_output_0_splitncnn_2 /backbone/blocks6/blocks6.3/dw_conv/conv_kxk.1/conv/Conv_output_0 0=480 1=5 4=2 5=1 6=12000 7=480
BinaryOp                 /backbone/blocks6/blocks6.3/dw_conv/Add_3 2 1 /backbone/blocks6/blocks6.3/dw_conv/Add_2_output_0 /backbone/blocks6/blocks6.3/dw_conv/conv_kxk.1/conv/Conv_output_0 /backbone/blocks6/blocks6.3/dw_conv/Add_3_output_0
ConvolutionDepthWise     /backbone/blocks6/blocks6.3/dw_conv/conv_kxk.2/conv/Conv 1 1 /backbone/blocks6/blocks6.2/pw_conv/act/lab/Add_output_0_splitncnn_1 /backbone/blocks6/blocks6.3/dw_conv/conv_kxk.2/conv/Conv_output_0 0=480 1=5 4=2 5=1 6=12000 7=480
BinaryOp                 /backbone/blocks6/blocks6.3/dw_conv/Add_4 2 1 /backbone/blocks6/blocks6.3/dw_conv/Add_3_output_0 /backbone/blocks6/blocks6.3/dw_conv/conv_kxk.2/conv/Conv_output_0 /backbone/blocks6/blocks6.3/dw_conv/Add_4_output_0
ConvolutionDepthWise     /backbone/blocks6/blocks6.3/dw_conv/conv_kxk.3/conv/Conv 1 1 /backbone/blocks6/blocks6.2/pw_conv/act/lab/Add_output_0_splitncnn_0 /backbone/blocks6/blocks6.3/dw_conv/conv_kxk.3/conv/Conv_output_0 0=480 1=5 4=2 5=1 6=12000 7=480
BinaryOp                 /backbone/blocks6/blocks6.3/dw_conv/Add_5 2 1 /backbone/blocks6/blocks6.3/dw_conv/Add_4_output_0 /backbone/blocks6/blocks6.3/dw_conv/conv_kxk.3/conv/Conv_output_0 /backbone/blocks6/blocks6.3/dw_conv/Add_5_output_0
BinaryOp                 /backbone/blocks6/blocks6.3/dw_conv/lab/Mul 1 1 /backbone/blocks6/blocks6.3/dw_conv/Add_5_output_0 /backbone/blocks6/blocks6.3/dw_conv/lab/Mul_output_0 0=2 1=1 2=2.981040e+00
BinaryOp                 /backbone/blocks6/blocks6.3/dw_conv/lab/Add 1 1 /backbone/blocks6/blocks6.3/dw_conv/lab/Mul_output_0 /backbone/blocks6/blocks6.3/dw_conv/lab/Add_output_0 1=1 2=1.155505e-01
HardSwish                /backbone/blocks6/blocks6.3/dw_conv/act/act/Mul 1 1 /backbone/blocks6/blocks6.3/dw_conv/lab/Add_output_0 /backbone/blocks6/blocks6.3/dw_conv/act/act/Mul_output_0 0=1.666667e-01
BinaryOp                 /backbone/blocks6/blocks6.3/dw_conv/act/lab/Mul 1 1 /backbone/blocks6/blocks6.3/dw_conv/act/act/Mul_output_0 /backbone/blocks6/blocks6.3/dw_conv/act/lab/Mul_output_0 0=2 1=1 2=3.976384e-01
BinaryOp                 /backbone/blocks6/blocks6.3/dw_conv/act/lab/Add 1 1 /backbone/blocks6/blocks6.3/dw_conv/act/lab/Mul_output_0 /backbone/blocks6/blocks6.3/dw_conv/act/lab/Add_output_0 1=1 2=2.775773e-05
Split                    splitncnn_29             1 5 /backbone/blocks6/blocks6.3/dw_conv/act/lab/Add_output_0 /backbone/blocks6/blocks6.3/dw_conv/act/lab/Add_output_0_splitncnn_0 /backbone/blocks6/blocks6.3/dw_conv/act/lab/Add_output_0_splitncnn_1 /backbone/blocks6/blocks6.3/dw_conv/act/lab/Add_output_0_splitncnn_2 /backbone/blocks6/blocks6.3/dw_conv/act/lab/Add_output_0_splitncnn_3 /backbone/blocks6/blocks6.3/dw_conv/act/lab/Add_output_0_splitncnn_4
BatchNorm                /backbone/blocks6/blocks6.3/pw_conv/identity/BatchNormalization 1 1 /backbone/blocks6/blocks6.3/dw_conv/act/lab/Add_output_0_splitncnn_4 /backbone/blocks6/blocks6.3/pw_conv/identity/BatchNormalization_output_0 0=480
BinaryOp                 /backbone/blocks6/blocks6.3/pw_conv/Add 1 1 /backbone/blocks6/blocks6.3/pw_conv/identity/BatchNormalization_output_0 /backbone/blocks6/blocks6.3/pw_conv/Add_output_0 1=1
Convolution              /backbone/blocks6/blocks6.3/pw_conv/conv_kxk.0/conv/Conv 1 1 /backbone/blocks6/blocks6.3/dw_conv/act/lab/Add_output_0_splitncnn_3 /backbone/blocks6/blocks6.3/pw_conv/conv_kxk.0/conv/Conv_output_0 0=480 1=1 5=1 6=230400
BinaryOp                 /backbone/blocks6/blocks6.3/pw_conv/Add_1 2 1 /backbone/blocks6/blocks6.3/pw_conv/Add_output_0 /backbone/blocks6/blocks6.3/pw_conv/conv_kxk.0/conv/Conv_output_0 /backbone/blocks6/blocks6.3/pw_conv/Add_1_output_0
Convolution              /backbone/blocks6/blocks6.3/pw_conv/conv_kxk.1/conv/Conv 1 1 /backbone/blocks6/blocks6.3/dw_conv/act/lab/Add_output_0_splitncnn_2 /backbone/blocks6/blocks6.3/pw_conv/conv_kxk.1/conv/Conv_output_0 0=480 1=1 5=1 6=230400
BinaryOp                 /backbone/blocks6/blocks6.3/pw_conv/Add_2 2 1 /backbone/blocks6/blocks6.3/pw_conv/Add_1_output_0 /backbone/blocks6/blocks6.3/pw_conv/conv_kxk.1/conv/Conv_output_0 /backbone/blocks6/blocks6.3/pw_conv/Add_2_output_0
Convolution              /backbone/blocks6/blocks6.3/pw_conv/conv_kxk.2/conv/Conv 1 1 /backbone/blocks6/blocks6.3/dw_conv/act/lab/Add_output_0_splitncnn_1 /backbone/blocks6/blocks6.3/pw_conv/conv_kxk.2/conv/Conv_output_0 0=480 1=1 5=1 6=230400
BinaryOp                 /backbone/blocks6/blocks6.3/pw_conv/Add_3 2 1 /backbone/blocks6/blocks6.3/pw_conv/Add_2_output_0 /backbone/blocks6/blocks6.3/pw_conv/conv_kxk.2/conv/Conv_output_0 /backbone/blocks6/blocks6.3/pw_conv/Add_3_output_0
Convolution              /backbone/blocks6/blocks6.3/pw_conv/conv_kxk.3/conv/Conv 1 1 /backbone/blocks6/blocks6.3/dw_conv/act/lab/Add_output_0_splitncnn_0 /backbone/blocks6/blocks6.3/pw_conv/conv_kxk.3/conv/Conv_output_0 0=480 1=1 5=1 6=230400
BinaryOp                 /backbone/blocks6/blocks6.3/pw_conv/Add_4 2 1 /backbone/blocks6/blocks6.3/pw_conv/Add_3_output_0 /backbone/blocks6/blocks6.3/pw_conv/conv_kxk.3/conv/Conv_output_0 /backbone/blocks6/blocks6.3/pw_conv/Add_4_output_0
BinaryOp                 /backbone/blocks6/blocks6.3/pw_conv/lab/Mul 1 1 /backbone/blocks6/blocks6.3/pw_conv/Add_4_output_0 /backbone/blocks6/blocks6.3/pw_conv/lab/Mul_output_0 0=2 1=1 2=3.725856e+00
BinaryOp                 /backbone/blocks6/blocks6.3/pw_conv/lab/Add 1 1 /backbone/blocks6/blocks6.3/pw_conv/lab/Mul_output_0 /backbone/blocks6/blocks6.3/pw_conv/lab/Add_output_0 1=1 2=-3.639896e-01
HardSwish                /backbone/blocks6/blocks6.3/pw_conv/act/act/Mul 1 1 /backbone/blocks6/blocks6.3/pw_conv/lab/Add_output_0 /backbone/blocks6/blocks6.3/pw_conv/act/act/Mul_output_0 0=1.666667e-01
BinaryOp                 /backbone/blocks6/blocks6.3/pw_conv/act/lab/Mul 1 1 /backbone/blocks6/blocks6.3/pw_conv/act/act/Mul_output_0 /backbone/blocks6/blocks6.3/pw_conv/act/lab/Mul_output_0 0=2 1=1 2=3.348482e+00
BinaryOp                 /backbone/blocks6/blocks6.3/pw_conv/act/lab/Add 1 1 /backbone/blocks6/blocks6.3/pw_conv/act/lab/Mul_output_0 /backbone/blocks6/blocks6.3/pw_conv/act/lab/Add_output_0 1=1 2=-7.174185e-02
Pooling                  /backbone/AveragePool    1 1 /backbone/blocks6/blocks6.3/pw_conv/act/lab/Add_output_0 /backbone/AveragePool_output_0 0=1 1=2 11=3 2=2 12=3 5=1
Split                    splitncnn_30             1 2 /backbone/AveragePool_output_0 /backbone/AveragePool_output_0_splitncnn_0 /backbone/AveragePool_output_0_splitncnn_1
Convolution              /head/ctc_encoder/encoder/conv1/conv/Conv 1 1 /backbone/AveragePool_output_0_splitncnn_1 /head/ctc_encoder/encoder/conv1/conv/Conv_output_0 0=60 1=3 11=1 4=1 14=0 5=1 6=86400
Swish                    /head/ctc_encoder/encoder/conv1/act/act/Mul 1 1 /head/ctc_encoder/encoder/conv1/conv/Conv_output_0 /head/ctc_encoder/encoder/conv1/act/act/Mul_output_0
Convolution              /head/ctc_encoder/encoder/conv2/conv/Conv 1 1 /head/ctc_encoder/encoder/conv1/act/act/Mul_output_0 /head/ctc_encoder/encoder/conv2/conv/Conv_output_0 0=120 1=1 5=1 6=7200
Swish                    /head/ctc_encoder/encoder/conv2/act/act/Mul 1 1 /head/ctc_encoder/encoder/conv2/conv/Conv_output_0 /head/ctc_encoder/encoder/conv2/act/act/Mul_output_0
Reshape                  /head/ctc_encoder/encoder/Reshape 1 1 /head/ctc_encoder/encoder/conv2/act/act/Mul_output_0 /head/ctc_encoder/encoder/Reshape_output_0 0=-1 1=120
Permute                  /head/ctc_encoder/encoder/Transpose 1 1 /head/ctc_encoder/encoder/Reshape_output_0 /head/ctc_encoder/encoder/Transpose_output_0 0=1
Split                    splitncnn_31             1 2 /head/ctc_encoder/encoder/Transpose_output_0 /head/ctc_encoder/encoder/Transpose_output_0_splitncnn_0 /head/ctc_encoder/encoder/Transpose_output_0_splitncnn_1
LayerNorm                /head/ctc_encoder/encoder/svtr_block.0/norm1/Add_1 1 1 /head/ctc_encoder/encoder/Transpose_output_0_splitncnn_1 /head/ctc_encoder/encoder/svtr_block.0/norm1/Add_1_output_0 0=120 1=1.000000e-05
Split                    splitncnn_32             1 3 /head/ctc_encoder/encoder/svtr_block.0/norm1/Add_1_output_0 /head/ctc_encoder/encoder/svtr_block.0/norm1/Add_1_output_0_splitncnn_0 /head/ctc_encoder/encoder/svtr_block.0/norm1/Add_1_output_0_splitncnn_1 /head/ctc_encoder/encoder/svtr_block.0/norm1/Add_1_output_0_splitncnn_2
MultiHeadAttention       /head/ctc_encoder/encoder/svtr_block.0/mixer/proj/Add 3 1 /head/ctc_encoder/encoder/svtr_block.0/norm1/Add_1_output_0_splitncnn_2 /head/ctc_encoder/encoder/svtr_block.0/norm1/Add_1_output_0_splitncnn_1 /head/ctc_encoder/encoder/svtr_block.0/norm1/Add_1_output_0_splitncnn_0 /head/ctc_encoder/encoder/svtr_block.0/mixer/proj/Add_output_0 0=120 1=8 2=14400 3=120 4=120
BinaryOp                 /head/ctc_encoder/encoder/svtr_block.0/Add 2 1 /head/ctc_encoder/encoder/Transpose_output_0_splitncnn_0 /head/ctc_encoder/encoder/svtr_block.0/mixer/proj/Add_output_0 /head/ctc_encoder/encoder/svtr_block.0/Add_output_0
Split                    splitncnn_33             1 2 /head/ctc_encoder/encoder/svtr_block.0/Add_output_0 /head/ctc_encoder/encoder/svtr_block.0/Add_output_0_splitncnn_0 /head/ctc_encoder/encoder/svtr_block.0/Add_output_0_splitncnn_1
LayerNorm                /head/ctc_encoder/encoder/svtr_block.0/norm2/Add_1 1 1 /head/ctc_encoder/encoder/svtr_block.0/Add_output_0_splitncnn_1 /head/ctc_encoder/encoder/svtr_block.0/norm2/Add_1_output_0 0=120 1=1.000000e-05
InnerProduct             /head/ctc_encoder/encoder/svtr_block.0/mlp/fc1/MatMul 1 1 /head/ctc_encoder/encoder/svtr_block.0/norm2/Add_1_output_0 /head/ctc_encoder/encoder/svtr_block.0/mlp/fc1/Add_output_0 0=240 1=1 2=28800
Swish                    /head/ctc_encoder/encoder/svtr_block.0/mlp/act/act/Mul 1 1 /head/ctc_encoder/encoder/svtr_block.0/mlp/fc1/Add_output_0 /head/ctc_encoder/encoder/svtr_block.0/mlp/act/act/Mul_output_0
InnerProduct             /head/ctc_encoder/encoder/svtr_block.0/mlp/fc2/MatMul 1 1 /head/ctc_encoder/encoder/svtr_block.0/mlp/act/act/Mul_output_0 /head/ctc_encoder/encoder/svtr_block.0/mlp/fc2/Add_output_0 0=120 1=1 2=28800
BinaryOp                 /head/ctc_encoder/encoder/svtr_block.0/Add_1 2 1 /head/ctc_encoder/encoder/svtr_block.0/Add_output_0_splitncnn_0 /head/ctc_encoder/encoder/svtr_block.0/mlp/fc2/Add_output_0 /head/ctc_encoder/encoder/svtr_block.0/Add_1_output_0
Split                    splitncnn_34             1 2 /head/ctc_encoder/encoder/svtr_block.0/Add_1_output_0 /head/ctc_encoder/encoder/svtr_block.0/Add_1_output_0_splitncnn_0 /head/ctc_encoder/encoder/svtr_block.0/Add_1_output_0_splitncnn_1
LayerNorm                /head/ctc_encoder/encoder/svtr_block.1/norm1/Add_1 1 1 /head/ctc_encoder/encoder/svtr_block.0/Add_1_output_0_splitncnn_1 /head/ctc_encoder/encoder/svtr_block.1/norm1/Add_1_output_0 0=120 1=1.000000e-05
Split                    splitncnn_35             1 3 /head/ctc_encoder/encoder/svtr_block.1/norm1/Add_1_output_0 /head/ctc_encoder/encoder/svtr_block.1/norm1/Add_1_output_0_splitncnn_0 /head/ctc_encoder/encoder/svtr_block.1/norm1/Add_1_output_0_splitncnn_1 /head/ctc_encoder/encoder/svtr_block.1/norm1/Add_1_output_0_splitncnn_2
MultiHeadAttention       /head/ctc_encoder/encoder/svtr_block.1/mixer/proj/Add 3 1 /head/ctc_encoder/encoder/svtr_block.1/norm1/Add_1_output_0_splitncnn_2 /head/ctc_encoder/encoder/svtr_block.1/norm1/Add_1_output_0_splitncnn_1 /head/ctc_encoder/encoder/svtr_block.1/norm1/Add_1_output_0_splitncnn_0 /head/ctc_encoder/encoder/svtr_block.1/mixer/proj/Add_output_0 0=120 1=8 2=14400 3=120 4=120
BinaryOp                 /head/ctc_encoder/encoder/svtr_block.1/Add 2 1 /head/ctc_encoder/encoder/svtr_block.0/Add_1_output_0_splitncnn_0 /head/ctc_encoder/encoder/svtr_block.1/mixer/proj/Add_output_0 /head/ctc_encoder/encoder/svtr_block.1/Add_output_0
Split                    splitncnn_36             1 2 /head/ctc_encoder/encoder/svtr_block.1/Add_output_0 /head/ctc_encoder/encoder/svtr_block.1/Add_output_0_splitncnn_0 /head/ctc_encoder/encoder/svtr_block.1/Add_output_0_splitncnn_1
LayerNorm                /head/ctc_encoder/encoder/svtr_block.1/norm2/Add_1 1 1 /head/ctc_encoder/encoder/svtr_block.1/Add_output_0_splitncnn_1 /head/ctc_encoder/encoder/svtr_block.1/norm2/Add_1_output_0 0=120 1=1.000000e-05
InnerProduct             /head/ctc_encoder/encoder/svtr_block.1/mlp/fc1/MatMul 1 1 /head/ctc_encoder/encoder/svtr_block.1/norm2/Add_1_output_0 /head/ctc_encoder/encoder/svtr_block.1/mlp/fc1/Add_output_0 0=240 1=1 2=28800
Swish                    /head/ctc_encoder/encoder/svtr_block.1/mlp/act/act/Mul 1 1 /head/ctc_encoder/encoder/svtr_block.1/mlp/fc1/Add_output_0 /head/ctc_encoder/encoder/svtr_block.1/mlp/act/act/Mul_output_0
InnerProduct             /head/ctc_encoder/encoder/svtr_block.1/mlp/fc2/MatMul 1 1 /head/ctc_encoder/encoder/svtr_block.1/mlp/act/act/Mul_output_0 /head/ctc_encoder/encoder/svtr_block.1/mlp/fc2/Add_output_0 0=120 1=1 2=28800
BinaryOp                 /head/ctc_encoder/encoder/svtr_block.1/Add_1 2 1 /head/ctc_encoder/encoder/svtr_block.1/Add_output_0_splitncnn_0 /head/ctc_encoder/encoder/svtr_block.1/mlp/fc2/Add_output_0 /head/ctc_encoder/encoder/svtr_block.1/Add_1_output_0
LayerNorm                /head/ctc_encoder/encoder/norm/Add_1 1 1 /head/ctc_encoder/encoder/svtr_block.1/Add_1_output_0 /head/ctc_encoder/encoder/norm/Add_1_output_0 0=120 1=1.000000e-06
Reshape                  /head/ctc_encoder/encoder/Reshape_1 1 1 /head/ctc_encoder/encoder/norm/Add_1_output_0 /head/ctc_encoder/encoder/Reshape_1_output_0 0=120 1=-1 2=1
Permute                  /head/ctc_encoder/encoder/Transpose_1 1 1 /head/ctc_encoder/encoder/Reshape_1_output_0 /head/ctc_encoder/encoder/Transpose_1_output_0 0=4
Convolution              /head/ctc_encoder/encoder/conv3/conv/Conv 1 1 /head/ctc_encoder/encoder/Transpose_1_output_0 /head/ctc_encoder/encoder/conv3/conv/Conv_output_0 0=480 1=1 5=1 6=57600
Swish                    /head/ctc_encoder/encoder/conv3/act/act/Mul 1 1 /head/ctc_encoder/encoder/conv3/conv/Conv_output_0 /head/ctc_encoder/encoder/conv3/act/act/Mul_output_0
Concat                   /head/ctc_encoder/encoder/Concat_1 2 1 /backbone/AveragePool_output_0_splitncnn_0 /head/ctc_encoder/encoder/conv3/act/act/Mul_output_0 /head/ctc_encoder/encoder/Concat_1_output_0
Convolution              /head/ctc_encoder/encoder/conv4/conv/Conv 1 1 /head/ctc_encoder/encoder/Concat_1_output_0 /head/ctc_encoder/encoder/conv4/conv/Conv_output_0 0=60 1=3 4=1 5=1 6=518400
Swish                    /head/ctc_encoder/encoder/conv4/act/act/Mul 1 1 /head/ctc_encoder/encoder/conv4/conv/Conv_output_0 /head/ctc_encoder/encoder/conv4/act/act/Mul_output_0
Convolution              /head/ctc_encoder/encoder/conv1x1/conv/Conv 1 1 /head/ctc_encoder/encoder/conv4/act/act/Mul_output_0 /head/ctc_encoder/encoder/conv1x1/conv/Conv_output_0 0=120 1=1 5=1 6=7200
Swish                    /head/ctc_encoder/encoder/conv1x1/act/act/Mul 1 1 /head/ctc_encoder/encoder/conv1x1/conv/Conv_output_0 /head/ctc_encoder/encoder/conv1x1/act/act/Mul_output_0
Reshape                  /head/ctc_encoder/encoder_reshape/Reshape 1 1 /head/ctc_encoder/encoder/conv1x1/act/act/Mul_output_0 /head/ctc_encoder/encoder_reshape/Reshape_output_0 0=-1 1=120
Permute                  /head/ctc_encoder/encoder_reshape/Transpose 1 1 /head/ctc_encoder/encoder_reshape/Reshape_output_0 /head/ctc_encoder/encoder_reshape/Transpose_output_0 0=1
InnerProduct             /head/ctc_head/fc/MatMul 1 1 /head/ctc_encoder/encoder_reshape/Transpose_output_0 /head/ctc_head/fc/Add_output_0 0=6625 1=1 2=795000
Softmax                  /head/ctc_head/Softmax   1 1 /head/ctc_head/fc/Add_output_0 output 0=1 1=1
